qhxCode/Dummy/model/dummy_model.pth (torch, 40178 bytes, 11 tensors)

critic.0.weight f4 [64, 2]
0.02477531 0.07229445 0.8040489 0.16186237 -0.011060984 -0.08854186 -0.7029864 -0.4703781
0.00490654 0.058403704 -0.13415615 -0.17747134 -0.42384133 -0.45619503 0.02214651 0.0635218
0.41510195 0.48080525 0.016366461 0.06342876 0.019268923 0.3445472 0.61525506 0.4513398
-0.21760242 -0.13506797 0.18474187 0.18487197 0.009114288 0.027436918 0.47995728 0.66388106
0.8248354 0.11609151 -0.024343727 -0.19416697 0.43540376 0.6125597 0.009220414 0.048523262
0.011378151 0.059657484 0.25667456 0.08749474 0.35899147 -0.03747625 -0.22730573 -0.1815807
0.009237968 0.05346666 0.84563637 0.08935451 -0.51375955 -0.18141907 0.014835855 0.063623816
-0.007668666 -0.05480422 0.017039303 0.08989391 0.043059215 -0.06673387 -0.01199238 -0.035779845
-0.20827438 -0.16146739 -0.011238387 -0.024887607 0.62777185 0.5541347 0.011078911 -0.38825777
-0.22465734 -0.1158057 -0.16004904 -0.16523081 0.011418096 0.1479764 -0.2799961 -0.8277521
-0.42809802 -0.56324273 0.16660215 0.17703405 -0.0056354087 -0.04075385 0.37416297 0.52343124
0.28722474 0.059814107 -0.010948937 -0.06300788 0.012867954 0.084423654 -0.008719411 -0.05219279
-0.01429599 -0.07712874 0.009919561 0.053843476 -0.03343649 -0.09555903 -0.18845509 -0.2701166
0.21482523 0.20761962 0.031150065 0.07325374 0.3853131 0.6255994 -0.48028597 -0.24340668
0.22239345 0.1825946 0.010060323 0.09110218 -0.24240176 -0.08372878 -0.009361569 -0.06113856
-0.0111945085 -0.023309212 0.008427618 0.046561737 0.47089896 -0.36301443 -0.46800274 -0.40649667
00000000: 97f5 ca3c 1d0f 943d 26d6 4d3f 40bf 253e
00000010: 2139 35bc 6f55 b5bd ebf6 33bf 66d5 f0be
00000020: 0ac7 a03b b938 6f3d 3b60 09be 0cbb 35be
00000030: bb01 d9be 6592 e9be 996c b53c b817 823d
00000040: 3e88 d43e 1b2c f63e f512 863c f0e6 813d
00000050: dcd9 9d3c 7e68 b03e 5b81 1d3f 0316 e73e
00000060: 2bd3 5ebe 424f 0abe f92c 3d3e 144f 3d3e
00000070: 1854 153c 63c3 e03c f6bc f53e 1cf4 293f
00000080: 6a28 533f 63c1 ed3d 7f6c c7bc b5d3 46be
00000090: 3eed de3e b6d0 1c3f 3811 173c 54c0 463d
000000a0: 6d6b 3a3c 685b 743d d96a 833e 7130 b33d
000000b0: bbcd b73e b280 19bd d5c2 68be 4bf0 39be
000000c0: d95a 173c dbff 5a3d a07b 583f 7fff b63d
000000d0: bf85 03bf ecc5 39be 1612 733c 344d 823d
000000e0: 6f49 fbbb 647a 60bd 0296 8b3c 4c1a b83d
000000f0: dc5e 303d c4ab 88bd b07b 44bc e38d 12bd
00000100: e145 55be b557 25be 3621 38bc 18e1 cbbc
00000110: a8b5 203f c6db 0d3f 5284 353c b9c9 c6be
00000120: 930c 66be 8a2b edbd e5e3 23be 4432 29be
00000130: f712 3b3c 2087 173e a65b 8fbe 90e7 53bf
00000140: aa2f dbbe ad30 10bf c199 2a3e 6a48 353e
00000150: 3ca9 b8bb 82ed 26bd 4a92 bf3e 97ff 053f
00000160: 1f0f 933e a3ff 743d 2c63 33bc 460a 81bd
00000170: 1cd4 523c 4fe6 ac3d dcdb 0ebc 1bc8 55bd
00000180: ba39 6abc acf5 9dbd a885 223c fa8a 5c3d
00000190: b3f4 08bd 74b4 c3bd 5ffa 40be b94c 8abe
000001a0: 25fb 5b3e 3d9a 543e 6c2e ff3c 0f06 963d
000001b0: c247 c53e 4827 203f 0be8 f5be 9a3f 79be
000001c0: 1cbb 633e 14fa 3a3e 0ed4 243c c893 ba3d
000001d0: 2b38 78be ff79 abbd 4461 19bc 6d6c 7abd
000001e0: 2c69 37bc f6f2 bebc fe13 0a3c 85b7 3e3d
000001f0: ab19 f13e 07dd b9be 0e9e efbe 5520 d0be

critic.0.bias f4 [64]
0.29267535 0.07494605 -0.46856788 -0.30738348 0.4558423 0.1406807 -0.6409166 0.3620206
0.40716165 0.40920052 0.051279157 0.28921816 0.58810544 -0.51007843 0.41926068 0.47602534
0.04645542 0.16286996 0.47933424 0.4762501 0.36732334 -0.50701356 -0.6315647 0.5859705
0.49953553 0.03303262 -0.13974759 0.38540483 -0.4446064 0.34368128 0.15147018 -0.48798493
0.6073201 -0.44711736 0.38876513 0.023515135 0.61873335 0.426971 0.44554755 -0.37250525
-0.45543733 -0.4701997 -0.46949908 0.3691506 -0.56577146 -0.3851213 0.4208483 -0.5293911
-0.51304007 0.40876386 -0.21710317 0.63349867 -0.6225451 0.34771907 0.4478949 -0.41345382
-0.6345525 0.70282114 0.5940123 -0.36593986 -0.4665419 0.47998145 -0.23099001 -0.35293898
00000000: 8bd9 953e 517d 993d 21e8 efbe 5e61 9dbe
00000010: 2964 e93e 9a0e 103e 1c13 24bf c45a b93e
00000020: 7e77 d03e bb82 d13e 180a 523d 6714 943e
00000030: 148e 163f 8094 02bf 56a9 d63e 98b9 f33e
00000040: 0a48 3e3d 62c7 263e 4c6b f53e 0ed7 f33e
00000050: ce11 bc3e a4cb 01bf 39ae 21bf 2a02 163f
00000060: 1fc3 ff3e 364d 073d fe19 0fbe c853 c53e
00000070: 73a3 e3be fef6 af3e 001b 1b3e 29d9 f9be
00000080: 5479 1b3f 91ec e4be 390c c73e d0a2 c03c
00000090: 4f65 1e3f f19b da3e cf1e e43e 02b9 bebe
000000a0: 152f e9be 04be f0be 2f62 f0be 4f01 bd3e
000000b0: 66d6 10bf 9e2e c5be 6e79 d73e 2d86 07bf
000000c0: 9856 03bf 7f49 d13e 4b50 5ebe f82c 223f
000000d0: 1e5f 1fbf 3c08 b23e 7b52 e53e 38b0 d3be
000000e0: 0872 22bf 16ec 333f 3111 183f 785c bbbe
000000f0: 94de eebe 21c0 f53e a588 6cbe 6bb4 b4be

critic.2.weight f4 [64, 64]
0.06741454 -0.5185323 -0.19164357 0.33289236 0.19782484 0.21190518 0.37380463 -0.116368085
-0.46633935 0.085313104 -0.130044 -0.3400241 -0.47289237 0.52887535 0.4571089 -0.52942944
-0.4765594 -0.1627029 -0.08964061 0.2573175 0.52576756 0.5320808 0.23877025 -0.37622702
0.10691383 -0.4865381 -0.044612765 0.31015587 -0.5264268 0.2537382 0.090341635 -0.62812
-0.42832106 -0.015913337 -0.43189895 -0.21079987 -0.34482467 -0.3786015 0.23053694 0.29066512
0.66839576 0.49146807 -0.21311557 -0.23798591 0.5876823 -0.35383466 0.28390023 -0.10992163
-0.2221456 0.4692693 -0.32527357 -0.24942076 0.46948192 0.039521635 -0.14766188 0.50924605
0.5593971 -0.33940583 -0.29904178 -0.36530864 -0.40092868 0.6517179 0.19985928 0.08959981
0.26605752 0.14555018 -0.24355304 -0.22198206 0.57696825 0.06476833 -0.24381348 0.18798319
-0.04018794 0.18175308 -0.26330823 -0.3221488 -0.5317941 -0.06485227 0.3207952 -0.14176801
0.07479251 0.37880528 -0.2905458 0.45410103 0.6494813 -0.16047032 -0.034023345 -0.014694508
0.30668518 0.19310491 0.29202205 0.70048064 -0.4678022 0.4770455 0.25905874 -0.3199635
0.011515621 -0.51328635 -0.027200554 0.17775677 0.20829363 0.15258567 0.28967652 0.08621109
0.46816695 -0.121365294 -0.32208878 0.11311266 -0.44090322 -0.47235075 0.20309135 -0.47331524
-0.54764605 0.5506715 -0.07185392 0.007721785 0.076524645 0.3485325 0.057025697 0.06438551
-0.42767408 0.2425965 -0.038072743 -0.49456325 -0.7146805 0.6861118 0.18635748 -0.0470182
0.25756565 -0.018195217 -0.35777253 0.0929461 0.4818057 0.2578159 0.23341021 0.2779107
-0.45525643 0.0027943226 0.14541753 -0.3468355 -0.157319 0.19569223 0.6022984 -0.36906925
-0.18120836 0.45928842 -0.21757361 0.13324639 0.23800422 0.20844188 -0.050708376 -0.06702602
0.014061158 -0.50584096 0.26439223 0.051557828 -0.16479792 -0.09668136 0.20251723 -0.5194775
0.13734084 -0.3947591 -0.24892227 0.27127114 -0.1883639 -0.14141862 0.32555452 0.14258792
0.1870741 0.16861148 -0.44026265 -0.07502222 -0.05974011 -0.3547894 0.15602428 -0.20608385
-0.38054064 0.15559411 -0.26972353 0.38259396 0.112939194 0.07906366 -0.25634962 -0.16046225
0.16889706 0.26038226 -0.23417048 -0.4773478 -0.40222174 0.12091063 0.10360938 0.30141962
-0.23637018 -0.10516495 0.5016225 0.3287482 -0.33785975 0.27535802 0.42677435 -0.22686806
-0.6405633 -0.32504705 -0.26625633 -0.04969428 0.13414043 0.14788535 -0.08682843 -0.50980216
-0.25996774 0.20751336 -0.43015045 -0.12647223 -0.5109978 -0.072469994 0.3355551 0.049660277
-0.4788812 -0.2894607 -0.05359061 -0.19886628 0.24790005 -0.32287222 -0.040807176 0.50953954
-0.030180292 0.1342372 -0.3747853 0.25016305 -0.318158 -0.16485433 -0.22731496 0.36953413
0.65054476 -0.40747288 0.123829894 -0.55871654 -0.083627164 0.42873323 -0.5094934 0.33885136
0.2889266 -0.07819491 0.5678172 0.14641865 -0.019489957 -0.35432038 -0.43552932 0.56422585
0.070450775 -0.12647296 0.1651217 0.13345776 0.10102235 0.2749029 0.6489659 0.14098148
00000000: a210 8a3d 88be 04bf 363e 44be de70 aa3e
00000010: 9892 4a3e acfd 583e 5263 bf3e 6452 eebd
00000020: 08c4 eebe a3b8 ae3d 412a 05be a417 aebe
00000030: f31e f2be 6064 073f 2e0a ea3e b088 07bf
00000040: 98ff f3be 979b 26be 7f95 b7bd 1fbf 833e
00000050: b498 063f 7336 083f 3080 743e d4a0 c0be
00000060: a3f5 da3d 861b f9be e0bb 36bd c0cc 9e3e
00000070: e8c3 06bf f9e9 813e 0905 b93d 79cc 20bf
00000080: e64c dbbe b05c 82bc dc21 ddbe ecdb 57be
00000090: dc8c b0be 0ed8 c1be e011 6c3e 0fd2 943e
000000a0: fc1b 2b3f b4a1 fb3e f83a 5abe 94b2 73be
000000b0: 5972 163f d129 b5be 5f5b 913e 971e e1bd
000000c0: 237a 63be 1144 f03e 428a a6be 2868 7fbe
000000d0: ef5f f03e 70e1 213d ad34 17be f35d 023f
000000e0: a634 0f3f 9ac6 adbe 011c 99be bc09 bbbe
000000f0: 8646 cdbe fcd6 263f e9a7 4c3e 1b80 b73d
00000100: b138 883e 1b0b 153e f865 79be 444f 63be
00000110: 31b4 133f 42a5 843d 3eaa 79be aa7e 403e
00000120: 1c9c 24bd 7b1d 3a3e 56d0 86be b0f0 a4be
00000130: a823 08bf 44d1 84bd 453f a43e a22b 11be
00000140: d12c 993d c4f2 c13e 6bc2 94be ee7f e83e
00000150: 6844 263f 5552 24be 105c 0bbd 3cc1 70bc
00000160: d705 9d3e 4bbd 453e ea83 953e b352 333f
00000170: c583 efbe 4f3f f43e 59a3 843e 42d2 a3be
00000180: 04ac 3c3c bc66 03bf b2d3 debc df05 363e
00000190: ed4a 553e 6b3f 1c3e 7b50 943e 718f b03d
000001a0: 94b3 ef3e 5e8e f8bd d2e8 a4be 9ca7 e73d
000001b0: 11be e1be f5d7 f1be 2ef7 4f3e 6056 f2be
000001c0: 8832 0cbf cff8 0c3f 2628 93bd 0707 fd3b
000001d0: f4b8 9c3d da72 b23e c793 693d 8ddc 833d
000001e0: 19f8 dabe 386b 783e 2af2 1bbd 6537 fdbe
000001f0: 4df5 36bf 06a5 2f3f 7fd4 3e3e 2896 40bd
00000200: a5df 833e 230e 95bc f62d b7be 865a be3d
00000210: 3daf f63e 7200 843e 1603 6f3e 504a 8e3e
00000220: 5f17 e9be f420 373b 55e8 143e 6c94 b1be
00000230: 3b18 21be 8b63 483e 3a30 1a3f a5f6 bcbe
00000240: af8e 39be da27 eb3e 9ecb 5ebe be71 083e
00000250: 61b7 733e ca71 553e 96b3 4fbd f044 89bd
00000260: c560 663c cb7e 01bf 6b5e 873e 4d2e 533d
00000270: c9c0 28be e000 c6bd ad60 4f3e 7afc 04bf
00000280: 14a3 0c3e dd1d cabe 7be5 7ebe 0de4 8a3e
00000290: 77e2 40be 0bd0 10be 15af a63e 9102 123e
000002a0: 5a90 3f3e 7da8 2c3e 1b6a e1be 40a5 99bd
000002b0: 0cb2 74bd f5a6 b5be d4c4 1f3e a507 53be
000002c0: 39d6 c2be 1054 1f3e 3419 8abe 5be3 c33e
000002d0: aa4c e73d 21ec a13d 4240 83be 3750 24be
000002e0: 5af3 2c3e d350 853e 63ca 6fbe ee66 f4be
000002f0: 02f0 cdbe fe9f f73d 2831 d43d ac53 9a3e
00000300: 060b 72be b960 d7bd 556a 003f af51 a83e
00000310: f4fb acbe bafb 8c3e 2b82 da3e 1a50 68be
00000320: f5fb 23bf 916c a6be c052 88be 3b8c 4bbd
00000330: 1c5c 093e 426f 173e 1bd3 b1bd 6582 02bf
00000340: 7e1a 85be 627e 543e ae3c dcbe f081 01be
00000350: c0d0 02bf 266b 94bd e1cd ab3e 9368 4b3d
00000360: eb2f f5be 3134 94be d481 5bbd 9aa3 4bbe
00000370: 83d9 7d3e 824f a5be 6d25 27bd 2f71 023f
00000380: a93c f7bc 7a75 093e dce3 bfbe 5f15 803e
00000390: 9be5 a2be 93cf 28be 41c5 68be 9433 bd3e
000003a0: 1a8a 263f 49a0 d0be 879a fd3d 0c08 0fbf
000003b0: b844 abbd ec82 db3e 296e 02bf ed7d ad3e
000003c0: 30ee 933e a724 a0bd 785c 113f c5ee 153e
000003d0: 67a9 9fbc 7b69 b5be b3fd debe 1b71 103f
000003e0: 7f48 903d 2182 01be aa15 293e 27a9 083e
000003f0: cee4 ce3d 13c0 8c3e a122 263f 735d 103e

critic.2.bias f4 [64]
0.2229617 0.27136958 0.17582516 -0.25552824 0.237817 0.12885796 -0.17023346 -0.31418192
0.2744761 0.15977758 0.17931034 -0.16973466 0.28269586 -0.1361699 -0.19270523 -0.2523784
-0.20544875 -0.17590919 0.28262383 0.1689679 -0.21117349 0.36547107 -0.24667922 0.22900146
0.24249564 -0.25061768 0.16147156 -0.33750528 -0.2654761 -0.12286633 -0.14537002 -0.36856288
-0.33872876 0.39855865 0.20138976 0.17463884 0.14365962 0.2548934 0.33289245 0.1911442
-0.11486196 0.31530958 -0.27314693 -0.17221065 -0.2449772 -0.25838298 -0.3509349 0.2350413
0.16298988 0.11900679 0.28222144 -0.16645353 -0.40841264 -0.28902495 0.3582445 -0.14498824
-0.37506106 0.24301858 0.24812534 0.20156957 0.098936856 0.16001987 0.28176424 0.19587193
00000000: 1250 643e f4f0 8a3e 830b 343e 99d4 82be
00000010: 4d86 733e 57f3 033e ae51 2ebe 74dc a0be
00000020: 2288 8c3e bc9c 233e 219d 373e ecce 2dbe
00000030: 83bd 903e 1f70 0bbe 8554 45be be37 81be
00000040: 2861 52be 8a21 34be 12b4 903e ec05 2d3e
00000050: dd3d 58be 061f bb3e 7a99 7cbe 5c7f 6a3e
00000060: c750 783e f650 80be cd58 253e 7ecd acbe
00000070: 7cec 87be 58a1 fbbd e1db 14be 46b4 bcbe
00000080: db6d adbe e10f cc3e 1e39 4e3e 86d4 323e
00000090: 821b 133e 6381 823e e170 aa3e 4ebb 433e
000000a0: bf3c ebbd 4270 a13e ead9 8bbe fd57 30be
000000b0: 4edb 7abe c64a 84be bdad b3be abae 703e
000000c0: d2e6 263e d5b9 f33d 547f 903e cb72 2abe
000000d0: 761b d1be 14fb 93be d36b b73e cc77 14be
000000e0: 0108 c0be ddd9 783e 9214 7e3e 4168 4e3e
000000f0: 689f ca3d 40dc 233e 6743 903e a792 483e

critic.4.weight f4 [1, 64]
-1.6560267 -1.8110832 -1.7893813 -0.40777427 -1.7626342 0.5839629 1.8577797 1.7544825
-1.6560861 -1.86619 -1.7756573 -0.5249962 -1.8491815 -0.49880797 -0.52627563 1.6517701
1.7710199 1.7913496 -1.744998 0.5615725 1.7273108 -1.5771308 1.7647204 -1.6690289
-1.840727 1.7416784 -1.8569818 1.6834377 1.7419733 -0.63777035 -0.7748377 1.5888684
1.6612338 -1.5964092 -1.7331468 -1.8848746 -1.7026781 -1.6991879 -1.680357 -1.811084
-0.5536503 -1.6991445 1.7552837 1.69473 1.8818116 1.7072537 1.671305 -1.8080441
-1.84057 -1.7644022 -1.744882 -0.60558885 1.5945623 1.703607 -1.6692997 -0.55765444
1.5699381 -1.7142247 -1.7891389 -1.8297014 0.62722826 0.58023286 -1.7409726 0.451987
00000000: aff8 d3bf 93d1 e7bf 720a e5bf cac7 d0be
00000010: ff9d e1bf 987e 153f bacb ed3f e292 e03f
00000020: a1fa d3bf 50df eebf bd48 e3bf 2766 06bf
00000030: fbb1 ecbf c263 ffbe 00ba 06bf 346d d33f
00000040: c8b0 e23f f24a e53f 185c dfbf 37c3 0f3f
00000050: 8518 dd3f 6cdf c9bf 5ce2 e13f bda2 d5bf
00000060: f19c ebbf 51ef de3f 94b1 edbf e37a d73f
00000070: fbf8 de3f eb44 23bf c35b 46bf 0a60 cb3f
00000080: 4fa3 d43f 2357 ccbf c1d7 ddbf 9243 f1bf
00000090: 5bf1 d9bf fd7e d9bf f015 d7bf 9ad1 e7bf
000000a0: 07bc 0dbf 917d d9bf 23ad e03f eaec d83f
000000b0: 34df f03f 4a87 da3f 52ed d53f fd6d e7bf
000000c0: cc97 ebbf eed7 e1bf 4b58 dfbf df07 1bbf
000000d0: 9e1a cc3f cb0f da3f 9dab d5bf 71c2 0ebf
000000e0: bbf3 c83f b76b dbbf 8102 e5bf a833 eabf
000000f0: 0892 203f 248a 143f 31d8 debf d76a e73e

actor.0.weight f4 [64, 2]
0.17301048 -0.062648505 -0.011623011 0.033805963 0.12276274 0.12412535 -0.118155226 -0.13657717
-0.10050654 -0.59515107 0.19131295 -0.0034123224 0.1751515 0.11994359 -0.0019589341 0.14374393
-0.22860453 -0.023109604 0.35187754 0.18981469 0.31089607 0.10888339 -0.09540578 0.14309923
-0.112396486 -0.31553918 -0.22787744 0.034325168 -0.1067931 -0.17198783 -0.014445634 -0.009977617
0.13606998 -0.067519724 -0.13131551 0.07542634 0.027483683 -0.15321589 0.06991177 0.16299063
-0.18236354 0.13700625 -0.040824156 -0.013040151 -0.08040179 -0.10211365 -0.165209 0.31333077
0.1581106 0.086701915 0.039587006 0.18645832 -0.028924216 -0.21736963 0.15027411 0.2782848
0.011676823 0.21457088 -0.2517168 -0.19611786 0.00080603233 -0.0104273185 -0.03466356 -0.004214239
-0.15001017 -0.22671334 0.36155772 -0.0625775 0.13373362 0.0078783315 0.16550638 0.18720134
-0.06719156 0.4326853 0.051310644 0.017683556 0.1359212 0.016774064 0.10471091 -0.2534587
0.038508836 0.2190318 -0.059330683 -0.10156948 -0.24521941 -0.10000862 0.24429564 0.24780808
-0.022710625 -0.11153472 0.21832307 -0.3607899 0.29354 -0.1374254 -0.074967 0.040899456
0.061958358 0.03267415 0.0073150923 -0.28937942 0.24077538 0.07275892 -0.15971154 0.18952666
0.08759493 0.007919305 0.06574021 -0.1214601 0.08866401 0.16326426 -0.1393494 0.1944921
0.08590941 0.26091903 0.072718166 -0.055544443 -0.13565975 0.15599626 0.16074364 -0.024776723
0.054542698 0.14111975 0.051524766 0.37426037 -0.19202667 0.13604584 0.23289187 -0.060908154
00000000: a929 313e dc4d 80bd 716e 3ebc 1f78 0a3d
00000010: 086b fb3d 6e35 fe3d 5efb f1bd e3da 0bbe
00000020: 5fd6 cdbd d25b 18bf 8be7 433e 45a1 5fbb
00000030: ea5a 333e fca4 f53d 7661 00bb 9c31 133e
00000040: 4e17 6abe 5a50 bdbc 4b29 b43e c85e 423e
00000050: c52d 9f3e 41fe de3d 1b64 c3bd 9b88 123e
00000060: 2130 e6bd 5a8e a1be b458 69be 8c98 0c3d
00000070: 57b6 dabd 941d 30be 61ad 6cbc 2979 23bc
00000080: ee55 0b3e c847 8abd 9377 06be 2079 9a3d
00000090: 7625 e13c a0e4 1cbe e72d 8f3d 04e7 263e
000000a0: 82bd 3abe 5e4b 0c3e 3b37 27bd 5ca6 55bc
000000b0: b2a9 a4bd f620 d1bd 8c2c 29be e46c a03e
000000c0: bfe7 213e c690 b13d fc25 223d eeee 3e3e
000000d0: 7af2 ecbc 2596 5ebe 75e1 193e 587b 8e3e
000000e0: 2550 3f3c 78b8 5b3e 06e1 80be 1fd3 48be
000000f0: ea4b 533a 58d7 2abc 61fb 0dbd 9917 8abb
00000100: 449c 19be 8b27 68be 181e b93e a228 80bd
00000110: 77f1 083e 1e14 013c 817a 293e b5b1 3f3e
00000120: bb9b 89bd ed88 dd3e 1c2b 523d 1bdd 903c
00000130: ed2e 0b3e c369 893c ac72 d63d 57c5 81be
00000140: 71bb 1d3d df49 603e bb04 73bd a903 d0bd
00000150: cc1a 7bbe 52d1 ccbd a328 7a3e 67c1 7d3e
00000160: a20b babc 516c e4bd 1590 5f3e 74b9 b8be
00000170: e04a 963e 3eb9 0cbe 4c88 99bd 3086 273d
00000180: 0cc8 7d3d 54d5 053d 71b3 ef3b 8a29 94be
00000190: d28d 763e a102 953d 6c8b 23be 4713 423e
000001a0: f864 b33d f9bf 013c cea2 863d 13c0 f8bd
000001b0: 7a95 b53d bf2e 273e 9cb1 0ebe f028 473e
000001c0: 46f1 af3d 2e97 853e 43ed 943d 9282 63bd
000001d0: 64ea 0abe 7cbd 1f3e fb99 243e 8ef8 cabc
000001e0: 2a68 5f3d b281 103e a20b 533d 0e9f bf3e
000001f0: a4a2 44be 9a4f 0b3e 357b 6e3e d47a 79bd

actor.0.bias f4 [64]
-0.1822754 -0.177284 -0.17902246 0.19932719 -0.14883728 -0.2059872 -0.22290292 0.030204812
0.20463768 -0.25247952 -0.24237254 0.16985667 -0.10447137 0.21375138 -0.17974108 0.16561934
-0.17633046 0.20742927 -0.14426385 0.16482799 0.22542672 -0.16271661 0.19257973 0.2087332
0.020226207 -0.1071997 0.14720193 -0.21014231 -0.13767663 0.16861999 -0.10098365 0.086488925
0.21412969 -0.2052563 -0.111513786 -0.21784008 0.17565115 -0.17144307 -0.18807077 0.100848824
-0.026697038 0.040891785 0.21403444 -0.21308154 -0.13062507 -0.2466981 -0.1966156 -0.12719877
-0.18013933 -0.19105656 -0.21013027 0.18099774 -0.1798619 -0.07095909 -0.21172209 0.12371879
0.084153935 0.09596387 0.20008425 -0.21598412 0.17654099 0.18027157 0.21489194 -0.2126265
00000000: 67a6 3abe f089 35be aa51 37be 6d1c 4c3e
00000010: cd68 18be 4fee 52be aa40 64be 1570 f73c
00000020: 8a8c 513e ff44 81be 8230 78be e8ee 2d3e
00000030: 16f5 d5bd a4e1 5a3e 0c0e 38be 1e98 293e
00000040: f98f 34be 5768 543e e7b9 13be abc8 283e
00000050: 43d6 663e 2f9f 26be 9f33 453e 28be 553e
00000060: 6eb1 a53c 848b dbbd 1abc 163e 8c2f 57be
00000070: 1afb 0cbe b8aa 2c3e 84d0 cebd 1b21 b13d
00000080: d044 5b3e b52e 52be 5761 e4bd 7811 5fbe
00000090: e5dd 333e c68e 2fbe a095 40be d489 ce3d
000000a0: bfb3 dabc 257e 273d d82b 5b3e 0c32 5abe
000000b0: 94c2 05be 6d9e 7cbe 9a55 49be 6540 02be
000000c0: 7276 38be 55a4 43be 642c 57be 7957 393e
000000d0: b82d 38be 0053 91bd adcd 58be 4760 fd3d
000000e0: e658 ac3d b588 c43d e3e2 4c3e f12a 5dbe
000000f0: 29c7 343e 1c99 383e a20c 5c3e c3ba 59be

actor.2.weight f4 [64, 64]
0.18339117 0.07900002 0.1933514 0.0021048044 0.110921636 0.13104081 0.034649387 -0.071137846
-0.059540622 -0.1096432 -0.32697806 -0.21377803 0.1613433 0.43435028 0.19544981 -0.048021507
-0.005549317 0.17501822 -0.34200233 0.11410283 0.31178316 0.18451291 -0.20332626 0.082842425
0.3288698 -0.14757688 0.26079068 0.20943205 -0.018375292 0.24207437 -0.28942642 -0.029099114
0.011051499 -0.046334703 0.1587829 0.32738575 0.07742207 -0.1521554 -0.26230618 0.17267531
0.022941303 0.114387184 -0.18513948 0.14153773 -0.09814502 -0.051724136 -0.21802993 0.015102058
0.011606973 -0.19422512 0.039477095 0.07552715 -0.25471255 -0.05453889 0.022572452 0.19134468
-0.16791438 -0.12683989 -0.004479967 -0.31153777 0.06985754 0.026373032 -0.24833466 -0.12121733
0.07094978 -0.39769673 0.073957525 0.016704304 -0.094475955 -0.31646723 0.2408276 0.19189161
-0.08425168 -0.20760164 -0.12511525 0.55390173 0.0037875322 0.104164444 -0.0029629257 0.034242537
0.18363915 0.1565509 0.012075253 0.26668397 0.14691968 0.12146473 0.0012774222 -0.030000502
-0.21164586 -0.088648 -0.10831369 -0.14201526 0.026043823 -0.28424603 0.082139686 0.21987823
0.034964073 -0.31036004 0.20191908 0.029301796 0.15253824 -0.19949949 0.07263518 0.0046400945
-0.040813137 -0.06278615 0.22785598 0.21475117 -0.18233939 -0.006298743 0.21719858 -0.37817934
-0.31409064 -0.24256682 -0.08247996 0.017945344 0.11918704 -0.21802273 0.15616757 0.03505993
-0.15783806 -0.25734335 0.039170463 -0.34928113 0.0030544936 0.029930716 -0.007944254 -0.053558044
0.011510826 -0.02681316 0.15982851 0.03052814 -0.1604173 0.04094479 0.28909692 0.47302356
-0.12433604 -0.11961631 0.004768043 -0.092689015 -0.18403609 -0.122587964 0.072482385 -0.1175437
0.11814454 -0.2834326 -0.04573494 -0.13022102 0.028790206 0.18696696 0.21577778 0.013051393
0.0467591 -0.09167079 -0.050181523 0.0019795576 0.18373816 0.31763968 -0.3411245 0.15208101
-0.2197294 -0.09853058 0.32903704 -0.010392418 -0.014915334 0.21530871 0.5032831 0.19815141
0.31983298 0.032231603 0.08436629 -0.01628846 0.09147154 -0.10913217 0.0415019 0.123452865
0.30401632 -0.0025940735 -0.06403889 -0.3927745 -0.14414644 -0.06533536 0.31832805 -0.046381187
-0.017458849 0.14698848 0.18334526 0.24500014 0.13827407 -0.09215017 -0.080946274 -0.009429589
-0.24795142 0.15998575 0.21593699 0.26829487 0.1752892 0.16482869 -0.09595416 -0.12028297
-0.33001876 0.15289074 0.48134258 0.05155051 -0.09688169 0.31446242 -0.06954966 -0.09206033
-0.21601832 -0.0085012 0.09839567 -0.111375876 0.21963875 0.013080793 -0.07307415 -0.017712846
-0.027059255 -0.16900033 -0.49077252 0.14260003 -0.065307446 0.09702907 -0.14091752 0.01700272
-0.2585856 -0.020104967 0.1405967 0.284448 0.042564616 -0.1246005 0.32350218 -0.29695246
-0.20384912 -0.12264895 0.04029196 0.23422618 -0.27045837 -0.19903173 0.17221738 0.03728952
0.25013024 0.008791239 0.077811375 -0.10011305 0.0072151334 -0.0922488 -0.16649997 -0.14178199
0.096467845 -0.024275461 -0.08614342 -0.028316114 -0.26060507 -0.12307059 -0.06845375 0.29588982
00000000: e5ca 3b3e c3ca a13d e9fd 453e c2f0 093b
00000010: e22a e33d 902f 063e 84ec 0d3d b8b0 91bd
00000020: dee0 73bd 9d8c e0bd ab69 a7be a1e8 5abe
00000030: 2e37 253e 2963 de3e ff23 483e 33b2 44bd
00000040: 0cd7 b5bb fa37 333e ee1a afbe bfae e93d
00000050: 0ba2 9f3e f4f0 3c3e c234 50be 4aa9 a93d
00000060: 9f61 a83e 651e 17be 5b86 853e 5b75 563e
00000070: c887 96bc 58e2 773e b32f 94be 4461 eebc
00000080: 5911 353c 75c9 3dbd fc97 223e 1b9f a73e
00000090: 768f 9e3d a0ce 1bbe ff4c 86be ccd1 303e
000000a0: 66ef bb3c d443 ea3d 3495 3dbe 44ef 103e
000000b0: 4200 c9bd b0dc 53bd 3d43 5fbe 9f6e 773c
000000c0: 2c2b 3e3c f3e2 46be bcb2 213d faad 9a3d
000000d0: af69 82be 2c64 5fbd dde9 b83c dcef 433e
000000e0: bff1 2bbe 51e2 01be b0cc 92bb e181 9fbe
000000f0: 7811 8f3d 420c d83c 714b 7ebe cb40 f8bd
00000100: 1e4e 913d e89e cbbe 0b77 973d 77d7 883c
00000110: 9c7c c1bd fe07 a2be 839b 763e 3c7f 443e
00000120: 258c acbd 8695 54be 361e 00be 81cc 0d3f
00000130: 3f38 783b 2b54 d53d a52d 42bb e741 0c3d
00000140: e70b 3c3e e14e 203e 48d7 453c cd8a 883e
00000150: 1d72 163e 80c2 f83d 2d6f a73a 9dc3 f5bc
00000160: b1b9 58be 158d b5bd 91d3 ddbd 736c 11be
00000170: db59 d53c b288 91be da38 a83d c227 613e
00000180: 7d36 0f3d 83e7 9ebe e0c3 4e3e 520a f03c
00000190: fc32 1c3e 9849 4cbe c1c1 943d ef0b 983b
000001a0: ad2b 27bd 0696 80bd 1453 693e bbe7 5b3e
000001b0: 2db7 3abe b065 cebb 4e69 5e3e b9a0 c1be
000001c0: 7dd0 a0be 7063 78be 41eb a8bd 1d02 933c
000001d0: 5618 f43d 5a41 5fbe 64ea 1f3e 009b 0f3d
000001e0: 4da0 21be 82c2 83be 3571 203d fad4 b2be
000001f0: e62d 483b 4331 f53c 9e28 02bc ae5f 5bbd
00000200: e797 3c3c 46a7 dbbc 16aa 233e 2616 fa3c
00000210: 6f44 24be b9b5 273d 8304 943e 2530 f23e
00000220: e5a3 febd 65f9 f4bd 3e3d 9c3b bdd3 bdbd
00000230: f573 3cbe 660f fbbd a571 943d c0ba f0bd
00000240: c4f5 f13d 141e 91be 8f54 3bbd a958 05be
00000250: 70d9 eb3c 4474 3f3e daf4 5c3e 83d5 553c
00000260: 7886 3f3d e5bd bbbd 248b 4dbd 77bb 013b
00000270: db25 3c3e aba1 a23e dfa7 aebe 20bb 1b3e
00000280: be00 61be 67ca c9bd 8b77 a83e f644 2abc
00000290: 725f 74bc e379 5c3e 29d7 003f 34e8 4a3e
000002a0: 26c1 a33e 4905 043d 3cc8 ac3d 606f 85bc
000002b0: 6e55 bb3d b080 dfbd e5fd 293d dbd4 fc3d
000002c0: 07a8 9b3e 5501 2abb d226 83bd bd19 c9be
000002d0: 209b 13be 8cce 85bd e5fb a23e 33fa 3dbd
000002e0: dc05 8fbc 2684 163e dcbe 3b3e 51e1 7a3e
000002f0: b897 0d3e 3ab9 bcbd 29c7 a5bd 907e 1abc
00000300: fae6 7dbe 4ed3 233e 961e 5d3e f25d 893e
00000310: 037f 333e dac8 283e 9d83 c4bd eb56 f6bd
00000320: 38f8 a8be 648f 1c3e 8972 f63e a126 533d
00000330: e869 c6bd 3801 a13e 0d70 8ebd 208a bcbd
00000340: e833 5dbe 9e48 0bbc ab83 c93d 0919 e4bd
00000350: fbe8 603e d350 563c e6a7 95bd 881a 91bc
00000360: 5fab ddbc 6c0e 2dbe 8946 fbbe be05 123e
00000370: e9bf 85bd 2db7 c63d af4c 10be 4a49 8b3c
00000380: 5565 84be 2cb3 a4bc 95f8 0f3e 2ba3 913e
00000390: 3c58 2e3d 8c2e ffbd 14a2 a53e 270a 98be
000003a0: d3bd 50be 5f2f fbbd 2f09 253d fdd8 6f3e
000003b0: 8579 8abe f9ce 4bbe c159 303e e5bc 183d
000003c0: 1211 803e 2109 103c 925b 9f3d 1208 cdbd
000003d0: ed6c ec3b f0ec bcbd f87e 2abe 4c2f 11be
000003e0: ef90 c53d 55dd c6bc f66b b0bd 32f7 e7bc
000003f0: 076e 85be 6f0c fcbd 7b31 8cbd df7e 973e

actor.2.bias f4 [64]
0.12328602 0.15274802 -0.12671563 -0.15032102 -0.15751618 -0.1441213 0.15204911 0.14693406
0.12118718 0.047544118 -0.12981533 0.13990308 0.11942928 -0.14319237 0.15364079 0.15794845
-0.07467522 -0.13406113 -0.036392532 -0.16133381 0.1431153 -0.14176913 -0.08617819 0.15444826
-0.12722006 0.14594287 0.1542282 0.10745325 -0.13771324 0.1438742 -0.1421982 -0.1448305
-0.16421518 0.11241776 -0.12823518 0.119718574 -0.13572088 0.14463076 -0.15556209 0.14447637
-0.14133821 0.16230892 -0.13881135 0.09259487 0.12996754 0.11092211 -0.16693301 0.13281795
-0.14891334 -0.13837254 0.16643678 0.14778773 -0.14290355 0.1409047 0.16397817 -0.15878752
-0.14931555 0.15149923 -0.11346078 -0.08127994 -0.13872588 -0.08178463 0.15595554 0.094860606
00000000: 617d fc3d fa69 1c3e bec1 01be c1ed 19be
00000010: ec4b 21be 8994 13be c3b2 1b3e e275 163e
00000020: fc30 f83d 9fbd 423d 4fee 04be c142 0f3e
00000030: 5797 f43d 05a1 12be 0354 1d3e 3dbd 213e
00000040: 52ef 98bd 5247 09be 5610 15bd b134 25be
00000050: d18c 123e ed2b 11be 317e b0bd af27 1e3e
00000060: fa45 02be 0c72 153e ffed 1d3e 7310 dc3d
00000070: b304 0dbe c253 133e 689c 11be 724e 14be
00000080: 0628 28be 483b e63d 1550 03be 032f f53d
00000090: 6afa 0abe 161a 143e ab4b 1fbe 9df1 133e
000000a0: f7ba 10be 4f34 263e 9024 0ebe 61a2 bd3d
000000b0: 3616 053e 222b e33d 7df0 2abe 6e01 083e
000000c0: bd7c 18be 88b1 0dbe 676e 2a3e ab55 173e
000000d0: 4f55 12be 5249 103e e5e9 273e 3299 22be
000000e0: 2de6 18be 9d22 1b3e 205e e8bd 1976 a6bd
000000f0: 280e 0ebe b37e a7bd cfb2 1f3e 4746 c23d

actor.4.weight f4 [2, 64]
-0.015413614 -0.050001692 0.08419783 0.12475591 0.09599257 0.053375307 -0.07300998 -0.049432214
-0.031014826 -0.03153207 0.04061084 -0.090226345 -0.0804573 0.048007756 -0.10933626 -0.10726297
0.086114794 0.017332159 0.03365818 0.08675895 -0.0854599 0.08664578 0.07033812 -0.08980695
0.093085736 -0.0847258 -0.080702245 -0.10099585 0.10083862 -0.076955855 0.05054526 0.111695245
0.09181053 -0.11247055 0.12568116 0.0061651 0.11205983 -0.08895162 0.06259322 -0.11271156
0.027558014 -0.050396156 0.048493907 -0.08276615 -0.12199043 -0.11339945 0.089574546 -0.08118128
0.032760583 0.020690743 -0.15973435 -0.0481375 0.044434547 -0.10229226 -0.05800782 0.06301999
0.104360014 -0.091115914 0.031536933 0.0038581295 0.096660584 0.0063065635 -0.11191351 -0.04357187
0.015362263 0.04732089 -0.08343087 -0.12646794 -0.095666155 -0.054259494 0.07291159 0.05215575
0.03188627 0.0320899 -0.04113754 0.08869233 0.07667103 -0.047980674 0.1100112 0.11061988
-0.08703158 -0.016696258 -0.033533026 -0.085255384 0.08403676 -0.08876998 -0.07090526 0.090142004
-0.09404369 0.08592485 0.08154291 0.09975363 -0.10165553 0.07545184 -0.04926979 -0.11131492
-0.09051644 0.112326086 -0.122525945 -0.0045730607 -0.11119677 0.08922106 -0.06341837 0.11202377
-0.030803388 0.053811077 -0.051217794 0.08602902 0.12266612 0.11332492 -0.09018982 0.07669635
-0.03238269 -0.01745137 0.1598187 0.050438374 -0.043758895 0.101829454 0.061094 -0.06011212
-0.105221376 0.09009328 -0.030434709 -0.0064675007 -0.09662527 -0.004466934 0.11174048 0.041076887
00000000: 6289 7cbc 93ce 4cbd e96f ac3d 0780 ff3d
00000010: c197 c43d 11a0 5a3d 4286 95bd 6f79 4abd
00000020: ce12 febc c627 01bd 8d57 263d 97c8 b8bd
00000030: ccc6 a4bd c8a3 443d b0eb dfbd b0ac dbbd
00000040: f45c b03d 2cfc 8d3c 29dd 093d adae b13d
00000050: 9a05 afbd 5873 b13d 6f0d 903d b5ec b7bd
00000060: bca3 be3d b884 adbd 3847 a5bd ead6 cebd
00000070: 7a84 ce3d 089b 9dbd 8c08 4f3d 7ac0 e43d
00000080: 2907 bc3d f656 e6bd 90b2 003e 9b04 ca3b
00000090: a07f e53d 442c b6bd e030 803d 52d5 e6bd
000000a0: 58c1 e13c 336c 4ebd 8ca1 463d 4d81 a9bd
000000b0: 1ed6 f9bd f93d e8bd dc72 b73d 5f42 a6bd
000000c0: f62f 063d a27f a93c 6791 23be d42b 45bd
000000d0: 0001 363d 9b7e d1bd 9c99 6dbd a010 813d
000000e0: b4ba d53d fb9a babd df2c 013d acd8 7c3b
000000f0: fcf5 c53d 4aa7 ce3b e932 e5bd 6b78 32bd
00000100: 00b2 7b3c 8dd3 413d cedd aabd d080 01be
00000110: 9eec c3bd 343f 5ebd ac52 953d 45a1 553d
00000120: 2d9b 023d b370 033d d67f 28bd 53a4 b53d
00000130: b305 9d3d 6287 44bd 8d4d e13d ad8c e23d
00000140: 9d3d b2bd 97c6 88bc ed59 09bd 609a aebd
00000150: 771b ac3d 09cd b5bd c736 91bd 5f9c b83d
00000160: fa99 c0bd 5ef9 af3d f8ff a63d a24b cc3d
00000170: c630 d0bd 7f86 9a3d 1fcf 49bd 14f9 e3bd
00000180: af60 b9bd 380b e63d e2ee fabd 9dd9 95bb
00000190: 22bb e3bd 88b9 b63d 7ee1 81bd b86c e53d
000001a0: 6357 fcbc 0169 5c3d c0c9 51bd fc2f b03d
000001b0: 6038 fb3d e516 e83d 71b5 b8bd fa12 9d3d
000001c0: b6a3 04bd 2df6 8ebc 83a7 233e 7898 4e3d
000001d0: 873c 33bd f68b d03d b43d 7a3d 2038 76bd
000001e0: 4e7e d7bd d382 b83d 3652 f9bc 54ed d3bb
000001f0: 78e3 c5bd 5c5f 92bb 31d8 e43d 3d40 283d

actor.4.bias f4 [2]
-0.07661974 0.076619714
00000000: cfea 9cbd ccea 9c3d
