qhxCode/Dummy/model/dummy_model_2024-10-12_16-02-39.pth (torch, 40562 bytes, 11 tensors)

critic.0.weight f4 [64, 2]
-0.048906777 0.075881764 0.2773897 -0.07128222 0.008045855 -0.28834954 -0.39923733 -0.04056813
-0.006348611 0.14273763 -0.10531113 0.1086157 -0.17191288 -0.0040084375 0.06475517 0.006607071
0.09759602 0.129052 -0.023186285 0.22297572 -0.0072279926 0.23472403 0.3287236 0.16398612
-0.09100681 0.21902634 0.07998483 -0.12048519 0.018086815 -0.06536379 0.14292914 0.20256329
0.178262 -0.10441752 -0.003501564 -0.18178347 0.12643178 0.14552557 0.024038343 0.042195346
0.005104067 0.07448375 0.13575813 -0.23828661 0.29723442 -0.39698905 -0.078825444 0.07958447
0.01761057 0.13648312 0.20788984 -0.13605005 -0.06954436 -0.005698945 -0.0038945135 0.025102513
0.0023577989 -0.12385522 -0.044589937 0.1750261 -0.0004931332 -0.159469 -0.013538514 0.084967874
-0.13083966 0.15585895 0.0138036255 0.07564362 0.2761363 0.110908605 -0.0056621293 -0.2071126
-0.16152583 0.27084827 -0.06408744 0.15421245 -0.041660853 0.33019057 -0.006990439 -0.31869954
-0.11401118 -0.13506974 0.086127035 -0.10952252 -0.015010512 -0.011765427 0.04752108 0.12150534
0.10926088 -0.31163964 -0.031092087 -0.09827639 0.019806579 0.15499493 0.021393577 -0.106175885
-0.016569758 -0.1884177 0.025408681 0.011979865 -0.21236502 -0.19118428 -0.068848446 0.020886779
0.06574056 -0.053484224 0.1402315 0.0992752 0.076787 0.17307077 -0.11090194 0.061196785
0.07829827 -0.0904914 0.007765529 0.29868186 -0.047434937 0.12631111 0.0072735767 -0.07508685
0.0171186 0.063451886 -0.07087408 0.049729746 0.13897732 -0.32805213 -0.1312266 -0.103066266
00000000: 7952 48bd e667 9b3d 0606 8e3e 6afc 91bd
00000010: c3d2 033c 8da2 93be d668 ccbe c42a 26bd
00000020: 0208 d0bb d029 123e 5dad d7bd e871 de3d
00000030: ee09 30be 3659 83bb 5c9e 843d 2180 d83b
00000040: 6ce0 c73d 3526 043e 2af1 bdbc bf53 643e
00000050: ccd8 ecbb 7f5b 703e 764e a83e faeb 273e
00000060: c761 babd 7148 603e 16cf a33d f0c0 f6bd
00000070: cd2a 943c 73dd 85bd 045c 123e c06c 4f3e
00000080: 508a 363e dad8 d5bd 7f7a 65bb 7225 3abe
00000090: 5577 013e a804 153e 0fec c43c 07d5 2c3d
000000a0: 0440 a73b f08a 983d 2e04 0b3e 6801 74be
000000b0: 1c2f 983e 2642 cbbe 3c6f a1bd 2ffd a23d
000000c0: 0b44 903c 3bc2 0b3e 13e1 543e b450 0bbe
000000d0: 466d 8ebd 37be babb 183b 7fbb c9a3 cd3c
000000e0: 4d85 1a3b cea7 fdbd f0a3 36bd 0b3a 333e
000000f0: 9c45 01ba d74b 23be a5d0 5dbc a303 ae3d
00000100: d5fa 05be 7d99 1f3e 9a28 623c 0beb 9a3d
00000110: bd61 8d3e 0d24 e33d 6289 b9bb 5315 54be
00000120: 0767 25be a0ac 8a3e 4740 83bd dee9 1d3e
00000130: 92a4 2abd bd0e a93e 0d10 e5bb 962c a3be
00000140: b27e e9bd b94f 0abe 5f63 b03d 584d e0bd
00000150: a7ee 75bc c7c3 40bc 77a5 423d cbd7 f83d
00000160: 2bc4 df3d 3b8f 9fbe d5b4 febc 2245 c9bd
00000170: 6841 a23c feb6 1e3e 9541 af3c be72 d9bd
00000180: 4dbd 87bc 92f0 40be de25 d03c 3247 443c
00000190: 3776 59be d0c5 43be 6a00 8dbd c01a ab3c
000001a0: fda2 863d 4612 5bbd d998 0f3e cc50 cb3d
000001b0: 8142 9d3d 7739 313e 8e20 e3bd 7ba9 7a3d
000001c0: d85a a03d 8e53 b9bd fb75 fe3b d4ec 983e
000001d0: 234b 42bd b357 013e 2f57 ee3b 22c7 99bd
000001e0: 4e3c 8c3c 10f3 813d 6e26 91bd 6bb1 4b3d
000001f0: 1250 0e3e 73f6 a7be 4460 06be 6814 d3bd

critic.0.bias f4 [64]
0.29891014 -0.19574013 -0.36247632 0.15452963 0.4340833 0.23590954 -0.28177333 0.26485586
-0.23475191 0.36118677 -0.39571643 -0.16178273 0.2935932 -0.32512313 0.42830372 -0.30630064
-0.24916075 0.36521968 -0.27795598 0.3999021 0.3520681 -0.2102313 -0.19769567 0.3327331
0.45241678 -0.30419746 0.2811961 0.37434524 -0.4296039 0.3331234 0.31273416 -0.45650852
0.30067846 0.45887658 -0.20069312 0.40105337 0.28386775 0.3618646 0.33757955 0.36447462
0.25667807 -0.2825335 -0.44038323 -0.32520786 -0.2361924 -0.35747704 0.3567032 0.47116038
-0.41245487 0.3651605 -0.17156163 -0.44554123 -0.3821851 0.20473276 -0.2663152 0.08206989
-0.33845574 0.43831348 -0.43336537 -0.3405357 0.4740945 -0.40576193 0.24230361 0.22824313
00000000: c00a 993e 1a70 48be 7f96 b9be 043d 1e3e
00000010: 2b40 de3e 4592 713e 9844 90be 309b 873e
00000020: ce62 70be 79ed b83e 589b cabe 5faa 25be
00000030: d951 963e 8a76 a6be a04a db3e 70d3 9cbe
00000040: ff23 7fbe 13fe ba3e 3f50 8ebe f8bf cc3e
00000050: 4542 b43e e046 57be bc70 4abe fe5b aa3e
00000060: 2ca3 e73e c5bf 9bbe eff8 8f3e 2eaa bf3e
00000070: 0bf5 dbbe 268f aa3e b11e a03e 7cbb e9be
00000080: 87f2 993e dff1 ea3e 7f82 4dbe de56 cd3e
00000090: 1d57 913e 5146 b93e 3ad7 ac3e 6b9c ba3e
000000a0: 4f6b 833e 3ba8 90be e979 e1be a581 a6be
000000b0: 6cdc 71be 3b07 b7be cda1 b63e ef3b f13e
000000c0: 492d d3be 51f6 ba3e daad 2fbe fb1d e4be
000000d0: c4ad c3be 77a5 513e 775a 88be 4214 a83d
000000e0: 124a adbe a06a e03e 11e2 ddbe b25a aebe
000000f0: 84bc f23e 07c0 cfbe 701e 783e 91b8 693e

critic.2.weight f4 [64, 64]
0.053708896 -0.18786176 -0.258023 -0.079769894 0.21811585 0.42236006 0.0023279628 -0.15067472
-0.24855015 0.10760031 -0.47145742 0.03371536 0.07045288 0.12918654 0.5570269 -0.19048975
-0.18013191 0.19536076 0.2044577 0.27263096 0.5435811 0.07340794 -0.058101904 0.14590709
0.21562302 -0.22466147 -0.07913064 0.30681872 -0.53063214 0.248567 0.44577864 -0.70640755
0.08831875 0.5999208 -0.030660152 0.08559366 0.15601704 -0.013494751 0.2999576 0.29224494
0.39714494 0.024867952 -0.26087043 -0.12888213 0.17994563 -0.38599283 0.36246836 0.47564036
-0.3354282 0.4820646 -0.3121074 0.020436704 -0.080872804 -0.026196664 0.049414977 0.2538436
-0.015129117 -0.13335599 -0.053379964 -0.35412976 0.19305669 0.22946651 0.29196262 -0.17504035
0.14050952 0.15563275 -0.11029503 -0.24362236 0.4050898 0.10947032 -0.2697712 0.019489618
-0.055140693 0.048635717 -0.24972709 -0.30575386 -0.49231023 -0.09768342 0.12241377 -0.14043683
0.07848027 0.29498014 -0.29439774 0.24717242 0.449203 -0.20219873 -0.07285523 0.014311494
0.17305128 0.19251579 0.32032406 0.48340645 -0.2743416 0.37082586 0.18455046 -0.13238955
0.042788047 0.33772975 -0.004477711 0.12580945 0.24637395 0.20275709 0.21506673 0.06391707
0.47481725 -0.15952553 -0.118129164 0.08833981 -0.48168582 -0.30187818 0.0708123 0.2707164
-0.4284492 0.32617468 -0.010653034 -0.188827 0.038417984 0.23779164 0.04032684 0.06939454
-0.45688778 0.21088505 -0.14166728 -0.2890415 0.096175544 0.04844167 0.11812373 -0.03892479
0.26137108 0.16623764 -0.38384378 -0.09173455 0.45328116 0.2650277 0.061892487 0.2426984
-0.33427784 0.016666692 0.30556548 -0.17278855 0.021291774 0.06677395 0.54252446 -0.23312753
-0.005267721 0.3374522 -0.08776459 0.081202745 0.16806291 0.065216206 -0.18927687 0.07532775
0.050262917 -0.3335572 0.14967486 -0.02805723 -0.1027868 -0.05735635 0.16486603 -0.46321583
0.29974696 0.31314942 -0.07100838 0.10712363 -0.0059065525 -0.009618227 0.4389562 -0.038423978
0.059323434 0.03740903 -0.39371184 0.033095885 -0.236162 -0.34127846 0.19428764 0.37614647
-0.4333124 0.08235031 -0.32866627 0.26133546 -0.037828542 0.10589474 -0.1377125 -0.30198833
0.008969857 0.41856745 -0.1708564 -0.4025969 0.26213327 -0.3487064 0.053922065 0.1685039
-0.10316541 0.051588394 0.41132364 0.12966378 -0.33126575 0.014242439 -0.05710336 -0.0034157897
-0.07033316 -0.2525453 0.37434897 0.22827277 0.10395877 0.29900283 -0.3161321 0.012045972
-0.095721155 -0.23637784 0.14579995 -0.10335319 -0.61949277 -0.08364646 0.17160891 -0.06022937
-0.52874506 -0.122915156 -0.35524476 -0.32966927 0.2940807 -0.25002092 -0.42784646 0.7614728
-0.10906583 -0.29765862 -0.08915965 -0.28485292 -0.31168425 -0.3275891 -0.13567066 -0.37974152
0.069447726 -0.2547824 0.29145238 0.09495981 -0.16936092 0.3577969 -0.44652903 -0.19369373
0.25775138 -0.1420707 0.11187107 0.15190947 0.08617079 0.048600093 0.25176713 0.16121866
0.15349801 -0.093838654 0.38814995 0.18689343 -0.30749524 0.46185642 0.24143264 -0.32324
00000000: dcfd 5b3d d55e 40be 971b 84be 665e a3bd
00000010: c359 5f3e 943f d83e bc90 183b 794a 1abe
00000020: ee83 7ebe 8d5d dc3d de62 f1be 1e19 0a3d
00000030: 9949 903d 7a49 043e 5199 0e3f bf0f 43be
00000040: 8074 38be a70c 483e 5c5d 513e 4996 8b3e
00000050: 2228 0b3f e756 963d 43fc 6dbd ab68 153e
00000060: 48cc 5c3e a80d 66be 3f0f a2bd 5817 9d3e
00000070: 82d7 07bf 5988 7e3e 193d e43e 20d7 34bf
00000080: 76e0 b43d 6994 193f 002b fbbc bb4b af3d
00000090: eec2 1f3e 1719 5dbc 0b94 993e 21a1 953e
000000a0: 9556 cb3e e0b7 cb3c cf90 85be adf9 03be
000000b0: ab43 383e daa0 c5be 7495 b93e 2287 f33e
000000c0: 3fbd abbe 2cd1 f63e 8bcc 9fbe e06a a73c
000000d0: a4a0 a5bd 639a d6bc 5c67 4a3d caf7 813e
000000e0: 1ee0 77bc 798e 08be f3a4 5abd 7f50 b5be
000000f0: a7b0 453e 45f9 6a3e 207c 953e c73d 33be
00000100: bae1 0f3e 315e 1f3e 5ce2 e1bd 2478 79be
00000110: ee67 cf3e fa31 e03d 731f 8abe b1a8 9f3c
00000120: 35db 61bd 3f36 473d 75b8 7fbe c58b 9cbe
00000130: 1610 fcbe 3f0e c8bd 12b4 fa3d acce 0fbe
00000140: 44ba a03d a307 973e 4dbb 96be c41a 7d3e
00000150: f0fd e53e 2f0d 4fbe 1f35 95bd c27a 6a3c
00000160: 5b34 313e dc22 453e 8401 a43e 0d81 f73e
00000170: 8176 8cbe e3dc bd3e ccfa 3c3e 2091 07be
00000180: 8542 2f3d eaea ac3e c3b9 92bb 31d4 003e
00000190: 7449 7c3e 8e9f 4f3e 743a 5c3e f4e6 823d
000001a0: 3f1b f33e a95a 23be b4ed f1bd 81eb b43d
000001b0: 869f f6be c78f 9abe 0a06 913d 579b 8a3e
000001c0: b25d dbbe 5e00 a73e 108a 2ebc dd5b 41be
000001d0: 2d5c 1d3d a77f 733e c22d 253d b91e 8e3d
000001e0: 32ed e9be 40f2 573e 3a11 11be 3ffd 93be
000001f0: aff7 c43d c66a 463d dbea f13d 9a6f 1fbd
00000200: 6ed2 853e 333a 2a3e 2c87 c4be 53df bbbd
00000210: 7814 e83e b6b1 873e fa82 7d3d ee85 783e
00000220: 7726 abbe 9688 883c 1473 9c3e 7bef 30be
00000230: 166c ae3c c8c0 883d e2e2 0a3f fcb8 6ebe
00000240: d99c acbb 89c6 ac3e ecbd b3bd a04d a63d
00000250: af18 2c3e 1390 853d ccd1 41be 6f45 9a3d
00000260: 7de0 4d3d 02c8 aabe 5e44 193e 47d8 e5bc
00000270: e381 d2bd 7eee 6abd a4d2 283e a02a edbe
00000280: 6f78 993e 1f55 a03e d76c 91bd a263 db3d
00000290: c18b c1bb c595 1dbc debe e03e 7662 1dbd
000002a0: 21fd 723d 363a 193d 9994 c9be 8d8f 073d
000002b0: 74d4 71be 0dbc aebe 57f3 463e 4596 c03e
000002c0: 1fdb ddbe 48a7 a83d f246 a8be c3cd 853e
000002d0: 1af2 1abd 57df d83d 8104 0dbe 379e 9abe
000002e0: 4ff6 123c 794e d63e fbf4 2ebe 2e21 cebe
000002f0: 5536 863e a589 b2be 62dd 5c3d 498c 2c3e
00000300: 6348 d3bd 5a4e 533d 0399 d23e 95c6 043e
00000310: aa9b a9be 1e59 693c 36e5 69bd 71db 5fbb
00000320: d50a 90bd 9e4d 81be abaa bf3e 56c0 693e
00000330: 56e8 d43d e616 993e 11dc a1be 785c 453c
00000340: 7409 c4bd 080d 72be 954c 153e d6aa d3bd
00000350: 1497 1ebf d64e abbd 3fba 2f3e 12b3 76bd
00000360: d65b 07bf f1ba fbbd a4e2 b5be 69ca a8be
00000370: bf91 963e be02 80be b10e dbbe e2ef 423f
00000380: e85d dfbd b666 98be 5699 b6bd 3ed8 91be
00000390: 1495 9fbe c2b9 a7be 40ed 0abe 7b6d c2be
000003a0: 9c3a 8e3d d772 82be 3f39 953e 4a7a c23d
000003b0: f36c 2dbe 2831 b73e 749f e4be a657 46be
000003c0: fdf7 833e fb7a 11be a91c e53d 288e 1b3e
000003d0: 507a b03d e410 473d 9fe7 803e 8116 253e
000003e0: 952e 1d3e 7b2e c0bd 97bb c63e fe60 3f3e
000003f0: 0470 9dbe 7278 ec3e 1e3a 773e b77f a5be

critic.2.bias f4 [64]
0.2793825 0.18035735 0.19946742 -0.24888583 0.23750536 -0.18684013 -0.17785403 -0.19643448
0.1496058 0.19186258 0.1374497 0.18420206 0.2028888 -0.32006943 0.15173662 -0.1615892
-0.1776631 -0.15031211 0.19227913 -0.15813592 -0.23819187 0.2409281 -0.17113446 0.17161213
0.18733887 -0.23290198 0.18146044 -0.23843099 -0.20130505 0.19836096 0.12393011 -0.26466808
-0.23238833 0.3017126 0.17311776 0.13312092 0.16152918 0.26761246 0.22039825 0.18687034
0.24544469 0.22323555 -0.1927999 -0.22530511 -0.17575075 -0.24950528 -0.22022551 0.16770275
0.1639525 0.16523683 0.19324534 0.13245013 -0.30610666 -0.22498341 0.22823384 0.18336539
-0.28082746 0.18327458 0.22571707 0.1975865 -0.21609478 -0.14303383 0.20322977 -0.2023347
00000000: 390b 8f3e 99af 383e 3041 4c3e eddb 7ebe
00000010: 9b34 733e 0553 3fbe 5e1f 36be 1f26 49be
00000020: 4332 193e a077 443e 9dbf 0c3e 779f 3c3e
00000030: 15c2 4f3e 24e0 a3be d860 1b3e a477 25be
00000040: 51ed 35be 6beb 19be d2e4 443e 62ee 21be
00000050: 92e8 73be dbb5 763e df3d 2fbe 17bb 2f3e
00000060: c3d5 3f3e db7d 6ebe c4d0 393e 4127 74be
00000070: e922 4ebe 231f 4b3e 12cf fd3d 9382 87be
00000080: 35f7 6dbe 137a 9a3e c845 313e da50 083e
00000090: e867 253e 8004 893e 14b0 613e f05a 3f3e
000000a0: da55 7b3e dc97 643e 566d 45be 62b6 66be
000000b0: 01f8 33be 507e 7fbe cc82 61be 45ba 2b3e
000000c0: 2ae3 273e d833 293e 1be2 453e 02a1 073e
000000d0: 03ba 9cbe 0d62 66be 22b6 693e 23c4 3b3e
000000e0: 9ec8 8fbe 55ac 3b3e 6022 673e 1e54 4a3e
000000f0: f347 5dbe 7677 12be 771b 503e d430 4fbe

critic.4.weight f4 [1, 64]
-0.60509396 -0.84060943 -0.84462786 0.5839745 -0.7053936 0.7138309 0.87884814 0.81298333
-0.6824671 -0.8677513 -0.7121608 -0.66937727 -0.8000876 0.67473 -0.65784323 0.67183757
0.70239216 0.7313573 -0.7928159 0.68435705 0.6665405 -0.5959067 0.82960755 -0.6884148
-0.8744165 0.69530237 -0.84560245 0.7107508 0.81638384 -0.80175793 -0.90181786 0.61823535
0.69660443 -0.6298364 -0.7822565 -0.80532634 -0.7184452 -0.61436415 -0.7269572 -0.7607914
-0.7087545 -0.7595327 0.81982714 0.6659279 0.8133173 0.64989424 0.7372401 -0.8331854
-0.77065116 -0.73800623 -0.8099455 -0.76170033 0.64043415 0.71629107 -0.70094216 -0.69305885
0.59650785 -0.73749036 -0.7265383 -0.7598843 0.79774785 0.7037681 -0.7671532 0.5907305
00000000: 70e7 1abf 2e32 57bf 8839 58bf 5a7f 153f
00000010: ad94 34bf 9fbd 363f 31fc 603f ad1f 503f
00000020: 2ab6 2ebf f324 5ebf 2c50 36bf 4f5c 2bbf
00000030: 8ad2 4cbf 1bbb 2c3f 6a68 28bf 8cfd 2b3f
00000040: f9cf 333f 3b3a 3b3f fcf5 4abf 0632 2f3f
00000050: 66a2 2a3f 578d 18bf 2961 543f f43b 30bf
00000060: c2d9 5fbf 56ff 313f 6779 58bf c4f3 353f
00000070: 88fe 503f 0240 4dbf 89dd 66bf ac44 1e3f
00000080: ab54 323f f53c 21bf f641 48bf de29 4ebf
00000090: 06ec 37bf f846 1dbf de19 3abf 3ac3 42bf
000000a0: ef70 35bf bc70 42bf 31e0 513f 407a 2a3f
000000b0: 9035 503f 785f 263f c4bb 3c3f a34b 55bf
000000c0: 6549 45bf faed 3cbf 9758 4fbf cbfe 42bf
000000d0: 7ef3 233f da5e 373f f270 33bf 4e6c 31bf
000000e0: bdb4 183f 2bcc 3cbf 6afe 39bf c787 42bf
000000f0: 3439 4c3f 252a 343f 2764 44bf 1d3a 173f

actor.0.weight f4 [64, 2]
0.1805941 -0.10777081 -0.031542085 -0.001945469 0.13969038 0.0573062 -0.116234824 -0.10078957
-0.112443306 -0.5598097 0.18907383 -0.05720305 0.16561802 0.06502334 -0.01446827 0.08093013
-0.26229203 0.04362402 0.43525466 0.16706842 0.35662556 0.06409824 -0.102016605 0.15171555
-0.12298144 -0.3038664 -0.2668496 0.07458054 -0.11958831 -0.1975593 -0.015698317 0.01975542
0.12690206 -0.10918608 -0.11548287 0.10557803 0.0089125475 -0.19206835 0.09485922 0.18113707
-0.16984232 0.16463654 -0.055828445 -0.036960628 -0.07622902 -0.050270546 -0.19248904 0.32848585
0.22070234 0.13385598 0.0293075 0.13357647 -0.03554818 -0.17042173 0.18843699 0.24030799
0.008919345 0.17219912 -0.34520432 -0.14707789 -0.031636544 -0.051691167 -0.021898987 0.051860925
-0.16520208 -0.18085557 0.42596823 -0.11392141 0.17721894 -0.038234152 0.18065543 0.13949873
-0.08299183 0.42854124 0.056454767 -0.026014041 0.12314473 -0.04613212 0.10671967 -0.2269325
0.017429367 0.18597673 -0.06096761 -0.0813794 -0.25385597 -0.037675682 0.30664182 0.20875573
-0.045733403 -0.13175102 0.26302376 -0.34649557 0.3399685 -0.15538049 -0.102332614 0.0057854643
0.051287744 -0.0122515 -0.013637506 -0.26358214 0.26090628 0.013579386 -0.19302547 0.22428319
0.09424657 -0.04499268 0.08198413 -0.18556553 0.08466577 0.116276465 -0.16370265 0.24280587
0.11306866 0.24607432 0.1033519 -0.0050065406 -0.1366783 0.1752519 0.14278972 -0.05677371
0.07172907 0.15360089 0.06666275 0.351398 -0.18672824 0.159888 0.22741428 -0.105814666
00000000: a9ed 383e f1b6 dcbd 4632 01bd 1bff feba
00000010: ff0a 0f3e e8b9 6a3d 860c eebd c36a cebd
00000020: ad48 e6bd b04f 0fbf 929c 413e bf4d 6abd
00000030: c597 293e f52a 853d 530c 6dbc b2be a53d
00000040: 244b 86be 1aaf 323d b3d9 de3e fc13 2b3e
00000050: a097 b63e f045 833d 15ee d0bd 525b 1b3e
00000060: b1dd fbbd 6094 9bbe 83a0 88be afbd 983d
00000070: b7ea f4bd fc4c 4abe c299 80bc 1ed6 a13c
00000080: 9df2 013e f49c dfbd 4882 ecbd 4b39 d83d
00000090: ef05 123c 91ad 44be 8d45 c23d ff7b 393e
000000a0: 25eb 2dbe 7b96 283e 5eac 64bd 0764 17bd
000000b0: f61d 9cbd 7de8 4dbd d91b 45be 4c2f a83e
000000c0: cbff 613e 8b11 093e 4816 f03c 45c8 083e
000000d0: f89a 11bd 0983 2ebe a0f5 403e 4c13 763e
000000e0: 7222 123c f754 303e 9fbe b0be 969b 16be
000000f0: 5295 01bd 1eba 53bd 8165 b3bc 1f6c 543d
00000100: bc2a 29be 3432 39be 8218 da3e a14f e9bd
00000110: e278 353e 6a9b 1cbd bdfd 383e c1d8 0e3e
00000120: 9ff7 a9bd c269 db3e 1d3d 673d 661b d5bc
00000130: 4e33 fc3d 09f5 3cbd d88f da3d fe60 68be
00000140: 08c8 8e3c af70 3e3e 2cb9 79bd 3eaa a6bd
00000150: 69f9 81be d151 1abd 2800 9d3e 10c4 553e
00000160: f352 3bbd bde9 06be 0dab 863e de67 b1be
00000170: 5a10 ae3e 101c 1fbe c393 d1bd fe93 bd3b
00000180: 1913 523d 84ba 48bc d96f 5fbc 3df4 86be
00000190: 8295 853e 137c 5e3c 78a8 45be 7eaa 653e
000001a0: 5804 c13d 3f4a 38bd 4ce7 a73d e404 3ebe
000001b0: 3f65 ad3d 5b22 ee3d aba1 27be 1aa2 783e
000001c0: 8b90 e73d e8fa 7b3e 29aa d33d e80d a4bb
000001d0: 65f5 0bbe 3c75 333e 7837 123e 8d8b 68bd
000001e0: b1e6 923d 8d49 1d3e 7b86 883d 70ea b33e
000001f0: b035 3fbe aeb9 233e 4adf 683e 5cb5 d8bd

actor.0.bias f4 [64]
-0.0024617254 -0.006996289 0.0029429886 0.007713005 -0.0082761375 0.00022683784 -0.0027439608 0.009716836
0.0012359216 -0.017043995 -0.014538964 0.01171945 0.0061080647 0.0063500796 -0.00028721732 0.0027210515
-0.00061045785 0.012883675 0.0067727487 0.00670032 0.0134874545 -0.006954366 -0.0024733336 0.011578013
-0.003954346 0.0030033682 -0.0014590209 -0.007039647 0.0065122102 0.0010481915 0.002303028 0.007887593
-0.00029509593 -0.014067582 -0.0016178852 -0.011361525 -0.0043209684 -0.008868397 -0.0008461042 0.0010319696
0.0030803992 -0.0031747874 0.013580509 -0.0049645086 -0.007851025 -0.011770023 -0.006096498 -0.0035285642
0.0011434635 -0.008564598 -0.0028167388 -0.0025262842 -0.009232116 0.006505741 0.004416657 0.0012648357
0.004372509 0.0030260617 0.0014699283 -0.013768768 -0.004375803 0.006132656 0.0076262346 -0.004960307
00000000: e654 21bb 2041 e5bb 28df 403b 60bd fc3b
00000010: a398 07bc 52db 6d39 06d4 33bb 5d33 1f3c
00000020: a6fe a13a d99f 8bbc d634 6ebc f002 403c
00000030: 2926 c83b 5414 d03b a895 96b9 ab53 323b
00000040: 2207 20ba 0d16 533c efed dd3b 5c8e db3b
00000050: 7cfa 5c3c 73e1 e3bb a717 22bb b5b1 3d3c
00000060: 7593 81bb 28d4 443b 9e3c bfba d7ac e6bb
00000070: 6164 d53b 7863 893a 66ee 163b f63a 013c
00000080: 1bb7 9ab9 b77b 66bc 380f d4ba b125 3abc
00000090: e996 8dbb c14c 11bc 17cd 5dba 2743 873a
000000a0: 86e0 493b 1810 50bb c980 5e3c 51ad a2bb
000000b0: 96a1 00bc 0ed7 40bc 22c5 c7bb 7c3f 67bb
000000c0: 45e0 953a 8752 0cbc 0999 38bb 0490 25bb
000000d0: 4d42 17bc 1c2e d53b 9bb9 903b d8c8 a53a
000000e0: 4447 8f3b e450 463b 9caa c03a 6696 61bc
000000f0: e562 8fbb 72f4 c83b 7ee5 f93b 128a a2bb

actor.2.weight f4 [64, 64]
0.20720834 0.10354978 0.22338372 -0.031787228 0.1192147 0.160573 0.07063359 -0.074457966
-0.0875588 -0.0855642 -0.29927126 -0.22930957 0.1614839 0.40929222 0.19915158 -0.073167376
0.018092109 0.14671043 -0.3321403 0.109507464 0.2868904 0.19815151 -0.23535909 0.06578116
0.33527043 -0.12933518 0.23262541 0.24257523 0.00602284 0.21761242 -0.2843962 -0.039260726
-0.023922954 -0.031017663 0.1789806 0.36325306 0.06570533 -0.12415543 -0.23333417 0.16407923
0.031047238 0.104811765 -0.21628329 0.1697006 -0.09110861 -0.03344703 -0.20230292 0.021185163
0.04256327 -0.18136947 0.06950327 0.05787451 -0.22751139 -0.046365615 0.059515435 0.17704973
-0.16589004 -0.12833811 -0.027258674 -0.2808712 0.062317193 0.018534336 -0.27195552 -0.09592139
0.11025053 -0.35867554 0.11253353 -0.026537692 -0.069200635 -0.27308887 0.28692162 0.17667949
-0.12316838 -0.18127327 -0.09149813 0.5197176 0.014339596 0.06614207 0.009957185 -0.011486141
0.22458579 0.10860535 0.040555988 0.25222677 0.1022963 0.14377694 -0.04343944 -0.06964243
-0.20759556 -0.067924626 -0.1410003 -0.10658466 0.053646054 -0.31068698 0.09426569 0.19778085
-0.00477686 -0.28738037 0.23174359 0.07177794 0.11755323 -0.15306962 0.11660911 0.0040939036
-0.03826311 -0.073437706 0.18866867 0.24532324 -0.16495927 0.034946155 0.24508633 -0.37051386
-0.26429358 -0.20808585 -0.04372498 -0.018806566 0.16338815 -0.19499364 0.20306404 0.0024217034
-0.1649932 -0.25807127 -0.0036071364 -0.30196455 -0.01507571 0.0061365897 -0.049968455 -0.013914334
-0.008146836 -0.054289784 0.112494126 0.08358616 -0.15553866 0.0057592257 0.23433919 0.4626623
-0.08817907 -0.1584664 -0.036119163 -0.090315156 -0.17118515 -0.096042626 0.078726135 -0.09303658
0.10082892 -0.26189646 -0.04163062 -0.1360642 0.043554313 0.17537002 0.26551747 0.013020225
0.031870615 -0.12678942 -0.0042539244 -0.052062728 0.141545 0.3578903 -0.34398878 0.16173893
-0.16386229 -0.1113589 0.30488494 -0.06654715 -0.019054042 0.18392977 0.4661326 0.22715203
0.29571503 0.0533992 0.13002251 -0.06290287 0.09427411 -0.11094456 0.03388153 0.1122472
0.26485944 0.00010821935 -0.10679444 -0.38942373 -0.17554824 -0.058832124 0.2614833 -0.047936615
-0.03258707 0.15547752 0.19362268 0.21199638 0.13581303 -0.09822684 -0.06704879 -0.032741364
-0.27142742 0.1184685 0.15553094 0.33627126 0.18033123 0.123966314 -0.16311486 -0.12546602
-0.28930247 0.10803349 0.435009 0.057772208 -0.080779105 0.3439729 -0.061635848 -0.04706959
-0.23886903 0.020038022 0.094730385 -0.118423626 0.23812601 -0.0041545625 -0.0049648276 -0.014943977
-0.044726096 -0.21534565 -0.42961627 0.075622655 -0.118060745 0.14487727 -0.14677231 0.03624351
-0.18923236 -0.030902946 0.111829504 0.21528734 0.0417773 -0.17328446 0.2762424 -0.26240662
-0.23097108 -0.09449991 0.09330508 0.17794672 -0.2695609 -0.20345394 0.16568783 0.022381896
0.1912168 0.0024096395 0.028763132 -0.09472829 -0.036805842 -0.08663774 -0.24110349 -0.14195506
0.07747434 -0.013319413 -0.07189519 -0.06868961 -0.26281172 -0.1283423 -0.051769134 0.27030066
00000000: 6c2e 543e e811 d43d b4be 643e 5333 02bd
00000010: d626 f43d 406d 243e 58a8 903d 6b7d 98bd
00000020: 0752 b3bd 493c afbd 153a 99be 21d0 6abe
00000030: 095c 253e c08e d13e 64ee 4b3e c7d8 95bd
00000040: e735 943c 423b 163e 4b0e aabe 7345 e03d
00000050: 4ce3 923e 3be8 4a3e f901 71be 46b8 863d
00000060: 91a8 ab3e 7170 04be 5b35 6e3e a465 783e
00000070: 3e5b c53b cad5 5e3e 619c 91be dbcf 20bd
00000080: 12fa c3bc c118 febc b146 373e 4efc b93e
00000090: 8490 863d 3445 febd 27ef 6ebe 6304 283e
000000a0: c756 fe3c 8da7 d63d 5e79 5dbe fec5 2d3e
000000b0: 2797 babd c1ff 08bd 7f28 4fbe 828c ad3c
000000c0: d356 2e3d ebb8 39be bb57 8e3d d20d 6d3d
000000d0: bff8 68be dfe9 3dbd 75c6 733d 864c 353e
000000e0: 14df 29be 116b 03be 954d dfbc 5ace 8fbe
000000f0: 5040 7f3d 52d5 973c c13d 8bbe 6f72 c4bd
00000100: 08cb e13d 52a4 b7be fb77 e63d 9365 d9bc
00000110: 10b9 8dbd 4ed2 8bbe 64e7 923e 78eb 343e
00000120: b43f fcbd b39f 39be 5f63 bbbd 360c 053f
00000130: a0f0 6a3c 7e75 873d 7623 233c 5e30 3cbc
00000140: d1f9 653e 7b6c de3d 091e 263d de23 813e
00000150: b980 d13d 433a 133e 8eed 31bd b1a0 8ebd
00000160: ee93 54be 111c 8bbd 6262 10be 0f49 dabd
00000170: f7bb 5b3d 5d12 9fbe 5f0e c13d 1087 4a3e
00000180: 3587 9cbb 8523 93be 314e 6d3e 5000 933d
00000190: bfbf f03d 48be 1cbe c2d0 ee3d 2726 863b
000001a0: c7b9 1cbd 8266 96bd 5c32 413e 0436 7b3e
000001b0: 15eb 28be b323 0f3d e9f7 7a3e feb3 bdbe
000001c0: 7d51 87be 7514 55be f718 33bd 3a10 9abc
000001d0: 394f 273e 6aac 47be 05f0 4f3e 71b5 1e3b
000001e0: faf3 28be eb21 84be b565 6cbb 199b 9abe
000001f0: 1c00 77bc 7215 c93b b9ab 4cbd f2f8 63bc
00000200: 4f7a 05bc f75e 5ebd 5263 e63d 382f ab3d
00000210: 8745 1fbe e3b7 bc3b 9df6 6f3e 13e2 ec3e
00000220: 3a97 b4bd 0445 22be b0f1 13bd 27f7 b8bd
00000230: 294b 2fbe ffb1 c4bd 2b3b a13d f689 bebd
00000240: 657f ce3d 4b17 86be de84 2abd 6a54 0bbe
00000250: 0266 323d 3394 333e e8f1 873e c852 553c
00000260: c38a 023d 16d5 01be 8164 8bbb ba3f 55bd
00000270: 2cf1 103e 663d b73e 4c1f b0be e49e 253e
00000280: 84cb 27be 2310 e4bd e119 9c3e df49 88bd
00000290: 3917 9cbc 1658 3c3e efa8 ee3e 8b9a 683e
000002a0: f667 973e 1fb9 5a3d 9f24 053e 38d3 80bd
000002b0: c912 c13d e736 e3bd 5cc7 0a3d dce1 e53d
000002c0: a89b 873e d2f3 e238 0bb7 dabd 8c62 c7be
000002d0: ebc2 33be f4f9 70bd 24e1 853e 2f59 44bd
000002e0: 057a 05bd 8035 1f3e 0645 463e 9415 593e
000002f0: 9212 0b3e 272b c9bd e050 89bd cf1b 06bd
00000300: 89f8 8abe 9d9f f23d 8143 1f3e bf2b ac3e
00000310: c0a8 383e 0de2 fd3d 9507 27be 2a7a 00be
00000320: 741f 94be aa40 dd3d 80b9 de3e 8da2 6c3d
00000330: 846f a5bd 371d b03e df75 7cbd 0bcc 40bd
00000340: 159a 74be c726 a43c 0102 c23d 1688 f2bd
00000350: 4ed7 733e ff22 88bb feaf a2bb 95d7 74bc
00000360: b632 37bd 9283 5cbe aaf6 dbbe 0de0 9a3d
00000370: d5c9 f1bd b55a 143e 7b4b 16be 1374 143d
00000380: 21c6 41be 2d28 fdbc de06 e53d 4974 5c3e
00000390: ad1e 2b3d 7b71 31be a56f 8d3e 295a 86be
000003a0: af83 6cbe 2b89 c1bd bc16 bf3d aa37 363e
000003b0: e303 8abe 3b56 50be 12aa 293e 3d5a b73c
000003c0: 56ce 433e 0beb 1d3b a9a0 eb3c e800 c2bd
000003d0: b9c1 16bd 216f b1bd d5e3 76be ab5c 11be
000003e0: deaa 9e3d ab39 5abc c93d 93bd 23ad 8cbd
000003f0: 428f 86be 2a6c 03be df0b 54bd d964 8a3e

actor.2.bias f4 [64]
-0.0024244837 0.01026269 0.0031561742 0.0031706805 -0.0012224953 -0.0010003702 0.005419908 0.005944599
-0.0014510971 -0.0035708714 0.003902854 -0.004130756 -0.0045043277 0.0027461327 -0.0043726186 -0.0052331155
-0.0071517066 -0.0066734753 -0.003403378 -0.010595203 -0.0009088725 0.00041140983 -0.0061987643 -0.0010064981
0.00085649075 -0.0023455075 0.005063373 -0.0019132781 -0.0013378038 0.005585937 -0.004215745 -0.009453484
0.0003489782 -0.0052036927 -0.0059417617 0.005741461 0.005239174 0.00050513603 -0.0077837855 -0.002227955
-0.0041050543 -0.0019485188 -0.0029400757 0.006250091 0.006651182 0.0064677163 -0.0045433156 -0.003879938
0.0019841355 -0.005037963 -0.0060970597 -0.0016999833 -0.0048126793 -0.00033603844 0.003757531 -0.0061635463
-0.002049712 0.0028148924 -0.007061335 -0.0066129854 -0.007435619 0.0016045895 0.009744133 -0.004166748
00000000: 16e4 1ebb d724 283c d1d7 4e3b 31cb 4f3b
00000010: 233c a0ba db1e 83ba 7c99 b13b e9ca c23b
00000020: bd32 beba 4805 6abb 06c7 7f3b 4b5b 87bb
00000030: 0a99 93bb 76f8 333b 2f48 8fbb 8e7a abbb
00000040: dd58 eabb 2bad dabb 350b 5fbb 8197 2dbc
00000050: 6741 6eba 7eb2 d739 011f cbbb 79ec 83ba
00000060: 1f86 603a 16b7 19bb a7ea a53b f6c6 faba
00000070: 3f59 afba 3c0a b73b 3b24 8abb c9e2 1abc
00000080: 10f7 b639 bd83 aabb 1cb3 c2bb de22 bc3b
00000090: 60ad ab3b 1b6b 043a 200f ffbb e202 12bb
000000a0: b183 86bb 7165 ffba 49ae 40bb 90cd cc3b
000000b0: 29f2 d93b 23ef d33b 18e0 94bb 8f46 7ebb
000000c0: 4508 023b 7f15 a5bb d8c9 c7bb f9d1 deba
000000d0: aeb3 9dbb 512e b0b9 e940 763b 93f7 c9bb
000000e0: 7654 06bb 0f7a 383b c562 e7bb beb1 d8bb
000000f0: 7ea6 f3bb 1751 d23a dba5 1f3c 3789 88bb

actor.4.weight f4 [2, 64]
-0.003521512 -0.0064933673 0.0044543766 0.0003757639 0.0034188228 0.0046243835 -0.004096236 -0.0007969453
-0.0031606401 0.00030569112 0.004981609 -0.0066278405 -0.005109489 0.0034483632 0.0022721542 0.0021891438
-0.0046244306 0.0035370977 -0.004439941 0.0040632044 -0.0028239249 0.0013026001 -0.0027259602 -0.0016724395
0.0028162885 -0.0022058876 -0.0029561901 -0.0027244003 0.003639332 -0.003704495 0.004609347 0.0020663112
0.0026804674 -0.0024186955 -0.005001338 -0.0038220428 0.0028106663 -0.0034207378 -0.0004712159 -0.0029564195
0.0021224713 -0.0035977077 0.0026869664 0.007097932 0.0040937252 0.002640947 0.0020587707 -0.006894867
0.0027246622 0.0043900157 -4.2172625e-05 -0.002829756 0.0041384785 -0.00425465 -0.0009839113 0.0028483898
0.002964853 -0.0032951995 0.0019320636 -0.0032160843 -0.002123367 0.0057517183 -0.0015402705 -0.004412268
0.0034701684 0.0038126057 -0.0036874611 -0.0020876278 -0.0030923989 -0.0055085407 0.003997815 0.0035204494
0.004032098 0.00025210943 -0.0055083116 0.005093886 0.0013231401 -0.0034212845 -0.0015972103 0.001167739
0.0037076059 -0.0029011758 0.0045650923 -0.0025595888 0.0014008422 -0.0034268731 0.002158816 0.0020075203
-0.0037741335 0.003404883 0.0037967712 0.0014821235 -0.0044562444 0.0022004363 -0.003333831 -0.0016859767
-0.0013864026 0.002274228 0.008156906 0.0054140496 -0.0019475668 0.0036901485 -0.00035405948 0.002268622
-0.005367816 0.0070126085 -0.0054108924 -0.0038351384 -0.0034180684 -0.0027154994 -0.0026740183 0.0024099927
-0.0023467191 -0.001150646 0.0001265645 0.00513058 -0.0034628017 0.0037918242 0.004070095 5.962074e-05
-0.0038262492 0.0022725759 -0.00082976004 0.00060669496 0.0021586795 -0.003912122 0.0013672122 0.001917264
00000000: 2bc9 66bb 50c6 d4bb 05f6 913b 2d02 c539
00000010: 540e 603b 2488 973b b839 86bb 18ea 50ba
00000020: be22 4fbb 2b45 a039 c43c a33b 5b2e d9bb
00000030: 806d a7bb effd 613b 6ce8 143b bd77 0f3b
00000040: 8988 97bb a7ce 673b ed7c 91bb a124 853b
00000050: 9911 39bb 02bc aa3a 06a6 32bb c235 dbba
00000060: 7b91 383b a790 10bb a4bc 41bb da8b 32bb
00000070: dc81 6e3b 1dc7 72bb 010a 973b f36a 073b
00000080: c8aa 2f3b fa82 1ebb 44e2 a3bb 3d7b 7abb
00000090: 2833 383b 752e 60bb 870d f7b9 7dc0 41bb
000000a0: 2919 0b3b 85c7 6bbb d117 303b c595 e83b
000000b0: a824 863b bd13 2d3b 71ec 063b 56ee e1bb
000000c0: 3f90 323b 1fda 8f3b 83e2 30b8 6d73 39bb
000000d0: 139c 873b 976a 8bbb 96f6 80ba 0dac 3a3b
000000e0: fb4d 423b 46f4 57bb 4c3d fd3a f1c4 52bb
000000f0: 3028 0bbb e978 bc3b e7e2 c9ba c994 90bb
00000100: c46b 633b e9dc 793b 55a9 71bb 95d0 08bb
00000110: d8a9 4abb fd80 b4bb 1a00 833b 57b7 663b
00000120: b11f 843b 8e2d 8439 117f b4bb 9dea a63b
00000130: 376d ad3a a137 60bb 7c59 d1ba d20e 993a
00000140: 4efb 723b a721 3ebb c596 953b c6be 27bb
00000150: 779c b73a 6495 60bb ec7a 0d3b 9a90 033b
00000160: 7457 77bb 7524 5f3b 40d3 783b d043 c23a
00000170: b005 92bb 3235 103b 677c 5abb fefb dcba
00000180: f4b7 b5ba 370b 153b 8ba4 053c 5768 b13b
00000190: 7f45 ffba 6bd6 713b 0fa1 b9b9 29ad 143b
000001a0: 81e4 afbb 06ca e53b db4d b1bb f256 7bbb
000001b0: ac01 60bb 85f6 31bb 953e 2fbb f8f0 1d3b
000001c0: 6acb 19bb 46d1 96ba 66b6 0439 6d1e a83b
000001d0: 2cf0 62bb 4180 783b 6e5e 853b 4811 7a38
000001e0: cfc1 7abb 7fef 143b 4184 59ba 9c0a 1f3a
000001f0: a278 0d3b 4231 80bb 0734 b33a b44c fb3a

actor.4.bias f4 [2]
0.0025952295 -0.0025952302
00000000: ba14 2a3b bd14 2abb
