qhxCode/Dummy/model/dummy_model_2024-10-12_16-17-35.pth (torch, 40562 bytes, 11 tensors)

critic.0.weight f4 [64, 2]
0	0xbde35759	-0.111006446
1	0x3e11c883	0.14236645
2	0x3f1ec90c	0.62025523
3	0x3ea3d3c8	0.31997514
4	0xbbc78dc0	-0.006089896
5	0xbe5b8dd3	-0.2144082
6	0xbf52ac6d	-0.8229435
7	0xbf05a5af	-0.5220594
8	0x3cd3a2a8	0.025834396
9	0x3db4d536	0.08829729
10	0xbeafe9bf	-0.34358022
11	0xbe134f61	-0.1438575
12	0xbd1d2e28	-0.038374096
13	0xbe022cce	-0.12712404
14	0x3d80483f	0.0626378
15	0x3d1f2c67	0.038860705
16	0x3ecee2d3	0.40407428
17	0x3ed798fa	0.421089
18	0xbb46a4bd	-0.0030310594
19	0x3e2f3bad	0.17112608
20	0xbd44c7e6	-0.0480422
21	0x3eb7c95a	0.35895807
22	0x3f1eb6b2	0.6199752
23	0x3ef093e4	0.46987832
24	0xbeb08327	-0.3447506
25	0xbda4820b	-0.08032616
26	0x3edd182b	0.431825
27	0x3e87cfe5	0.26525798
28	0x3d7b81ec	0.0614032
29	0xbd5e8e3d	-0.054334868
30	0x3f16317f	0.58669275
31	0x3f10b9c5	0.5653346
32	0x3f183ac3	0.59464663
33	0x3ead73e9	0.33877495
34	0x3d8067ae	0.06269775
35	0xbe75d4e6	-0.24006996
36	0x3f020dc2	0.5080224
37	0x3eee50d1	0.46546033
38	0x3d2b6468	0.0418438
39	0x3d933966	0.07188682
40	0x3d373038	0.04472372
41	0x3d554e9d	0.052076925
42	0x3e7800d2	0.24219063
43	0xbd972c64	-0.07381514
44	0x3f02e04b	0.51123494
45	0xbde3af18	-0.11117381
46	0xbebab8c9	-0.36469105
47	0xbe6417c4	-0.22274691
48	0x3cf49222	0.029854838
49	0x3de82233	0.11334648
50	0x3f15cce2	0.5851575
51	0x3e8c8727	0.27446863
52	0xbea24fb4	-0.31701434
53	0xbe8b450f	-0.27201125
54	0x3d2faf66	0.042891882
55	0x38d64be6	0.000102184524
56	0xbd0c9881	-0.034325127
57	0xbd8d085a	-0.068863586
58	0xbe14c469	-0.1452805
59	0xbcb35024	-0.0218888
60	0x3da182a8	0.07886249
61	0xbe38c9fd	-0.18045802
62	0xbd8c08cb	-0.068376146
63	0x3dcc1403	0.099647544
64	0xbe83b84e	-0.2572655
65	0xbe082c9f	-0.13298272
66	0xbd9cba68	-0.07652742
67	0x3e044b5c	0.12919372
68	0x3f41053c	0.7539861
69	0x3f0b2b9e	0.5436343
70	0xbc2ee9fe	-0.010675905
71	0xbeb8de38	-0.3610704
72	0xbeef2118	-0.46704936
73	0xbd6a7cf6	-0.05724808
74	0xbeb8c9d1	-0.36091474
75	0xbe380751	-0.17971541
76	0x3c4c6b8d	0.012476814
77	0x3e836421	0.2566233
78	0xbdeafa3c	-0.1147351
79	0xbf1b9cb1	-0.6078597
80	0xbeed3f90	-0.46337557
81	0xbeee8138	-0.4658296
82	0x3e53b916	0.20676073
83	0x3d36023e	0.044435732
84	0xbd52ada5	-0.05143513
85	0xbc20b6af	-0.00980918
86	0x3eb9d145	0.36292472
87	0x3ed51c28	0.41623044
88	0x3e7e8ad1	0.24857642
89	0xbe50a2f1	-0.20374657
90	0xbd3ebda5	-0.046567578
91	0xbdb59636	-0.08866541
92	0x3d0bc169	0.034119997
93	0x3e2e7d7e	0.17040059
94	0x3d8be4d9	0.068307586
95	0xbdb1a7f9	-0.08674616
96	0xbccc026e	-0.024903502
97	0xbe347973	-0.17624454
98	0x3d63a359	0.055575702
99	0x3cdf792d	0.02727946
100	0xbd9fb57f	-0.077982895
101	0xbe1b8bd8	-0.15190065
102	0xbecaf826	-0.39642447
103	0xbe8e9cf4	-0.2785412
104	0x3e52d047	0.20587264
105	0x3e0ce9cd	0.13761063
106	0x3d7e0060	0.062012076
107	0x3e11593c	0.14194196
108	0x3ea162ce	0.31520694
109	0x3edd8650	0.43266535
110	0xbd98e9ee	-0.074664935
111	0x3cc2185f	0.023693262
112	0x3e690ac4	0.22758013
113	0x3dddc4e9	0.10828573
114	0x3c0acb38	0.008471303
115	0x3e93b06f	0.28845546
116	0xbdb634d4	-0.08896795
117	0x3defc217	0.117069416
118	0xbd38ca11	-0.04511458
119	0xbd3d0967	-0.046151545
120	0xbd957835	-0.07298318
121	0x3e04a072	0.1295183
122	0xbd43275a	-0.04764495
123	0x3b86efeb	0.004117956
124	0x3e55e46e	0.2088792
125	0xbed1dac1	-0.40987208
126	0xbee251f6	-0.44203156
127	0xbec79475	-0.3898045

critic.0.bias f4 [64]
0	0xbe5dd947	-0.21664916
1	0x3cd23704	0.025661
2	0xbe76ae67	-0.24089967
3	0xbe10b99f	-0.14133309
4	0x3e9bf6e9	0.30461815
5	0x3d4a60c5	0.049408693
6	0xbea03280	-0.31288528
7	0x3e535ded	0.20641299
8	0xbc0f05e6	-0.008729434
9	0x3e7f68f5	0.24942382
10	0xbe6ca392	-0.23109272
11	0x3b0d6db1	0.0021580274
12	0x3d654013	0.05596931
13	0x3d0b59f6	0.03402134
14	0x3e97aac4	0.2962247
15	0x3d31c7d6	0.04340347
16	0x3d725bd4	0.059169605
17	0x3e764ab3	0.24051933
18	0x3c94f230	0.01818189
19	0x3e996084	0.29956448
20	0x3e6d7384	0.23188597
21	0xbe0c511e	-0.13702819
22	0xbd825621	-0.06364084
23	0x3d292e4d	0.04130392
24	0x3ea3f0f5	0.32019773
25	0x3c28c155	0.0103
26	0x3d316693	0.043310713
27	0x3e8d4981	0.27595142
28	0xbe919e2a	-0.28440982
29	0x3e2fc25b	0.17163984
30	0x3e4e4518	0.20143545
31	0xbea0d04a	-0.31408912
32	0x3dddfd34	0.1083931
33	0xbe950395	-0.29104295
34	0x3ded4598	0.115855396
35	0x3e4c92ab	0.19977824
36	0x3cffe594	0.031237401
37	0x3d737566	0.05943813
38	0x3e7b1ea0	0.24523401
39	0x3e2245c5	0.15846927
40	0xbbb09b61	-0.0053896164
41	0xbe16c42f	-0.14723276
42	0xbe983493	-0.2972761
43	0xbcbc647a	-0.02299713
44	0xbe43806d	-0.1909196
45	0xbe74d797	-0.23910366
46	0x3e838a7d	0.25691596
47	0x3eac2521	0.33622077
48	0xbe9bdb44	-0.30440724
49	0x3e8190d0	0.25305796
50	0xbdcf7313	-0.101293705
51	0xbdf79232	-0.120884314
52	0xbe26e650	-0.16298795
53	0x3e414bec	0.18876618
54	0xbd7f4d64	-0.062329665
55	0xbe731edb	-0.23742239
56	0xbe2aac2e	-0.16667244
57	0x3eb37534	0.35050356
58	0xbe95efd0	-0.29284525
59	0xbe72fc9e	-0.23729178
60	0xbe979561	-0.29606155
61	0xbeb0776a	-0.34466106
62	0x3ddc607e	0.10760592
63	0x3c56e378	0.013115756

critic.2.weight f4 [64, 64]
0	0xbe87006f	-0.26367518
1	0xbebaec6f	-0.3650851
2	0xbdfad4a5	-0.1224759
3	0x3e47ccf7	0.19511782
4	0x3df36fe2	0.11886574
5	0x3ebc0a69	0.36726692
6	0xbd05aa92	-0.03263337
7	0xbd4a9afc	-0.04946421
8	0xbeb523b1	-0.35378793
9	0xbd1fa5ca	-0.03897647
10	0xbeacee3b	-0.33775505
11	0xbe4614e5	-0.19343908
12	0xbcfe9271	-0.031075688
13	0x3da180e4	0.07885912
14	0x3f09e0b1	0.53858477
15	0xbed1be47	-0.40965483
16	0xbead892b	-0.33893713
17	0x3dc6bd02	0.09704019
18	0x3d0318b7	0.03200599
19	0x3e8f54da	0.27994424
20	0x3ef71418	0.48257518
21	0x3e851fd4	0.26000845
22	0xbc7568f7	-0.014978639
23	0x3e048f29	0.12945236
24	0x3e10a1e4	0.14124256
25	0xbeaccf7b	-0.33752045
26	0xbddb105d	-0.106964804
27	0x3e811d70	0.25217772
28	0xbedde4f7	-0.4333875
29	0xbcd3ea30	-0.025868505
30	0x3ec8c53c	0.39212978
31	0xbf28c498	-0.6592498
32	0x3d11b2a1	0.035570744
33	0xbddb4a27	-0.10707503
34	0xbe967c2f	-0.2939162
35	0xbd1f14a2	-0.038838036
36	0x3df2ea80	0.118611336
37	0xbd9b6af7	-0.07588761
38	0x3e3bbad4	0.18332988
39	0x3e9d5e09	0.30735806
40	0x3f0aa107	0.5415196
41	0x3e5908b4	0.21194726
42	0xbe6bb09a	-0.23016587
43	0xbe5169fa	-0.20450583
44	0x3ef04f61	0.4693556
45	0xbeccd015	-0.40002504
46	0x3e9cee09	0.30650356
47	0x3ef509e0	0.47859097
48	0xbe7e696d	-0.24844904
49	0x3f0270e0	0.50953484
50	0xbebd93c9	-0.37026814
51	0x3e8b1178	0.27161765
52	0x3d93ec02	0.07222749
53	0x3d10366b	0.035208147
54	0xbc25a001	-0.010108949
55	0x3d8e0350	0.069342256
56	0x3e02666e	0.12734386
57	0xbea8f6c4	-0.33000767
58	0xbe0bba98	-0.13645399
59	0xbe9e2b1d	-0.30892268
60	0xbef4204d	-0.47680894
61	0x3db47d97	0.08813017
62	0x3ee1ba67	0.44087526
63	0xbd6ee403	-0.058322918
64	0xbdbc29c8	-0.09187657
65	0x3dcb2c2b	0.09920534
66	0xbe10b0d1	-0.1412995
67	0xbe22fb4d	-0.15916176
68	0x3ee8843c	0.45413387
69	0x3dcd9743	0.100386165
70	0xbeb04a0d	-0.34431496
71	0x3dd72b23	0.105062746
72	0xbd85e973	-0.065386675
73	0x3d918026	0.071045205
74	0xbe477c4a	-0.19481006
75	0xbebf92ef	-0.3741679
76	0xbf02280d	-0.5084236
77	0xbdc738eb	-0.09727653
78	0x3e0e1aeb	0.13877456
79	0xbe40ff0a	-0.1884729
80	0x3d0ea148	0.03482178
81	0x3e8fb570	0.28068113
82	0xbea8b7cb	-0.32952723
83	0x3ea70050	0.32617426
84	0x3ef251f2	0.47328144
85	0xbe3e10bd	-0.18561073
86	0xbdba83e4	-0.091071874
87	0x3a8d20c1	0.0010767208
88	0x3e536bbd	0.20646568
89	0x3e20a71a	0.15688744
90	0x3e99b4d5	0.30020776
91	0x3f072871	0.52796084
92	0xbe9de709	-0.30840328
93	0x3ea57f91	0.32323888
94	0x3e1d9ec9	0.15392603
95	0xbde3c69d	-0.11121867
96	0x3d022c49	0.031780515
97	0xbe983daa	-0.29734546
98	0xbdabad17	-0.08382624
99	0x3dac519a	0.08414002
100	0x3e80faba	0.2519129
101	0x3e3a05a2	0.18166211
102	0x3e7da3d5	0.24769528
103	0x3d10c592	0.035344668
104	0x3eff5db7	0.49876186
105	0xbe05450a	-0.13014618
106	0xbe16d222	-0.14728597
107	0x3dd14f1c	0.10220167
108	0xbeee8771	-0.4658771
109	0xbec11a0a	-0.3771518
110	0x3e0918aa	0.13388315
111	0x3e9db37f	0.30801007
112	0xbef21002	-0.47277838
113	0x3ec65c5d	0.38742343
114	0xbd80f47e	-0.06296633
115	0xbd733027	-0.059372094
116	0x3d9fd729	0.078047104
117	0x3e9fce33	0.31212005
118	0x3d5592f4	0.0521421
119	0xbd8cd349	-0.06876237
120	0xbedce08d	-0.4314007
121	0x3e48e65f	0.1961913
122	0xbe5b029b	-0.21387713
123	0xbead3cc0	-0.3383541
124	0xbf01f317	-0.5076155
125	0xbdf1a169	-0.11798365
126	0x3e046c44	0.12931925
127	0xbc96dd1e	-0.018415984
128	0x3d7582dc	0.05993925
129	0x3d901512	0.07035269
130	0xbe9f8f9e	-0.3116426
131	0x3d35c9b0	0.044381797
132	0x3ed14623	0.40873823
133	0x3e772cfe	0.24138257
134	0x3d3cea2a	0.046121754
135	0x3e962825	0.29327503
136	0xbead51ac	-0.33851373
137	0xbd81c53e	-0.06336449
138	0x3eb86b01	0.36019138
139	0xbe8dd450	-0.27701044
140	0xbbbb75d3	-0.005720833
141	0x3d5f3b5c	0.05449997
142	0x3ef9da09	0.4879916
143	0xbe9d9954	-0.30781043
144	0xbdb126cd	-0.08649979
145	0x3ea23022	0.31677347
146	0xbe0f8ae7	-0.14017831
147	0x3db2d404	0.08731845
148	0x3dfccd15	0.12343804
149	0x3df84584	0.12122634
150	0xbe6eab7b	-0.23307602
151	0x3d4993db	0.04921327
152	0xbb8af36a	-0.004240443
153	0xbece7347	-0.40322325
154	0x3dcf2e84	0.10116294
155	0xbd54d4dd	-0.051960815
156	0xbd72dfeb	-0.059295576
157	0xbe3f6b5b	-0.18693297
158	0x3e08c15d	0.13355012
159	0xbec0ce3c	-0.37657344
160	0x3e866bd5	0.26254144
161	0xbe83f911	-0.2577596
162	0xbe4a1476	-0.19734368
163	0x3d371cbb	0.044705134
164	0x3c8117e9	0.015758472
165	0xbd43695f	-0.04770791
166	0x3ebe838a	0.3720973
167	0xbdb80bcc	-0.08986625
168	0x3db6cbd8	0.08925599
169	0x3e056d45	0.13029964
170	0xbeb2ce75	-0.3492314
171	0x3d85b965	0.06529502
172	0xbe23ba17	-0.15988956
173	0xbeb56d3a	-0.35434896
174	0x3e31c78d	0.17361279
175	0x3eb5584f	0.35418937
176	0xbec5c5e8	-0.38627553
177	0x3daeaa93	0.08528628
178	0xbebe11f8	-0.37123084
179	0x3ed18580	0.40922165
180	0x3d898f74	0.06716815
181	0x3e14893b	0.14505474
182	0xbdb6e200	-0.08929825
183	0xbece8cda	-0.40341836
184	0x3db9ef52	0.0907885
185	0x3e931491	0.28726628
186	0xbe4ccb00	-0.19999313
187	0xbec5b6ef	-0.3861613
188	0xbe8da308	-0.27663445
189	0xbee2ad99	-0.4427307
190	0x3d94d44b	0.07267054
191	0x3e4582b1	0.19288136
192	0x3dc3a2c8	0.095525324
193	0x3e2317d9	0.15927066
194	0x3ec0a3dd	0.37625018
195	0xbd35f92d	-0.044427086
196	0xbe9c4f77	-0.30529377
197	0x3d3f75b6	0.046743117
198	0x3bae3a4d	0.0053170086
199	0xbdde24b9	-0.10846848
200	0xbce5ebe2	-0.02806658
201	0xbe61c8e1	-0.22049285
202	0x3e60f626	0.21968898
203	0x3ebbf29a	0.36708528
204	0x3e208f2b	0.15679614
205	0x3ea35b37	0.3190553
206	0xbe9067bc	-0.28204143
207	0x3e0e2693	0.13881902
208	0xbbb2be5f	-0.005454823
209	0xbddfc5cf	-0.10926401
210	0x3e73d430	0.23811412
211	0xbe25c3e9	-0.16188015
212	0xbf158a52	-0.58414185
213	0xbe2a96b7	-0.16659056
214	0x3e2b6242	0.16736701
215	0xbd381363	-0.044940364
216	0xbf02bd54	-0.5107014
217	0xbd7174c8	-0.058949262
218	0xbea7a860	-0.32745647
219	0xbe90be18	-0.2827003
220	0x3e81bc19	0.2533882
221	0xbde969e0	-0.11397147
222	0xbe8aad51	-0.27085355
223	0x3f2bcd15	0.67109805
224	0xbda79e77	-0.08184522
225	0x3e85fae9	0.26167992
226	0x3d99a06a	0.075013
227	0xbe2d2656	-0.16909155
228	0xbe97d67c	-0.29655826
229	0xbe946f72	-0.28991276
230	0xbde13867	-0.10997086
231	0xbeb387fd	-0.35064688
232	0x3acb40d7	0.0015506995
233	0xbeb1ab0b	-0.34700808
234	0x3e8f407f	0.27978894
235	0x3ded267f	0.11579608
236	0xbe835e6a	-0.2565797
237	0x3ed39588	0.4132502
238	0xbee4c03c	-0.44677913
239	0xbe43f00b	-0.19134538
240	0x3e6fbee8	0.23412669
241	0xbe42a2ba	-0.19007388
242	0x3e2cf4bb	0.16890232
243	0xbcc9254b	-0.024553915
244	0x3b7eb5e4	0.003886574
245	0xbcf288d3	-0.029606258
246	0x3e86409e	0.26221174
247	0x3e9c7798	0.30559993
248	0x3da67687	0.08128076
249	0x3c955e4c	0.01823344
250	0x3ee13d73	0.43992195
251	0x3e278b3b	0.16361706
252	0x3e5bc68d	0.2146246
253	0x3f2787e0	0.65441704
254	0x3e7661a5	0.24060686
255	0xbec149e8	-0.37751698

critic.2.bias f4 [64]
0	0x3e2bdb3c	0.1678285
1	0x3e53e610	0.2069323
2	0x3e1ca9e7	0.15299188
3	0xbe65d19e	-0.22443244
4	0x3e3d5f4d	0.18493386
5	0xbd75245e	-0.059849136
6	0xbe3f8417	-0.18702732
7	0xbe555431	-0.20832898
8	0x3d159eb1	0.036528293
9	0x3e57f78f	0.2109053
10	0x3cc83f0c	0.024444126
11	0x3d61110d	0.0549479
12	0x3db27f2f	0.087156646
13	0xbe815745	-0.25261894
14	0x3cd912bf	0.026498197
15	0xbd0db23c	-0.034593806
16	0xbd3b789d	-0.045769323
17	0xbd368e88	-0.044569522
18	0x3e6ea359	0.233045
19	0xbd3bf907	-0.045891788
20	0xbe25c2f6	-0.16187653
21	0xbdb0e6f2	-0.08637799
22	0xbe4c904d	-0.19976921
23	0x3e2ce3d5	0.16883786
24	0x3de58ec3	0.1120887
25	0xbe8cd130	-0.27503347
26	0x3e39466b	0.18093269
27	0xbe8f37c8	-0.27972245
28	0xbe5b73f1	-0.21430947
29	0x3e26a404	0.16273504
30	0x3d45ac44	0.04825999
31	0xbe5fe506	-0.2186471
32	0xbe8c7ddb	-0.2743977
33	0x3e9e8e1a	0.3096779
34	0x3e0da91b	0.1383404
35	0x3d3bffe5	0.045898337
36	0x3e2b83b6	0.16749462
37	0x3d11fce8	0.03564158
38	0x3e8c39f4	0.27387965
39	0x3e30b22e	0.1725547
40	0x3da1318b	0.07870778
41	0x3e4508d6	0.19241652
42	0xbe3a8bff	-0.18217467
43	0xbe253f53	-0.16137438
44	0xbd890cd2	-0.066918984
45	0xbe14e41e	-0.14540145
46	0xbe763d41	-0.24046804
47	0x3e39da7f	0.18149756
48	0x3e084895	0.13308938
49	0x3d557a03	0.052118313
50	0x3e589c16	0.21153292
51	0x3d670c20	0.056408048
52	0xbe58d690	-0.21175599
53	0xbe315402	-0.17317203
54	0x3e890846	0.26764125
55	0x3dfbad83	0.12288954
56	0x3bcf7f4d	0.006332314
57	0x3e31fb9d	0.17381139
58	0x3e1682d0	0.14698339
59	0x3e2b8b2a	0.16752306
60	0xbe3a4789	-0.18191351
61	0xbd258a0f	-0.040414866
62	0x3e4fea40	0.20304203
63	0x3e1ccf8b	0.15313546

critic.4.weight f4 [1, 64]
0	0xbf189c4f	-0.5961351
1	0xbf56d966	-0.83925474
2	0xbf51bd75	-0.81929713
3	0x3f12bef1	0.57322603
4	0xbf31a7ce	-0.69396675
5	0x3f15a2b8	0.58451414
6	0x3f57a46a	0.8423525
7	0x3f48520d	0.782502
8	0xbf0a8772	-0.54112923
9	0xbf58bc89	-0.8466268
10	0xbf1444af	-0.579173
11	0xbf084378	-0.5322795
12	0xbf236812	-0.63830674
13	0x3f24f22a	0.64432013
14	0xbf065fbb	-0.52489823
15	0x3f083bed	0.5321644
16	0x3f12f5a9	0.574061
17	0x3f1a47d7	0.6026587
18	0xbf455c4f	-0.77093977
19	0x3f0d78b9	0.55262333
20	0x3f28c327	0.6592278
21	0xbeea14ad	-0.457189
22	0x3f4ac905	0.7921298
23	0xbf2dd25b	-0.678991
24	0xbf5ba6fc	-0.8580167
25	0x3f2c14d9	0.6721931
26	0xbf571d15	-0.8402875
27	0x3f323c87	0.6962361
28	0x3f455e53	0.7709705
29	0xbf489200	-0.7834778
30	0xbf458c6d	-0.771674
31	0x3f1cb09b	0.6120698
32	0x3f2f11e5	0.6838668
33	0xbf1b23dc	-0.6060159
34	0xbf426413	-0.7593395
35	0xbf2d9242	-0.67801297
36	0xbf34a0de	-0.70557964
37	0xbefd1812	-0.49432427
38	0xbf303e20	-0.68844795
39	0xbf3da0d9	-0.7407356
40	0xbf1302fa	-0.57426417
41	0xbf3a1514	-0.7268841
42	0x3f46ff94	0.7773373
43	0x3f2ce53d	0.6753729
44	0x3f2a3ad8	0.6649604
45	0x3f232deb	0.6374194
46	0x3f371133	0.7151062
47	0xbf537e11	-0.8261424
48	0xbf40d3c0	-0.75323105
49	0xbf1bc4f3	-0.60847396
50	0xbf47a4d4	-0.7798588
51	0xbf1f07cd	-0.6212128
52	0x3f1eef29	0.6208368
53	0x3f382e9c	0.7194612
54	0xbf2d8457	-0.6778006
55	0xbf2da7f9	-0.6783443
56	0x3ee975a5	0.45597568
57	0xbf39f9d2	-0.7264682
58	0xbf37e68f	-0.7183618
59	0xbf411510	-0.75422764
60	0x3f478ef0	0.7795248
61	0x3f1285c5	0.57235366
62	0xbf3fecbc	-0.74970603
63	0xbf16d109	-0.5891271

actor.0.weight f4 [64, 2]
0	0x3e3cf0e4	0.18451267
1	0xbdfb1be4	-0.12261179
2	0xbc996c2f	-0.018728344
3	0xbce743c1	-0.02823055
4	0x3e11cf45	0.14239223
5	0x3d26d28e	0.040728144
6	0xbdc8fed7	-0.09814232
7	0xbdbab37b	-0.091162644
8	0xbdfc7421	-0.12326837
9	0xbf155af0	-0.58341885
10	0x3e49650d	0.19667454
11	0xbd9c8775	-0.07643024
12	0x3e21e582	0.15810207
13	0x3d5b5af7	0.053553548
14	0x3c09bf84	0.008407477
15	0x3d726342	0.05917669
16	0xbe700513	-0.23439436
17	0x3d6c8c92	0.057751246
18	0x3ed6fbde	0.41989034
19	0x3e194aa8	0.14969885
20	0x3ea77507	0.32706472
21	0x3d119983	0.03554679
22	0xbdd3fe05	-0.10351185
23	0x3e339baf	0.17539857
24	0xbde6e0bc	-0.112733334
25	0xbea95eb3	-0.33080062
26	0xbe7e27e9	-0.24819912
27	0x3dc282bf	0.09497594
28	0xbe0ac20a	-0.13550583
29	0xbe2f4008	-0.1711427
30	0xbbe3e83c	-0.0069551747
31	0x3d1f0132	0.0388195
32	0x3e0ae5f0	0.13564277
33	0xbdff8936	-0.12477343
34	0xbdf913ac	-0.12161955
35	0x3dfdb946	0.12388854
36	0x3c93a1a7	0.018021418
37	0xbe5c0bf7	-0.21488939
38	0x3ddb6bd8	0.10713929
39	0x3e2c4bf1	0.16825844
40	0xbe2902f2	-0.1650503
41	0x3e3cdcaa	0.18443552
42	0xbd6df314	-0.058093145
43	0xbd16e16d	-0.036836077
44	0xbda6991e	-0.081346735
45	0xbd22cb36	-0.03974458
46	0xbe34286a	-0.17593542
47	0x3eb15816	0.34637517
48	0x3e4fdae6	0.20298347
49	0x3de85f85	0.11346344
50	0x3d404b6d	0.04694693
51	0x3deb1363	0.11478307
52	0xbd5b7983	-0.05358268
53	0xbe2ac592	-0.1667693
54	0x3e3fb489	0.18721212
55	0x3e605c24	0.21910149
56	0x3ce61e25	0.028090546
57	0x3e22c9b9	0.15897264
58	0xbea9f428	-0.3319409
59	0xbe13b0c8	-0.14422905
60	0xbcd64a53	-0.026158487
61	0xbd9a6978	-0.07539648
62	0xbc16d1ee	-0.009205325
63	0x3ce9873a	0.028506864
64	0xbe257d84	-0.16161162
65	0xbe2a526d	-0.16633005
66	0x3ec39189	0.38196972
67	0xbe0ac8bc	-0.13553137
68	0x3e19ddf8	0.1502608
69	0xbc23e7f7	-0.010004035
70	0x3e2966bf	0.16543101
71	0x3df762ad	0.12079368
72	0xbdb1dc3e	-0.08684586
73	0x3eecca27	0.4624798
74	0x3d23e794	0.040015772
75	0xbd02b609	-0.031911884
76	0x3e069391	0.1314223
77	0xbd6cc5f4	-0.05780597
78	0x3ddc210d	0.107484914
79	0xbe7c42ad	-0.2463481
80	0x3d17a372	0.037021108
81	0x3e483ff2	0.19555643
82	0xbd81bc7b	-0.06334778
83	0xbd957625	-0.07297925
84	0xbe6f3a19	-0.23362006
85	0xbc98cc70	-0.01865217
86	0x3e97decd	0.2966217
87	0x3e4d1a35	0.20029528
88	0xbd4a0dc9	-0.049329553
89	0xbe068e48	-0.13140213
90	0x3e5a23ec	0.21302766
91	0xbebaacde	-0.36460012
92	0x3e9fd543	0.31217393
93	0xbe33374e	-0.17501566
94	0xbddabfdd	-0.10681126
95	0x3ca4717c	0.020073645
96	0x3d780c9e	0.060558908
97	0xbd0eaa84	-0.034830585
98	0xbcf4b83a	-0.029873002
99	0xbe92612b	-0.28589758
100	0x3e7b9664	0.24569088
101	0xbb519e77	-0.0031985322
102	0xbe449b8a	-0.19199958
103	0x3e73ed67	0.2382103
104	0x3d9b62e7	0.075872235
105	0xbcbb26a3	-0.022845572
106	0x3dca1ded	0.09868989
107	0xbe564cd9	-0.20927753
108	0x3dca78cc	0.098863214
109	0x3dcc1902	0.09965707
110	0xbe298c29	-0.16557373
111	0x3e84ce16	0.2593848
112	0x3e00cc39	0.12577905
113	0x3e6baadd	0.23014398
114	0x3da22d85	0.079188384
115	0xbc43e1eb	-0.0119557185
116	0xbe1a9b8f	-0.15098403
117	0x3e4809f5	0.19535048
118	0x3e19436e	0.14967129
119	0xbda39787	-0.07987886
120	0x3d86c298	0.065800846
121	0x3e36b58e	0.17842695
122	0x3d93484e	0.071915254
123	0x3ebbc4e2	0.36673647
124	0xbe463698	-0.19356763
125	0x3e3726b9	0.17885865
126	0x3e6b1ae2	0.22959474
127	0xbe013226	-0.12616786

actor.0.bias f4 [64]
0	0xbe09fe95	-0.13476022
1	0xbdff90f2	-0.12478818
2	0xbdf4aac5	-0.11946634
3	0x3d611ffe	0.05496215
4	0xbdd49b46	-0.103811786
5	0xbe0cb4f2	-0.137409
6	0xbdcc0e38	-0.099636495
7	0xbdfb7bb5	-0.122794546
8	0x3de16592	0.11005701
9	0xbd734173	-0.05938859
10	0xbe16888c	-0.14700526
11	0x3e0bef77	0.13665567
12	0xbe0a4f45	-0.13506801
13	0x3e07f3c3	0.13276581
14	0x3de93c30	0.11388433
15	0x3de96e5f	0.11398005
16	0xbe064aff	-0.13114546
17	0x3e068d79	0.13139905
18	0xbe0aeb55	-0.13566335
19	0xbdabd9bb	-0.08391138
20	0x3e0ce273	0.13758259
21	0x3d267e32	0.040647693
22	0x3de8057c	0.11329171
23	0x3e08d894	0.13363868
24	0xbdc255c6	-0.09489016
25	0xbde358cb	-0.1110092
26	0x3d9d102c	0.076691
27	0xbde5387c	-0.11192414
28	0xbdb37454	-0.08762422
29	0x3bece05d	0.0072288946
30	0xbdf91383	-0.12161925
31	0xbdef774d	-0.11692677
32	0x3d8d32d0	0.06894457
33	0xbdfa694e	-0.122271165
34	0x3e033c3f	0.12815951
35	0xbddbe13d	-0.1073632
36	0x3e196987	0.14981662
37	0xbdc59413	-0.096473835
38	0xbdffaded	-0.124843456
39	0xbe0b9feb	-0.13635223
40	0x3d420682	0.047369488
41	0x3dc0ddd2	0.09417309
42	0x3dea6eab	0.114468895
43	0xbc4d827d	-0.012543318
44	0xbc5d7f17	-0.01351907
45	0xbdffdc57	-0.12493198
46	0xbe0ba009	-0.13635267
47	0x3defb671	0.1170472
48	0xbe048c18	-0.12944067
49	0xbdf10fbe	-0.11770581
50	0xbdebf801	-0.11521912
51	0x3e0a229f	0.1348977
52	0x3df6eb03	0.12056544
53	0xbe0cf1cd	-0.13764115
54	0xbdee3dda	-0.11632891
55	0x3e0d0ee7	0.13775216
56	0xbdc59f74	-0.09649554
57	0xbdb18191	-0.08667291
58	0x3e117b90	0.14207292
59	0xbe091561	-0.13387062
60	0x3dfe51e8	0.12417966
61	0x3d742b6e	0.05961173
62	0x3e0c9fb1	0.13732792
63	0xbe10c629	-0.14138092

actor.2.weight f4 [64, 64]
0	0x3e3dd8b5	0.18539698
1	0x3dafc381	0.08582211
2	0x3e54a660	0.20766592
3	0xbcbdd26b	-0.023171624
4	0x3dd6ef82	0.10494901
5	0x3e0f8905	0.14017113
6	0x3d69d92a	0.05709187
7	0xbdbb11c9	-0.091342516
8	0xbd935214	-0.071933895
9	0xbdb2c871	-0.087296374
10	0xbe9f3d4a	-0.31101447
11	0xbe51c3e0	-0.20484877
12	0x3e14e69e	0.14541098
13	0x3edaa0bb	0.42700753
14	0x3e56f1d1	0.20990683
15	0xbd6472e4	-0.05577363
16	0xbb9c69a6	-0.0047733365
17	0x3e2d97fd	0.1695251
18	0xbeb716c2	-0.3575955
19	0x3dce7273	0.10080423
20	0x3e9ea5c9	0.3098586
21	0x3e5469b9	0.20743455
22	0xbe612b4c	-0.21989173
23	0x3dba9ab0	0.091115355
24	0x3ea61478	0.3243749
25	0xbe103f22	-0.14086583
26	0x3e7529d1	0.23941733
27	0x3e6e9466	0.23298797
28	0xbae8a007	-0.0017747887
29	0x3e618403	0.22023015
30	0xbe9ac1a8	-0.30225873
31	0xbd5d8f67	-0.054091837
32	0xbc7e3c8b	-0.015517364
33	0xbd2b7279	-0.041857217
34	0x3e3da586	0.18520173
35	0x3eb404cf	0.3515992
36	0x3dc51778	0.09623617
37	0xbe0fa2e9	-0.14026989
38	0xbe81ceb6	-0.2535302
39	0x3e0d9eb6	0.13830075
40	0x3d1bb092	0.038010187
41	0x3ded272d	0.11579738
42	0xbe4eefee	-0.20208713
43	0x3e2ac177	0.16675363
44	0xbdb956cb	-0.090497576
45	0xbd6460f9	-0.055756543
46	0xbe601de0	-0.21886396
47	0x3d21e0c2	0.039520986
48	0x3ca72887	0.020405067
49	0xbe4d6fb0	-0.20062137
50	0x3d605853	0.054771733
51	0x3da79da9	0.08184368
52	0xbe5ef554	-0.21773273
53	0xbd9542d3	-0.07288136
54	0x3d3b00ae	0.045654945
55	0x3e4f684e	0.20254633
56	0xbe31d6ba	-0.17367068
57	0xbe124ce5	-0.14287145
58	0xbaf1b0d9	-0.0018439546
59	0xbe9a9fb3	-0.30199966
60	0x3d9f4242	0.077763095
61	0x3cdf35ae	0.027247276
62	0xbe7ee81a	-0.24893227
63	0xbdeede4b	-0.11663493
64	0x3db066ce	0.086133584
65	0xbec5d2d1	-0.38637403
66	0x3dc40578	0.095713556
67	0xbc986d68	-0.018606856
68	0xbdbb974b	-0.09159716
69	0xbe97568b	-0.29558215
70	0x3e8b9659	0.27263144
71	0x3e1d317e	0.15350911
72	0xbdd8cabe	-0.10585545
73	0xbe3c1697	-0.18367992
74	0xbdd7192b	-0.10502847
75	0x3f0c5d57	0.54829925
76	0xbc221db5	-0.009894778
77	0x3dafeedb	0.0859048
78	0x3ca8f954	0.020626701
79	0x3c548e2f	0.012973352
80	0x3e4bd813	0.19906645
81	0x3e098fee	0.13433811
82	0x3b8b368f	0.0042484473
83	0x3e7a40a6	0.24438724
84	0x3e032cd9	0.12810077
85	0x3e1ca829	0.15298523
86	0xbcdac9f9	-0.026707636
87	0xbd24bcdf	-0.040219184
88	0xbe60782c	-0.21920842
89	0xbda4c847	-0.08046012
90	0xbe0aaaba	-0.1354169
91	0xbdee66ee	-0.11640726
92	0x3d3c43ae	0.045962982
93	0xbe9da336	-0.30788583
94	0x3d8789f7	0.066181116
95	0x3e33f3d9	0.17573489
96	0x3b599411	0.0033199827
97	0xbe99a04e	-0.30005115
98	0x3e76e71b	0.24111597
99	0x3d73f151	0.05955631
100	0x3e2011f3	0.15631847
101	0xbe3094c5	-0.17244251
102	0x3dc162c8	0.09442669
103	0xbcd9b62d	-0.026576126
104	0xbcd00b8f	-0.025396137
105	0xbd7e9801	-0.06215668
106	0x3e514970	0.2043817
107	0x3e7831cd	0.24237747
108	0xbe2b931f	-0.16755341
109	0x3c154c44	0.009112421
110	0x3e67c563	0.22633891
111	0xbeb36a1b	-0.3504189
112	0xbe94c72d	-0.2905821
113	0xbe73f76b	-0.23824851
114	0xbd75ef9d	-0.060042966
115	0x3c056335	0.008141329
116	0x3e36a1b3	0.17835121
117	0xbe67fcc5	-0.22655018
118	0x3e411cf8	0.18858707
119	0x3d00e6ff	0.031470295
120	0xbe2fd1be	-0.17169854
121	0xbe8c18ad	-0.27362576
122	0x3ccd5a5d	0.025067503
123	0xbea69303	-0.32534036
124	0x3c16ac2e	0.009196324
125	0x3cb4ee40	0.022086263
126	0xbcc793ac	-0.024362408
127	0xbd170c51	-0.03687698
128	0x3c7ff78d	0.015622986
129	0xbd14e5bd	-0.036351908
130	0x3e063a7f	0.13108252
131	0x3d94ac3a	0.07259412
132	0xbe111de4	-0.14171559
133	0x3ce80003	0.028320318
134	0x3e8025e7	0.25028917
135	0x3ef65517	0.48111793
136	0xbdd746d0	-0.10511553
137	0xbe210078	-0.15722835
138	0xbcc1fe4e	-0.023680832
139	0xbdecf14e	-0.11569463
140	0xbe1f0e7e	-0.15532872
141	0xbdebbc5e	-0.115105376
142	0x3d850c49	0.06496484
143	0xbde295ed	-0.11063752
144	0x3e00b126	0.12567577
145	0xbe92ae1f	-0.2864847
146	0xbc8cd9f6	-0.017193776
147	0xbdfe9dee	-0.124324664
148	0x3c9c9e84	0.019118555
149	0x3e27e573	0.16396122
150	0x3e7cfd4c	0.24706
151	0xbc4e27a2	-0.012582691
152	0x3d3603bb	0.04443715
153	0xbde5b6ce	-0.11216508
154	0xbc662c1e	-0.014048604
155	0xbd25af8c	-0.040450618
156	0x3e1baad1	0.1520188
157	0x3eb5fb73	0.35543403
158	0xbea73fbc	-0.32665813
159	0x3e35c615	0.17751344
160	0xbe327cbb	-0.17430393
161	0xbdce0698	-0.100598514
162	0x3e98c0ca	0.29834586
163	0xbd578a5c	-0.052622184
164	0xbd470e57	-0.04859766
165	0x3e4d2138	0.20032203
166	0x3efa492e	0.48883957
167	0x3e81b240	0.25331306
168	0x3e95037c	0.2910422
169	0x3d22c988	0.039742976
170	0x3dea2c73	0.11434259
171	0xbd75288f	-0.059853133
172	0x3dbaf568	0.09128839
173	0xbdb4fc08	-0.08837134
174	0x3d50d982	0.05098868
175	0x3dbac5a3	0.091197275
176	0x3e93fc0d	0.28903237
177	0x3c8e711a	0.017387915
178	0xbdb9ae7a	-0.09066482
179	0xbed438c9	-0.41449574
180	0xbe3de97e	-0.18546101
181	0xbd016d5c	-0.031598434
182	0x3e8ec011	0.2788091
183	0xbd9832e1	-0.074315794
184	0xbcb408f8	-0.021976933
185	0x3e3029a4	0.17203385
186	0x3e2ac11c	0.16675228
187	0x3e712cb1	0.23552205
188	0x3df83998	0.1212036
189	0xbdd78122	-0.10522677
190	0xbdbbad67	-0.09163933
191	0xbc2a6126	-0.010399139
192	0xbe819ad2	-0.2531343
193	0x3e06de43	0.13170724
194	0x3e2cd882	0.16879466
195	0x3ea84dd5	0.3287188
196	0x3e452fed	0.19256563
197	0x3e10a09a	0.14123765
198	0xbe1b0b7f	-0.15141104
199	0xbde7df99	-0.11321945
200	0xbe9b36f2	-0.30315357
201	0x3de36fe4	0.11105326
202	0x3ee45db2	0.44602734
203	0x3d1bb1aa	0.03801123
204	0xbd8b1a93	-0.06792178
205	0x3ea82aae	0.32845062
206	0xbd90b943	-0.07066586
207	0xbd7768f5	-0.06040283
208	0xbe6172f0	-0.22016501
209	0x3ac399fb	0.0014923209
210	0x3debee2b	0.11520036
211	0xbde397ed	-0.11112962
212	0x3e603a56	0.21897253
213	0xbc40b847	-0.011762685
214	0xbc8e5c99	-0.017378138
215	0xbd1509ba	-0.03638623
216	0xbd0f1b40	-0.034938097
217	0xbe53a9a0	-0.20670176
218	0xbedea710	-0.43486834
219	0x3dac15ab	0.0840257
220	0xbde63169	-0.11239893
221	0x3e10c9fe	0.14139554
222	0xbe085564	-0.13313824
223	0x3d407b00	0.046992302
224	0xbe496af0	-0.196697
225	0xbca68a18	-0.02032952
226	0x3ddd52a3	0.10806777
227	0x3e66e75b	0.22549193
228	0x3c83fdaa	0.016112167
229	0xbe24c8c4	-0.16092211
230	0x3e95ef9c	0.2928437
231	0xbe7712ac	-0.24128217
232	0xbe723e8a	-0.2365667
233	0xbdd336ce	-0.103131875
234	0x3da5377d	0.08067224
235	0x3e39df84	0.1815167
236	0xbe8a6a57	-0.27034256
237	0xbe3c9148	-0.18414795
238	0x3e38e8e8	0.18057597
239	0x3bf6136c	0.0075096395
240	0x3e55633a	0.20838633
241	0x3c94c7ec	0.018161736
242	0x3d2b810f	0.041871127
243	0xbdeb398b	-0.11485585
244	0xbd3242b5	-0.043520648
245	0xbd8575da	-0.06516619
246	0xbe6b4dc3	-0.22978882
247	0xbe27110b	-0.16315095
248	0x3dabfbfb	0.08397671
249	0xbab39c40	-0.0013703182
250	0xbdbdfda7	-0.09276896
251	0xbd519613	-0.051168513
252	0xbe8cb10c	-0.27478826
253	0xbe0accfe	-0.13554761
254	0xbd919db0	-0.07110155
255	0x3e937b0a	0.2880481

actor.2.bias f4 [64]
0	0x3dd2b1d9	0.10287828
1	0x3de93fcd	0.11389122
2	0xbdd8d75b	-0.10587951
3	0xbdba8506	-0.091074035
4	0xbdc0b606	-0.09409718
5	0xbdd7255a	-0.10505171
6	0x3db63ff1	0.088989146
7	0x3dbbaaca	0.09163435
8	0x3dcd2058	0.10015935
9	0x3d8b4b66	0.068014905
10	0xbddbcfec	-0.10733017
11	0x3ddde318	0.1083433
12	0x3dc155dc	0.094402045
13	0xbde1aca2	-0.11019255
14	0x3de82b18	0.113363445
15	0x3da48868	0.0803383
16	0x3de887b7	0.113540106
17	0xbdae4c41	-0.08510638
18	0x3de1b229	0.110203095
19	0xbdc82d43	-0.09774258
20	0x3db2d877	0.08732694
21	0xbdc852b2	-0.09781398
22	0x3da428e1	0.080156095
23	0x3dade628	0.084911644
24	0xbdd12db0	-0.10213792
25	0x3dce13ab	0.10062345
26	0x3dbc9ba9	0.09209377
27	0x3dcebf0d	0.10095034
28	0xbdce5e4f	-0.10076582
29	0x3dbd1a4a	0.0923353
30	0xbdb868d9	-0.09004373
31	0xbde38abc	-0.11110446
32	0xbda9ba01	-0.082874306
33	0x3dda6129	0.10663063
34	0xbdc5fe20	-0.09667611
35	0x3db7e40e	0.08979045
36	0xbdd97c60	-0.10619426
37	0x3dc58374	0.09644213
38	0x3d9ad5a4	0.0756028
39	0x3dc45cef	0.09588038
40	0xbdcb9cad	-0.09941993
41	0x3ddbb423	0.10727718
42	0xbdd3643e	-0.10321854
43	0xbde717f5	-0.11283866
44	0xbdd7c5df	-0.10535788
45	0xbde71e9a	-0.11285134
46	0xbda080ff	-0.07837104
47	0x3dd2323b	0.10263487
48	0xbdd422f3	-0.103582285
49	0xbdb7e6f4	-0.08979598
50	0x3dd0e00a	0.10198982
51	0x3dce575e	0.10075258
52	0xbdc16e1f	-0.09444832
53	0x3dc826e2	0.09773041
54	0x3db4348b	0.08799084
55	0xbdd8f281	-0.10593129
56	0xbdbd46ac	-0.09241995
57	0x3db2ce60	0.08730769
58	0xbc44daba	-0.012015039
59	0x3d958ef5	0.073026575
60	0x3d8eda2e	0.06975208
61	0xbdea16af	-0.11430108
62	0xbd320808	-0.04346469
63	0x3dda6073	0.106629275

actor.4.weight f4 [2, 64]
0	0xbd56cde7	-0.052442458
1	0xbdae2a11	-0.08504117
2	0x3d8203f3	0.063484095
3	0x3d1bbc90	0.038021624
4	0x3d1f0902	0.03882695
5	0x3d5e991a	0.054345228
6	0xbce6365f	-0.028102098
7	0xbd08030b	-0.033206027
8	0xbd357cce	-0.044308476
9	0xbcae165b	-0.021250894
10	0x3d89b10d	0.06723223
11	0xbd9bffe1	-0.076171644
12	0xbd3d7418	-0.046253294
13	0x3d9947b0	0.074843764
14	0xbdbfdbfd	-0.09368131
15	0xbcc776e1	-0.024348678
16	0xbdbfdbdf	-0.09368109
17	0x3ccc833c	0.024964921
18	0xbd95359e	-0.07285617
19	0x3d8e8baa	0.069602326
20	0xbd052a19	-0.03251085
21	0x3d382b8d	0.04496341
22	0xbccd79a1	-0.025082411
23	0xbce28335	-0.027650455
24	0x3d57b116	0.052659117
25	0xbd5866a8	-0.052832276
26	0xbd0560f3	-0.03256316
27	0xbd66f100	-0.05638218
28	0x3d4087a2	0.04700435
29	0xbd05886e	-0.032600813
30	0x3cf04e0f	0.029334096
31	0x3db0393b	0.08604666
32	0x3cec4728	0.028842524
33	0xbd92f7a7	-0.07176142
34	0x3d7b2cb5	0.061321933
35	0xbce090fe	-0.027412888
36	0x3d8b9f61	0.068175085
37	0xbd25eade	-0.04050719
38	0xbce33301	-0.027734281
39	0xbd35bdbc	-0.044370398
40	0x3d2c5830	0.04207629
41	0xbd7ce071	-0.06173748
42	0x3d493b39	0.049128745
43	0x3db3fbbb	0.08788248
44	0x3d9481a0	0.072512865
45	0x3dc63483	0.096779846
46	0x3ca4627b	0.02006649
47	0xbd770ded	-0.060316015
48	0x3d5d0536	0.053960048
49	0x3cf9cca9	0.030493097
50	0xbd838cda	-0.0642335
51	0xbd472911	-0.04862315
52	0x3d0d778c	0.034537837
53	0xbd307d0e	-0.04308801
54	0xbcda1d17	-0.0266252
55	0x3d65d63c	0.056112513
56	0x3d0b13a1	0.033954266
57	0xbce86c45	-0.02837194
58	0x3c44818e	0.011993779
59	0xbcdfeb70	-0.027333945
60	0xbce17306	-0.027520668
61	0x3d938c9c	0.072045535
62	0x3cc5c064	0.02413959
63	0xbd85d70b	-0.06535157
64	0x3d56980e	0.052391104
65	0x3da8ac95	0.082360424
66	0xbd8071d8	-0.06271714
67	0xbd22bfa2	-0.039733537
68	0xbd1db2b7	-0.038500514
69	0xbd623835	-0.055229384
70	0x3ce567fb	0.028003683
71	0x3d132ad7	0.035929527
72	0x3d390ea2	0.04517997
73	0x3cb2a830	0.021808714
74	0xbd8ac52f	-0.06775891
75	0x3d98dbac	0.07463774
76	0x3d2df1ce	0.04246693
77	0xbd993981	-0.07481671
78	0x3dc13ddb	0.09435626
79	0x3ce2f6d3	0.027705586
80	0x3dbdfb2f	0.09276425
81	0xbcc74dad	-0.02432903
82	0x3d957739	0.072981305
83	0xbd8b774c	-0.068098634
84	0x3cfeabb8	0.031087741
85	0xbd40defc	-0.047087654
86	0x3cc8d44c	0.024515294
87	0x3ce541f6	0.027985554
88	0xbd5b9d75	-0.05361696
89	0x3d5d4fe1	0.054031257
90	0x3d08d25b	0.033403736
91	0x3d61da66	0.05513992
92	0xbd43e043	-0.047821295
93	0x3cfebe82	0.0310967
94	0xbce5db23	-0.028058594
95	0xbdaf71d2	-0.085666314
96	0xbce1ad57	-0.027548475
97	0x3d92abe8	0.07161695
98	0xbd6e3fde	-0.058166377
99	0x3ced9bbf	0.02900493
100	0xbd89dadb	-0.067311965
101	0x3d27055d	0.0407766
102	0x3cdc7052	0.026909027
103	0x3d32ec8e	0.043682627
104	0xbd39a33b	-0.045321684
105	0x3d856eb5	0.06515256
106	0xbd546380	-0.051852703
107	0xbdad4d12	-0.084619656
108	0xbd931f66	-0.07183723
109	0xbdc65b91	-0.09685434
110	0xbca96cca	-0.020681757
111	0x3d64af36	0.055831157
112	0xbd5b78f0	-0.05358213
113	0xbcdf432d	-0.027253712
114	0x3d83b91c	0.06431791
115	0x3d5095a7	0.05092397
116	0xbd0ab30d	-0.033862162
117	0x3d2e97c2	0.042625196
118	0x3cf36562	0.029711429
119	0xbd59ecf8	-0.053204507
120	0xbd0e9aea	-0.034815706
121	0x3ce00bb0	0.027349323
122	0xbc327221	-0.010891468
123	0x3cca8b2c	0.024724565
124	0x3ce1bd19	0.02755599
125	0xbd8fc81c	-0.0702059
126	0xbcc72b56	-0.024312656
127	0x3d80badf	0.06285643

actor.4.bias f4 [2]
0	0xbdc549c3	-0.096332096
1	0x3dc549bf	0.096332066
