qhxCode/Jump/model/jump_model_2024-10-18_19-42-03.pth (torch, 64566 bytes, 12 tensors)

actor_logstd f4 [12]
000000 11 c9 48 3c a5 ed c1 3d 23 91 03 3d 6b 87 2c 3d
       0.012254969 0.09469155 0.032120835 0.042121332
000010 1f 52 b8 3c 33 52 03 3d e4 d7 49 3d 10 41 15 3c
       0.022500096 0.032060813 0.049278155 0.00910975
000020 34 dd d6 3c 24 08 0f 3d 4d 57 23 3d 4c d7 6d 3d
       0.026228525 0.034919873 0.03987818 0.05806665

critic.0.weight f4 [64, 43]
000000 69 8f a0 3e 07 46 37 3e 1e 63 0f 3e 28 ea 69 be
       0.31359413 0.17897807 0.14002654 -0.2284323
000010 43 c6 d0 be 5b 3b 0c be b7 f2 38 3e 8e f0 1f be
       -0.40776262 -0.13694517 0.18061338 -0.15619108
000020 13 b5 26 3d b6 b2 32 3e fb 7b a5 bd aa 9a e4 3d
       0.04070003 0.17450985 -0.08080288 0.11162312
000030 30 4b 78 bd a5 c8 97 3d ee d6 21 3e a1 31 c0 3e
       -0.06061858 0.07411317 0.15804645 0.37537864
000040 b4 bf ab bd f2 6a 1f 3e 85 ce b2 3e 6a fc 94 3d
       -0.08386174 0.1556814 0.34923187 0.07274707
000050 78 bf bf 3b e2 d5 0a 3e f6 d2 01 3e 7f 1d 4d 3e
       0.0058516823 0.13558152 0.12678131 0.20030783
000060 5b f8 3b 3d 6d c3 81 bd b4 a9 00 3d ef f1 92 bd
       0.045891147 -0.06336103 0.03141184 -0.071750514
000070 2c 42 52 bd f8 7e f5 3c 58 81 84 3e 98 d1 23 3e
       -0.051332638 0.02996777 0.2587993 0.15997922
000080 97 a7 9b 3d b8 75 11 bd c1 17 93 3b cb 29 94 3e
       0.076003246 -0.035512656 0.0044889157 0.28938136
000090 f4 3d 41 be 6a fc 70 bd fe 63 58 3d 3d 2f 13 be
       -0.1887129 -0.05883447 0.052829735 -0.14373489
0000a0 65 f8 0f be 16 13 92 be 96 cc ed 3d a1 8e 9b bd
       -0.14059599 -0.28530186 0.11611287 -0.07595564
0000b0 45 f0 f8 3b ed 16 42 bb f1 9a 54 3d 85 6e 61 3e
       0.0075970017 -0.0029615716 0.051905576 0.22014816
0000c0 4b ed d3 bd df 2f 47 bc 05 19 ef 3d 2a 09 37 bd
       -0.103479944 -0.012157409 0.11674694 -0.044686474
0000d0 f3 17 3a 3e 44 23 5c be bf b4 52 be bf 09 ef bc
       0.18173198 -0.21497828 -0.20576762 -0.029179452
0000e0 80 c8 a8 bd 19 dc 44 3e e6 60 88 bd cf 75 c6 bd
       -0.08241367 0.19224586 -0.06659107 -0.09690439
0000f0 26 fe f3 be 78 e2 1e bd 6f c9 47 be 93 24 2b be
       -0.47654837 -0.038790196 -0.19510435 -0.1671317
000100 41 3b 92 3e d1 e2 d4 bd 45 c5 5f 3e d3 15 81 bd
       0.28560832 -0.10394824 0.21852596 -0.06302991
000110 74 d7 a5 3e 94 b5 85 3e a3 bd 68 3d b2 0e 2d be
       0.3239094 0.26115096 0.056821477 -0.16900137
000120 9f ea 71 bd 30 35 8b 3d d9 6c 65 bd 02 a4 ae 3e
       -0.059061643 0.06797254 -0.05601201 0.34109503
000130 8e 32 e4 be 92 48 ae be 09 68 d8 3d 05 c3 83 3e
       -0.4456982 -0.34039742 0.10566718 0.25734726
000140 59 f1 a3 bd 9f be a5 3d c9 a5 dc bd 58 46 ea 3b
       -0.08005018 0.08092999 -0.107738085 0.007149499
000150 bb 8f da 3d dd 60 84 3e c7 a0 1f 3e 41 c9 33 be
       0.10671946 0.2585515 0.15588675 -0.17557241
000160 a5 48 f6 3d 60 d2 14 3e 0d 10 d4 3d e7 84 e2 bc
       0.120255746 0.14533377 0.10354624 -0.027651263
000170 3d 2d 4f be 7e f6 8f 3b f0 0a 6d bd 3f b3 b8 3e
       -0.20232101 0.004393398 -0.05787176 0.36074254
000180 84 6f 28 3e 26 a2 32 be 54 f7 4c 3e 58 a9 aa 3c
       0.1644879 -0.17444667 0.20016223 0.020832703
000190 5d a2 1f 3e b6 0d 07 3e cc dd 9e be ee 84 8a 3d
       0.1558928 0.13188824 -0.31028593 0.067636356
0001a0 8c d9 78 3d 63 b5 3c bd c4 e4 3c 3e da 5f bd 3d
       0.060754344 -0.04607142 0.18446642 0.09246798
0001b0 c5 45 59 3d 32 1f f3 bc 5b bd f7 3c 65 87 04 3e
       0.053045053 -0.029677961 0.030241659 0.12942274
0001c0 1b 8a 5d be 42 9a df 3d d6 d3 80 be 0e 96 fe bd
       -0.21634714 0.10918094 -0.25161618 -0.124309644
0001d0 9a f0 66 be 54 aa ef bd ba 57 c2 3e f6 be a0 bc
       -0.2255272 -0.117024094 0.37957555 -0.019622307
0001e0 96 ae 1a 3e 1e b9 93 be 59 3e 0d bd 24 7a 05 be
       0.15105662 -0.2885217 -0.034483287 -0.13034874
0001f0 19 3f 31 bd 15 40 25 3e 28 0c 5a be df d5 90 bd
       -0.043273065 0.16137727 -0.212937 -0.07072043
000200 45 9c 72 be d1 ae bb bd 25 95 21 3d 36 60 73 3e
       -0.23692425 -0.09164203 0.039448876 0.2376717
000210 6c 82 f3 3d af 85 cf bd 1a 33 2d be a1 a2 ac bd
       0.118901104 -0.1013292 -0.16914025 -0.084294565
000220 b8 21 f2 bd d4 a1 9f 3d f9 dd 33 bc f7 64 b1 3d
       -0.118228376 0.07794538 -0.010978215 0.08661836
000230 25 6d 04 3e 19 02 6c 3e a8 ad 04 3e f9 ab 18 be
       0.1293226 0.23047675 0.1295687 -0.14909352
000240 dc 71 04 3e 11 58 f3 3c d1 9c 2c bd c8 8a 3e be
       0.12934059 0.02970508 -0.04214174 -0.18607628
000250 f9 62 ab 3e 8b e0 f9 3d ad 11 31 3d 7d fc c2 3d
       0.33473948 0.12201031 0.043229748 0.095208146
000260 d5 4e 91 3d 11 e4 57 bc 2f 3e bf bd 55 ba 22 3e
       0.07095114 -0.013176934 -0.093380325 0.15891393
000270 fd c5 aa be c3 48 2c 3e 9f 4b 45 3d 42 cb 41 3e
       -0.33354178 0.16824631 0.04816782 0.18925193
000280 ba 06 94 3d 0d 78 bc 3d fd 67 cf bd 15 d9 68 be
       0.072278455 0.09202585 -0.10127256 -0.2273906
000290 c8 35 17 be 25 29 6e 3e e5 05 bc bd c1 e0 62 3e
       -0.1476661 0.23257883 -0.09180812 0.2215605
0002a0 a9 04 4c 3e 80 fa 7f bd 3e ea d5 3e 93 80 74 3e
       0.19923653 -0.062494755 0.41780275 0.23877172
0002b0 7e 42 9d bc 61 a3 0b 3d 17 7b cf 3d e8 f4 48 3d
       -0.019196745 0.034091357 0.101308994 0.049061686
0002c0 9d 82 42 be 6e a0 da be db f4 64 3a ea f5 6d 3d
       -0.18995138 -0.42700523 0.0008733996 0.05809585
0002d0 0d 94 b4 be ce 83 eb bd 51 2b 0f 3e 6f 0d 2e be
       -0.35269204 -0.11499749 0.13981368 -0.16997312
0002e0 e6 65 7f be 9b 22 02 bc 8b 4a de 3c be 07 33 be
       -0.24941215 -0.007942821 0.027135154 -0.17483422
0002f0 ae 4b 83 3e ad 34 99 be 0c 94 08 3e 59 e6 ac 3d
       0.25643677 -0.29923 0.13337725 0.08442373
000300 51 1e e9 bd ef 7b 93 3e 59 40 30 3e 7d 02 4b bd
       -0.113827355 0.2880549 0.17212047 -0.04956292
000310 a3 e8 c9 be d7 e2 64 be 4f b8 12 bd 75 60 91 3e
       -0.394353 -0.22352158 -0.0358203 0.28393903
000320 c6 bf f8 3d 85 f1 8b 3e 62 44 1d 3d 59 0c e4 3c
       0.12145953 0.27332702 0.038395293 0.02783792
000330 cf 26 cc bd 41 cc 35 3e 08 d6 b7 3d b4 c9 b4 bd
       -0.0996834 0.17753698 0.0897637 -0.08827534
000340 92 8d ac 3d e8 fa ac bd 66 bf 6e bc 5c 5f 16 3a
       0.0842544 -0.08446294 -0.014572 0.00057362556
000350 09 72 4c 3e bd 4c 0c 3e 85 2e 08 be 5d e3 6d bd
       0.19965376 0.13701148 -0.13298996 -0.05807816
000360 bb e8 15 be 16 3e 31 3e 1b da 82 bd 32 50 42 3e
       -0.14639561 0.1730884 -0.063892566 0.18975905
000370 94 a5 b9 3d d6 ff 7e 3d 06 80 a2 3c 57 69 a9 3e
       0.09064785 0.062255703 0.019836437 0.3308818
000380 f6 f0 aa 3b f9 8a ce be d3 3e 2d 3e 65 60 c2 3e
       0.005216713 -0.40340403 0.16918497 0.37964168
000390 9e db a3 bd 4e 70 53 bd ff a2 8c bc fd 50 b3 3e
       -0.08000873 -0.051620774 -0.017167566 0.35022727
0003a0 0e ef 10 be 37 e3 00 3e 41 ec 3b 3e 6c 50 07 3d
       -0.14153692 0.12586676 0.18351842 0.03303568
0003b0 58 e4 20 3e c8 df 85 3e c5 2c 79 3c 31 59 a5 bd
       0.15712106 0.26147294 0.015208428 -0.080736525
0003c0 29 60 86 be 29 d5 53 be 4e 68 07 be fc 34 58 3d
       -0.2624524 -0.20686783 -0.13223383 0.052784905
0003d0 02 fd f2 bd 08 ab 88 be 2a 13 0a bd e2 51 2e 3e
       -0.11864664 -0.26692986 -0.033709683 0.17023423
0003e0 0b bd e6 3e fa 80 fd bd ad a1 b3 be c0 e0 a0 bd
       0.45066103 -0.12378116 -0.35084286 -0.07855368
0003f0 f6 13 f9 3d bf b1 14 3e 3d 25 91 be 04 7b 9d bd
       0.1216201 0.1452093 -0.28348723 -0.07689479

critic.0.bias f4 [64]
000000 00 00 00 00 bd b6 b3 bb 00 00 00 00 25 d6 c1 3a
       0.0 -0.0054844306 0.0 0.0014788551
000010 f4 46 28 bb f9 f4 cb 3b a6 24 9e bb 8e c2 90 bb
       -0.0025677057 0.0062242714 -0.004826146 -0.004417724
000020 ba 97 8c ba 00 00 00 00 a1 ea 1a 3b 60 b2 4b ba
       -0.001072637 0.0 0.0023638385 -0.00077704154
000030 66 e2 2a b9 00 00 00 00 b2 4a 29 b9 b6 fe bb b7
       -0.00016296803 0.0 -0.00016144922 -2.2410746e-05
000040 00 00 00 00 00 00 00 00 ae 03 8e bb fc b2 88 b9
       0.0 0.0 -0.0043339347 -0.00026073295
000050 56 db 89 b8 63 bb 26 bb f5 40 5e b8 7c 29 ba 38
       -6.5735236e-05 -0.002544128 -5.298942e-05 8.876898e-05
000060 00 00 00 00 00 00 00 00 00 00 00 00 00 00 00 00
       0.0 0.0 0.0 0.0
000070 be f2 40 3b 00 00 00 00 7d 60 71 bb 44 56 39 bb
       0.002944156 0.0 -0.0036831193 -0.0028280178
000080 00 44 86 ba 00 00 00 00 00 00 00 00 3d d0 b1 3b
       -0.0010243654 0.0 0.0 0.0054264353
000090 c0 38 a1 b9 91 b9 89 3b 1d 1c 88 3b 78 bc 09 3c
       -0.00030750595 0.0042030294 0.004153742 0.008406751
0000a0 51 8c a5 bc 00 00 00 00 9c ba 3d 3b 71 9e 1b 3c
       -0.02020851 0.0 0.002895034 0.009498225
0000b0 c0 f7 3a bb 00 00 00 00 85 8f ab ba 17 90 b8 ba
       -0.0028529018 0.0 -0.0013089037 -0.0014081028
0000c0 3c 93 1b 2d a5 ab 0e bc 8b 3b 3d 3b 8c 5b 02 bb
       8.8434225e-12 -0.008707915 0.0028874602 -0.0019890992
0000d0 52 5d 76 ba 77 e5 1c 39 98 24 9f b7 00 00 00 00
       -0.0009398061 0.00014962802 -1.8971317e-05 0.0
0000e0 00 00 00 00 00 00 00 00 cc 8f 0d 3b 12 92 b4 3c
       0.0 0.0 0.0021600602 0.022042308
0000f0 00 00 00 00 00 00 00 00 4b e5 17 3b 00 00 00 00
       0.0 0.0 0.002317744 0.0

critic.2.weight f4 [64, 64]
000000 c4 61 c8 be 0d b6 03 be 97 91 8b be a8 7a 99 3b
       -0.3913709 -0.12862416 -0.27259514 0.004683811
000010 33 43 cc bd d9 1d 33 bd 4e 8c 06 be 53 40 4c 3c
       -0.09973755 -0.043729637 -0.1313946 0.012466508
000020 f7 f7 c1 bc 2b f6 fb bd c1 d0 2b 3e 87 65 2a be
       -0.02367781 -0.12302812 0.16778852 -0.16640292
000030 52 bd 24 bd a2 e7 2e 3e 51 f0 22 3e 9e fc 11 be
       -0.040219612 0.17080548 0.15911986 -0.14256522
000040 60 c7 04 bd d6 b0 b4 3c 42 9d c3 3d 88 69 c5 3b
       -0.0324167 0.022056978 0.09551479 0.006024543
000050 b7 13 2c 3d 01 67 c6 3c 0c 41 4a be 27 3e 90 3e
       0.04201099 0.024219038 -0.19751376 0.28172418
000060 15 24 88 bd 3f c7 85 3d f2 f0 31 3e 13 6a ab be
       -0.06647507 0.06532144 0.1737707 -0.33479366
000070 b4 25 18 3d d0 4b f2 3e 0c e1 98 be ce 9d 91 bd
       0.03714533 0.47323465 -0.29859197 -0.07110177
000080 9b 48 6f 3d 50 99 4b 3e c3 cd e0 3d 63 c4 9c be
       0.05841885 0.19882703 0.10976746 -0.3061858
000090 46 2d fa 3d 7d 8f 84 be 7c 65 15 bd d8 3c c7 3d
       0.122156665 -0.25890723 -0.036473736 0.09728402
0000a0 6a f0 9f 3d 9b ee 88 be 46 45 2d 3e 5f 1b f8 3d
       0.07809527 -0.26744542 0.16920957 0.121145956
0000b0 ee e2 bd bd e2 7c cc 3e 11 f2 f3 bd 93 e3 2e 3e
       -0.09271799 0.39939028 -0.11911405 0.17079
0000c0 e3 3f 95 3e ad 16 99 3e b8 c2 03 bb 53 bd 84 3e
       0.29150304 0.29900113 -0.0020105075 0.25925693
0000d0 25 dd 4d bd 57 8b 1c 3e 1d c6 8c be f9 5c 43 be
       -0.050259728 0.15287529 -0.27494898 -0.19078435
0000e0 df f3 e2 bd 17 96 ef bd 23 cc 36 be d8 ff 6f bd
       -0.11081671 -0.11698549 -0.1785131 -0.0585936
0000f0 60 12 96 3d f6 32 54 bd de b3 3c b9 96 47 6a bd
       0.073277235 -0.051806413 -0.00017996083 -0.057197176
000100 1b ee ea 3d 4b 02 46 3e 11 6b 14 3e f0 00 6d be
       0.11471196 0.19336812 0.14493968 -0.23144889
000110 0b 5e b2 bb 09 91 84 3e ec f7 d4 bd c6 de aa bc
       -0.0054433397 0.25891903 -0.1039885 -0.02085818
000120 eb aa df 3d c9 e2 6b 3e 9a b3 b2 3e b4 fc bc 3d
       0.10921272 0.2303573 0.3490265 0.09227887
000130 c6 fa 99 3e 15 cf 73 bd 83 6f a8 3e 63 5c 6c 3d
       0.30074137 -0.05952366 0.32897577 0.057705294
000140 e0 e6 a4 bd ae b1 f1 3d 58 ad 80 3e 7c f0 43 3e
       -0.080518484 0.11801468 0.2513225 0.19134706
000150 da e4 11 bc 7b 24 17 3e 8e 9f f4 bd 14 12 ba 3d
       -0.00890466 0.1476001 -0.11944495 0.090854794
000160 0a 56 82 be 5f ad 0b be 83 83 09 3e b0 61 9c be
       -0.25456268 -0.13640355 0.13429074 -0.3054328
000170 d7 fe 9a 3e 84 d6 cc bd 1a a4 a7 bd d8 24 b2 bd
       0.30272552 -0.10001853 -0.08185597 -0.08698434
000180 c2 27 87 3e 6e e4 57 3e 16 58 3c bc 2b 09 52 3d
       0.2639752 0.21083233 -0.011495611 0.051278275
000190 36 47 87 3c 74 28 34 bd 38 ec 8a bd bb 4a 41 be
       0.016513448 -0.04398389 -0.067833364 -0.18876164
0001a0 58 b7 95 3d d7 55 52 3e 84 4e a2 bd 6d 29 01 3f
       0.07310361 0.20540558 -0.07925132 0.50453836
0001b0 08 53 90 be 2c ae 94 be 9c b3 0a 3e 19 06 9c be
       -0.28188348 -0.29039133 0.13545078 -0.30473402
0001c0 db 82 15 3e f1 08 24 be 3e 75 5c be f1 7f ac bd
       0.14600699 -0.16019036 -0.215291 -0.084228404
0001d0 b1 ea 4d 3d 51 d8 81 3e 0b a4 42 be 8c 09 9a bd
       0.050272647 0.2536035 -0.1900789 -0.07521352
0001e0 63 83 32 bd 84 8d 52 bc 41 2b 5d 3e 9a 44 84 be
       -0.04358233 -0.012851123 0.21598531 -0.2583359
0001f0 8d dc 60 bd 4b b1 56 be fd 56 9c bd d1 05 40 3d
       -0.054897834 -0.2096607 -0.07633779 0.046880547
000200 91 aa 59 3d 4a 3c 91 3d 1c e5 8f bc 55 e9 8c bc
       0.05314118 0.07091577 -0.017565303 -0.017201105
000210 fa 58 8d 3c ed 99 23 3e b2 c7 2b 3d 55 5c bd be
       0.017254341 0.15976687 0.04193849 -0.36984506
000220 a8 2c bc bc a5 fa 77 be 02 02 08 3e e2 87 f9 3d
       -0.022970513 -0.24216707 0.13282016 0.12184121
000230 bc 20 91 3e 15 3e c9 bd 9f ad 2a be a7 13 b3 bd
       0.28345287 -0.09826294 -0.16667794 -0.08743983
000240 b9 14 29 bd 89 be 15 3c 66 f3 2f 3e 16 97 96 3d
       -0.04127953 0.009139665 0.17182693 0.07353036
000250 f5 5d 4e 3d eb b5 99 bd b6 7f 35 3e b9 17 a9 3d
       0.050382573 -0.07505401 0.17724499 0.08256478
000260 af 96 a6 3e 3a 76 20 be 1d 26 70 be d2 b2 8c 3e
       0.32536837 -0.156701 -0.23452039 0.2748018
000270 93 d6 3d 3e e1 12 0d be df 16 8f be 2d ab d0 3d
       0.18538885 -0.13776733 -0.27947137 0.10188899
000280 15 7a 83 3e 58 7a 6e be b4 2b ab 3e 56 51 a2 3c
       0.2567908 -0.23288858 0.3343178 0.019814175
000290 7c d0 69 be b1 92 af bd 31 da 47 3e c6 c8 6b 3e
       -0.22833437 -0.08572901 0.19516827 0.23025808
0002a0 29 90 13 3d dd 36 20 bd 21 b9 dd 3d ff 06 88 3d
       0.036026154 -0.03911482 0.10826326 0.066419594
0002b0 b8 b3 be be ce 41 89 3e ff d5 ea bd 9f ed c1 bd
       -0.3724649 0.26808017 -0.11466598 -0.09469151
0002c0 b1 85 1e 3e cd 3e 90 bd ff 7c a0 be 16 6e f9 3d
       0.15480687 -0.07043228 -0.31345364 0.121792
0002d0 0f 85 13 3e e6 44 ce be d7 77 95 3e d9 82 f2 3d
       0.14406227 -0.4028694 0.29192993 0.118413635
0002e0 0a ac b5 bd 6e b1 13 3e f4 57 78 3e 80 3c a6 be
       -0.088707045 0.14423153 0.24252301 -0.32468033
0002f0 6c 55 c2 3d c6 1a 01 bd 57 bf b6 bd ff 63 7e 3e
       0.09488949 -0.031519674 -0.08923214 0.24842833
000300 bb 86 f4 3e 88 d6 72 be b7 25 55 be 53 0a 5c bd
       0.4775904 -0.2371465 -0.20815168 -0.053720783
000310 f5 16 5d be e7 73 9e bd d1 e6 8d 3e 12 af 90 bd
       -0.21590789 -0.0773695 0.2771516 -0.07064642
000320 62 73 c6 3d 41 86 53 bc 00 cd 1c bd bd 0c 0d be
       0.09689976 -0.012910427 -0.03828144 -0.1377439
000330 6a 79 16 3e f7 53 f9 bd 50 e0 f7 bd 73 c7 35 3e
       0.14694753 -0.12174218 -0.12103331 0.17751865
000340 62 59 59 3d 77 17 97 be 93 9e 95 3c 81 35 81 3e
       0.053063758 -0.2951009 0.01826409 0.25236133
000350 2a e5 71 bd c2 67 91 3e 9b c1 b7 bd d7 db 22 3d
       -0.05905644 0.28399473 -0.08972474 0.039760437
000360 46 b7 10 3e 83 f2 6d be b2 78 1f be 9c 90 7e be
       0.14132413 -0.23237042 -0.15573385 -0.24859852
000370 01 14 20 3e 7c ea 0e 3e 9b 77 06 3e d4 db 25 be
       0.15632631 0.13956636 0.13131563 -0.16197139
000380 12 c2 63 3d 75 7b ef bc 71 fb a5 be 66 19 ab bd
       0.055605 -0.029233674 -0.32418397 -0.08354454
000390 ba 36 b9 be 90 47 be bd 76 12 0b bd c9 ec 79 be
       -0.36174566 -0.09290993 -0.033953153 -0.24406733
0003a0 cd 57 c3 3d 2d f1 43 bd fa 10 b7 be 14 11 ad 3e
       0.09538231 -0.047837425 -0.3575514 0.33802092
0003b0 09 c7 23 bd 6a fa 59 3e f6 b6 4a 3c ac 06 7b 3e
       -0.039984737 0.21286932 0.012372723 0.24514264
0003c0 2e cc 5b be d4 cf 3c 3e ee ce 44 3e 94 b3 d6 3d
       -0.21464607 0.18438655 0.19219562 0.104834706
0003d0 a6 16 69 3e 94 13 8a 3c 1c da 54 3e 7c f2 14 be
       0.22762546 0.016855039 0.20786327 -0.14545625
0003e0 b9 1e 80 3e 4a 0f 4f be 54 8b 38 3e b3 03 07 be
       0.2502344 -0.20220676 0.180219 -0.13185005
0003f0 6b ca 67 bd ed 30 4d be de 84 31 ba d8 f0 14 3d
       -0.056589525 -0.20038195 -0.0006771813 0.0363625

critic.2.bias f4 [64]
000000 f6 8a 97 bc 21 61 15 3c 27 17 1d bd 66 7d bd bc
       -0.018498879 0.009117396 -0.038352158 -0.023131084
000010 c1 67 28 ba 8d 6f 09 bd c8 5d a1 3c 04 fe 07 3d
       -0.0006424152 -0.03355365 0.019698039 0.033201233
000020 ec e5 1b 3d c8 dd cc 3c 2f 85 1d 3d 76 f9 b1 3a
       0.038061067 0.025008097 0.038457092 0.0013578373
000030 f4 03 d5 3c d7 57 11 bb a6 3c ab bc 04 f6 d0 3a
       0.026002862 -0.00221776 -0.020902943 0.0015942459
000040 2c 2d b5 bc 3a 0c 06 bd d5 f6 3b 3c ad bc 44 ba
       -0.022116266 -0.032726504 0.011472424 -0.00075049215
000050 5a 3b 81 3c 6b 6e d9 bb 16 d2 37 3d e8 7a 71 bd
       0.015775371 -0.0066354773 0.044878088 -0.058955103
000060 ed 17 ad 3c 08 16 eb bc 1e a8 a4 bc 1c 8f 6c 3d
       0.021129573 -0.028697029 -0.020099696 0.057753667
000070 a4 46 d7 bb 5a 40 8e 3a 12 6f 94 3b b9 e8 d4 bb
       -0.0065697003 0.0010852918 0.004529842 -0.0064974693
000080 66 be 3f 3d 82 28 8c 3c ff 4f e3 3c a9 25 eb bc
       0.046812437 0.01710916 0.027748106 -0.028704481
000090 af a5 1f 3d 66 76 29 3d d1 45 5a 3d f6 7b 9e 3c
       0.038976368 0.04137268 0.05328924 0.019346219
0000a0 ca 96 a4 3c fc e5 5b 3c da 44 3e 3d 17 09 32 3d
       0.020091433 0.013421532 0.04645238 0.0434657
0000b0 a9 da 92 3b 93 f1 44 3d 14 34 97 3d e6 65 69 3c
       0.0044816327 0.048081946 0.0738298 0.014245486
0000c0 87 7d cd 3c 9d 83 7b bd 4b ff 26 bd fb fb 5c 3d
       0.02508427 -0.061404813 -0.04077081 0.053951245
0000d0 2d 2f 1d 3d b2 d9 82 bc a1 62 e5 3b 98 99 56 bd
       0.03837507 -0.015972946 0.007000283 -0.052392572
0000e0 fc f7 b8 3c 1b c6 0f 3d 9c b3 87 bc 63 cc df 3c
       0.022579186 0.035101037 -0.016565137 0.027319139
0000f0 f4 e7 d3 bb 8c 6d 91 bc d8 6e 93 bc 0a 46 88 bc
       -0.00646686 -0.017752431 -0.01799719 -0.01663496

critic.4.weight f4 [1, 64]
000000 e2 80 bc 3d 88 18 82 be 14 6b 2e be 8b e8 cc bd
       0.0920427 -0.2540934 -0.17033035 -0.100052916
000010 37 57 12 be ae 36 35 be be e1 bf be 33 4f 42 3e
       -0.14291082 -0.1769664 -0.37476915 0.18975525
000020 f1 a9 4a 3e 73 f7 52 be aa fb 7c 3e eb 10 aa 3e
       0.1979139 -0.20602207 0.24705377 0.33216032
000030 ab 31 38 3e 93 bf 57 be 6e 26 f4 bd 28 72 91 be
       0.17987697 -0.21069174 -0.119213924 -0.28407407
000040 7a 5e b0 be 24 0e ff 3d 2a 6c 95 be d1 02 34 be
       -0.3444708 0.12453869 -0.29184085 -0.175792
000050 fa 39 75 3e 4d 93 3a 3e 48 2e 49 3e 15 42 8b be
       0.23947898 0.18220253 0.19646561 -0.27198854
000060 18 cb c2 3e 31 6d 2b be 13 09 0a be 35 97 86 3e
       0.38045573 -0.16740872 -0.13480024 0.26287237
000070 f2 22 40 be b5 dd 50 be 1a 58 41 be 7d 3c 9c 3e
       -0.1876333 -0.20397075 -0.18881264 0.305149
000080 bc ae 5d 3e 11 40 1f 3e ab 80 90 3e 04 cb 6d be
       0.21648687 0.15551783 0.28223166 -0.23221976
000090 2d 05 21 3e be 37 fd 3d 8a de 76 3e 17 66 86 3e
       0.1572463 0.123641476 0.2410833 0.26249763
0000a0 10 2a e9 3d d3 df 33 3e c0 aa 3c be 1f 0c 1e 3e
       0.11384976 0.17565851 -0.18424511 0.15434311
0000b0 6f 36 a7 be 40 63 96 3e f7 59 1c 3e 28 23 df 3e
       -0.32658717 0.29372597 0.15268694 0.4358151
0000c0 eb 06 83 3e 01 cc 14 be 07 12 9e be 08 49 96 3e
       0.25591215 -0.14530946 -0.3087313 0.29352593
0000d0 8e 1f 03 3e 0b e5 f3 3d 5b 45 30 be 5c 3d 3b be
       0.12805006 0.11908921 -0.17213957 -0.18285125
0000e0 01 2f 3f be 10 04 40 3e 8e c9 45 3e 33 dd 65 be
       -0.18670274 0.1875155 0.19315168 -0.22447662
0000f0 a9 90 07 3e af 68 4a be f3 52 68 be 05 0b ff bd
       0.13238777 -0.19766496 -0.22687893 -0.12453274

actor_mean.0.weight f4 [64, 43]
000000 1e c6 e4 bc 34 03 97 be f1 6f 86 3d 61 6c 1c be
       -0.0279265 -0.2949463 0.0656432 -0.15275718
000010 51 ae eb 3d d6 fb e5 be 98 3c 56 be c1 2f b2 bd
       0.115078576 -0.44918698 -0.20921552 -0.087005146
000020 49 4e 8a bd e5 c6 ff 3d 2d 8e 13 bd 1e 20 1c 3d
       -0.06753213 0.12489108 -0.03602426 0.038116567
000030 a1 8c fa 3d 2a 01 5a 3e ee 08 6d be a2 e2 b7 3d
       0.12233854 0.21289507 -0.23147938 0.08978774
000040 d4 06 01 bd 0a 50 00 be 61 4e 4b be b4 12 33 be
       -0.031500652 -0.12530532 -0.19854118 -0.17487603
000050 86 69 7f be 48 0c bb bd a2 04 40 be 52 3a 51 bd
       -0.24942598 -0.09133202 -0.18751767 -0.05108101
000060 55 20 6c 3d 97 1b 7e be 8d cd 03 bd 15 30 71 be
       0.05764802 -0.24815212 -0.03217845 -0.23553498
000070 f5 bb f2 3d ab 94 ec 3d 72 e4 38 be 9a 61 47 3d
       0.11852256 0.11551794 -0.18055895 0.048677064
000080 0c 0e 6d bd cc 72 17 3e ab fa c6 3b bc f3 e6 3e
       -0.057874724 0.14789885 0.0060723624 0.4510783
000090 1d 47 b1 be d4 a5 b2 bd 21 b1 85 bc de f4 8b be
       -0.34624568 -0.087230355 -0.016319813 -0.27335256
0000a0 0b e8 4c 3d 55 64 0d bd 29 ad 65 be cb f1 a1 be
       0.05002598 -0.034519512 -0.22429337 -0.31629786
0000b0 b5 7b 39 be 32 4f 23 3e 0f e6 3e bb 12 f9 60 3e
       -0.18113597 0.1594818 -0.0029128825 0.21970013
0000c0 77 31 0c 3e b5 34 a1 3c 31 d5 73 be a7 cf 11 be
       0.13690744 0.019678453 -0.23811795 -0.1423937
0000d0 2d c5 b2 3d d8 c0 ed 3d b8 27 94 3e 16 08 8a 3e
       0.087290145 0.11609048 0.28936553 0.26959294
0000e0 f7 a1 62 bd 3c 6d 71 3d a6 f2 bb 3d 2a 88 95 3e
       -0.055330243 0.058942065 0.09177141 0.29205447
0000f0 ad df b9 3d 3b 5a db bd 19 bb 8b 3d 97 98 93 3d
       0.09075866 -0.107105695 0.068227954 0.072068386
000100 74 06 a6 be fc 0f 0c 3b 3d 41 1b 3d 8c 46 26 3d
       -0.32426798 0.0021371832 0.037904013 0.040594622
000110 13 50 ed 3e 71 01 0b bd 5a 9a 01 3d 49 06 53 be
       0.46350154 -0.03393692 0.03164134 -0.20607866
000120 b8 f8 ea bd 6d 07 52 bd 64 78 53 3d a4 f9 99 be
       -0.114732206 -0.051276613 0.051628485 -0.30073273
000130 1d 05 5a 3e 29 0c c7 bd 52 86 50 be 4e 82 55 bc
       0.21291013 -0.09719116 -0.20363739 -0.013031555
000140 29 b7 16 3e 59 b7 ab 3e 41 d8 8f 3d 45 f1 41 be
       0.14718308 0.3353832 0.07023669 -0.18939693
000150 f7 83 8e be 6b bd 60 3e 78 7a f2 3d e3 10 22 be
       -0.27835056 0.21947257 0.11839765 -0.15826754
000160 a3 6b 82 be a0 47 87 be 50 4b de 3d ee c0 01 bd
       -0.25472745 -0.26421833 0.108542085 -0.031678133
000170 c9 88 69 3d 53 c1 ea 3e d4 20 1a 3e 86 84 10 3c
       0.057015214 0.4585062 0.15051585 0.008820659
000180 fb 5b 8c 3c 06 00 2b be 41 e0 43 be 31 b9 1d be
       0.017133703 -0.16699228 -0.19128515 -0.15402676
000190 21 88 a8 3e e1 d2 1b bd 87 95 6c bd c8 00 96 3d
       0.32916358 -0.038042907 -0.057759788 0.07324368
0001a0 cc 04 3f 3e e7 27 76 bd 43 04 ec 3e 4e e7 92 bd
       0.18654174 -0.060096648 0.46097 -0.07173024
0001b0 2b 40 83 3d cd 9a a8 be 93 df 30 3e fc fe 6f 3e
       0.064087234 -0.32930604 0.17272787 0.23437113
0001c0 30 74 73 be 42 a1 40 3e 82 a0 dc bd 02 48 80 bd
       -0.23774791 0.18811515 -0.10772802 -0.062637344
0001d0 0b 89 a4 3d b6 cc 8d 3c d5 33 31 3c 11 a1 0c 3e
       0.08033951 0.017309528 0.01081558 0.13733317
0001e0 09 43 70 3e f5 c4 cf 3d 54 1d 0e be c5 99 7d 3d
       0.23463072 0.101449884 -0.13878375 0.061914224
0001f0 95 8d 8f be 08 a9 21 3e fd 09 a1 bd 9e dd 36 be
       -0.28037706 0.15787137 -0.07863233 -0.17857978
000200 e8 3f ac 3d ff 11 99 bd 67 45 e2 3c 45 62 e3 bd
       0.08410627 -0.074741356 0.027620984 -0.11102728
000210 79 6f 88 3e fe 94 6e be 77 60 24 be e9 2e cb bc
       0.26647547 -0.23299024 -0.16052423 -0.024802642
000220 de c8 12 bd 24 b7 0e be c8 96 d9 bc dc c8 a4 bd
       -0.035836093 -0.1393705 -0.026561156 -0.080461234
000230 96 41 5b be 21 74 a3 3c 6e d7 3a 3c af 10 8b 3e
       -0.21411738 0.019952836 0.0114039015 0.27161166
000240 0e 1a 01 be b6 4c 6e 3c 00 1e 61 bc b6 6e e4 bd
       -0.12607595 0.0145446565 -0.013740063 -0.11153929
000250 30 bc c4 be 6a c4 46 3e 40 30 a3 be 5f 7d de be
       -0.38424826 0.19410864 -0.3187275 -0.43455026
000260 48 09 f2 3d e4 34 76 3e bf cf c4 bc 9a e8 62 be
       0.118181765 0.24043614 -0.024024842 -0.22159043
000270 25 07 c5 bc 6e d2 87 bc bd da 3d 3d e8 71 46 3e
       -0.024051258 -0.016579833 0.046351183 0.1937939
000280 e7 f4 8c 3e c5 12 2d 3d 61 19 a0 be 2e c8 bc bd
       0.27530596 0.04225423 -0.31269363 -0.09217869
000290 df 12 ef 3d 6d 2e a9 be a8 9d 48 3e 58 e7 5c bd
       0.11673521 -0.33043233 0.19591391 -0.053931564
0002a0 c4 7d 96 3e 8f 04 a5 3e d2 3f cb bd d8 db 3a 3d
       0.29392827 0.3223004 -0.09924282 0.045619816
0002b0 4f f9 32 3e 68 6e aa 3c 75 2d 12 3e 3d 2e 3a be
       0.17477916 0.020804599 0.14275153 -0.18181701
0002c0 a9 c5 c1 bc 0d d5 c2 3e cb af 25 3e 57 88 96 3d
       -0.023653822 0.3805317 0.16180341 0.073502235
0002d0 68 df 48 be ad 42 e6 bc ac e7 f1 bd d4 2b 17 3e
       -0.19616473 -0.028107965 -0.11811766 0.14762813
0002e0 64 ea 82 3e d5 07 b9 3d b3 96 b2 bd f1 df d3 3c
       0.2556945 0.09034697 -0.0872015 0.02586362
0002f0 2e 7b c4 be af 06 28 3e f0 54 43 be 68 9a a3 be
       -0.3837523 0.164088 -0.1907537 -0.3195374
000300 a0 d5 73 be f0 ad 60 bd 5c 13 59 3d 2c a0 a8 bd
       -0.2381196 -0.05485338 0.05299698 -0.08233675
000310 f2 f6 6f 3e c3 f3 33 bd 36 b5 9e 3e fe 32 a6 bd
       0.23434046 -0.04393364 0.30997628 -0.08115195
000320 ca 91 5a bc 09 9e 28 bc 36 65 2e 3e 9d f7 07 3e
       -0.013340423 -0.010291585 0.17030796 0.1327805
000330 59 83 3e bd 23 36 9d bd 1b e2 ef 3c 6a 6f ca 3d
       -0.04651198 -0.076763414 0.02928262 0.09884532
000340 c9 dd ae 3e 82 1b 7e be 8e 37 53 be 68 17 a9 3c
       0.34153584 -0.24815181 -0.20626661 0.020641044
000350 a1 5b 08 bc 12 d2 aa be da 7b 69 be 0b fd ca 3d
       -0.008322627 -0.33363396 -0.22801152 0.09911545
000360 e1 7e 5f 3d 52 a0 b7 bc 8e e6 1e 3d 1e 05 31 be
       0.05456436 -0.022415314 0.038794093 -0.17287108
000370 97 c8 62 3d ec f4 a6 3d 3c 43 c7 bd 24 e5 dd bd
       0.05536708 0.08152184 -0.09729621 -0.10834721
000380 50 ed a7 3e 6e ab 8e 3e 31 85 2d bd 7e 00 26 bc
       0.32798243 0.27865165 -0.04236335 -0.010131953
000390 65 db 87 bd 11 74 1f 3e c7 c5 70 be 44 05 af be
       -0.06633643 0.1557162 -0.23512946 -0.34183705
0003a0 39 2d 88 be e0 8b 91 3d d3 c2 62 3e 9e 5f b7 3d
       -0.26597002 0.07106757 0.22144632 0.089537844
0003b0 2e 6b b7 3d e5 bc b0 3d 19 82 11 3e 55 96 d5 3d
       0.0895599 0.08629779 0.14209785 0.10429064
0003c0 09 fc 8d be 84 9b 26 3e cf 1c 9a 3d ac 29 14 3e
       -0.2773135 0.16270262 0.07525026 0.14469022
0003d0 8c 96 4d be 30 73 03 be a9 e5 27 bd ef 7e 4a bc
       -0.2007696 -0.1283691 -0.040990505 -0.012359365
0003e0 61 e5 00 3c eb d6 2f be 3d 5a 5b 3e 34 95 46 be
       0.007867188 -0.17171828 0.21421142 -0.19392854
0003f0 9a 60 6f be a0 84 3e 3e 62 85 d7 3e ac ca 92 be
       -0.23376694 0.1860528 0.4209395 -0.2867025

actor_mean.0.bias f4 [64]
000000 00 00 00 00 ed 9e 90 bb ca f7 d9 32 44 62 a5 38
       0.0 -0.0044134767 2.5374806e-08 7.8861165e-05
000010 00 00 00 00 b0 e2 ab bb 7d 6a ce 38 e9 0d b4 3b
       0.0 -0.005245529 9.8426804e-05 0.0054948223
000020 00 00 00 00 33 97 71 3b 00 00 00 00 d1 79 74 3b
       0.0 0.0036863803 0.0 0.0037304054
000030 65 39 3a 3a 58 97 3a 38 00 00 00 00 3c 54 26 bb
       0.00071038894 4.4486806e-05 0.0 -0.0025379797
000040 44 b4 59 2f 00 00 00 00 07 c6 0a 3c 9d aa e4 bb
       1.9800078e-10 0.0 0.008470065 -0.0069783465
000050 91 33 b9 b1 a7 4f 6b 3a 00 00 00 00 ed e9 bf 37
       -5.390071e-09 0.00089764077 0.0 2.2877904e-05
000060 ed 1e de bb 00 00 00 00 00 00 00 00 00 00 00 00
       -0.006778589 0.0 0.0 0.0
000070 e1 7b f5 3b 43 b5 a3 b9 e4 fa 21 3a 00 00 00 00
       0.007491574 -0.00031224833 0.0006179048 0.0
000080 bf 64 4a b9 00 00 00 00 00 00 00 00 00 00 00 00
       -0.00019301752 0.0 0.0 0.0
000090 dd a8 df b7 d3 8e 8d b8 e8 8d 09 39 9a 02 11 bc
       -2.6662305e-05 -6.750007e-05 0.00013118202 -0.008850718
0000a0 00 00 00 00 ee 6d 16 ba 31 78 3c ba 00 00 00 00
       0.0 -0.00057384267 -0.0007189541 0.0
0000b0 00 00 00 00 00 00 00 00 00 00 00 00 00 00 00 00
       0.0 0.0 0.0 0.0
0000c0 00 00 00 00 35 74 4f ba f4 dc 38 b9 86 24 04 bb
       0.0 -0.00079137395 -0.00017629919 -0.0020163371
0000d0 8f 33 be b9 a7 c2 46 3b 40 ca b2 ba 9d fc 59 b9
       -0.00036278038 0.0030328424 -0.0013640597 -0.00020788838
0000e0 54 ed ef bb 65 a6 6a 3a 37 f4 a6 3a 00 00 00 00
       -0.007321993 0.00089511863 0.0012737577 0.0
0000f0 9b da aa ba 4b 19 8e b9 00 00 00 00 c5 c6 ea 3b
       -0.001303512 -0.00027103195 0.0 0.0071648085

actor_mean.2.weight f4 [64, 64]
000000 f4 1d 31 3e e0 d5 f6 3c cb bc 9a bd eb 7a b5 3e
       0.17296582 0.03013128 -0.07555541 0.3544534
000010 16 06 82 be d6 c3 f9 3e 7c be 88 bd e1 ee fa 3d
       -0.25395268 0.48782223 -0.06676957 0.12252594
000020 d9 d7 16 3d f2 0c aa be 6a 70 fd bd 3e f1 11 bd
       0.036826942 -0.33213 -0.12374957 -0.035630457
000030 3b cb ec 3b f2 87 f0 3d ba 3c 70 3e c7 05 85 3d
       0.0072263754 0.117446795 0.23460665 0.064952426
000040 5f 31 8f 3e a9 0b e0 3c 94 f9 17 be 34 fd 92 3e
       0.27967355 0.02734931 -0.148413 0.28708804
000050 57 23 15 be 03 ad 5c be 0a 0e 8c 3e 84 3b 39 3e
       -0.14564262 -0.21550374 0.2735446 0.1808911
000060 7e 2b 04 be b7 bb 0e be 1c 8b 8c 3d 4b e2 43 be
       -0.12907216 -0.13938795 0.068624705 -0.19129293
000070 7a 40 66 3c 75 c0 b2 3c 1d 6a da bd d6 68 c3 3d
       0.014053458 0.021820286 -0.10664771 0.0954148
000080 2d 11 6f 3b 49 3f 9c be f0 29 ad 3c f7 78 c4 be
       0.0036478743 -0.30517033 0.021138161 -0.3837354
000090 a9 b8 96 be ba d5 29 3d 03 4d 88 3e 00 31 29 3e
       -0.2943776 0.04146359 0.26621255 0.16522598
0000a0 74 25 08 3e 95 a9 f8 3c fd db 4e 3e 89 73 7f be
       0.13295537 0.0303543 0.20201106 -0.24946417
0000b0 70 05 35 be 07 6a 55 be 18 d7 8f be 54 23 23 be
       -0.17677855 -0.20841227 -0.2809379 -0.15931445
0000c0 cd e4 03 be 4d a4 08 be 49 4a 4d 3c 61 54 ab be
       -0.1288025 -0.13343926 0.012529918 -0.33462813
0000d0 37 b3 b1 3e f4 52 ab bc 64 cf 3c be a4 5f 56 3d
       0.34707043 -0.020913579 -0.18438488 0.052337304
0000e0 fd ee 0a 3e 06 50 95 bd 12 d6 79 bd 92 50 4f bc
       0.1356773 -0.07290654 -0.06099517 -0.012653487
0000f0 4b d4 bf bd d3 bc 53 3d 74 ef 54 3d 26 f1 20 be
       -0.093666635 0.05169375 0.051986173 -0.15716991
000100 50 4e a5 be 85 33 f0 bd 8b cb 3b be 38 e9 9e 3c
       -0.3228631 -0.117285766 -0.18339364 0.019398317
000110 76 7d 9d bd 03 2b d9 bb 56 53 ca 3e ee 16 8b 3e
       -0.076899454 -0.006627442 0.39516705 0.2716593
000120 c0 03 0f be e2 0c 05 be f1 d6 c2 3e 9d b6 b0 3c
       -0.13966274 -0.12993196 0.38054612 0.021571452
000130 42 e2 08 be 50 2d c4 3c cf dd 3a 3b 31 fa bc bd
       -0.1336756 0.023947388 0.0028513556 -0.09227408
000140 23 52 52 bd 41 46 ab be 0c fc 6d be 30 00 a3 3e
       -0.051347863 -0.33452037 -0.2324068 0.3183608
000150 bd 10 85 be f3 d9 99 be 9c f8 5f 3e 7e 6e fb bd
       -0.25989333 -0.30049095 0.2187218 -0.12276934
000160 f1 1c 00 bb 42 4c c7 bc 77 ed be bd 45 9a 5a be
       -0.00195485 -0.024328355 -0.093226366 -0.21347912
000170 36 32 0a 3e 6c 9d d3 bd 78 1b 79 3e 06 9c 18 be
       0.13495716 -0.1033276 0.24326885 -0.14903268
000180 3a ab 9b 3e ca 3e 68 3e f1 31 01 3e fe f5 9f 3c
       0.30404073 0.22680202 0.12616707 0.019526478
000190 f0 5c ca 3d b5 ed 60 3e fb e2 c2 bd 70 2f d5 3d
       0.09881008 0.21965678 -0.09515949 0.104094386
0001a0 0f 41 93 3d be f4 09 be 22 56 f9 bc 70 ca 16 be
       0.07190143 -0.13472268 -0.03043658 -0.14725661
0001b0 56 25 ec 3c 74 45 84 bd 68 55 f3 bd 22 31 94 bd
       0.028826397 -0.0645856 -0.11881524 -0.07235934
0001c0 7d c9 30 3e c1 e4 b0 be 77 d6 51 3e f4 db a1 3d
       0.17264362 -0.34549525 0.20491968 0.07903281
0001d0 92 5a aa bd ea 1e 70 be 3b 97 bf 3d 66 61 21 be
       -0.08318056 -0.23449293 0.09355017 -0.15759811
0001e0 5a e4 0f 3e a4 a2 50 bd 97 8f ad 3a 78 85 fc bd
       0.14051953 -0.050936356 0.0013241646 -0.12330145
0001f0 23 cd de 3e ed e1 e5 3d ff ef 5c 3d e9 60 92 bd
       0.43515882 0.112247325 0.053939816 -0.071473904
000200 3b 1b 2b be 69 13 b4 bd 11 a9 c6 3e 23 68 8c bc
       -0.16709606 -0.08792765 0.38800862 -0.0171395
000210 62 4b ce 3d 49 7c 11 be f9 8e 13 3e a2 fb 05 3e
       0.10072972 -0.14207567 0.14410008 0.13084272
000220 96 c7 05 3e a2 c1 27 be 4f 0c 84 3e 3f a5 a5 bc
       0.13064417 -0.16382459 0.2579064 -0.020220397
000230 59 a1 ba 3d 24 f4 a5 be 92 f6 2c bd 57 ae a5 3e
       0.09112806 -0.32412827 -0.042227335 0.32359573
000240 3d 6f ae be db 1d 05 3e b5 37 17 3d e3 bc e9 bd
       -0.34069243 0.1299967 0.03691836 -0.114129804
000250 bd 05 bb bc c8 57 0f bb 95 d5 a9 bd f0 c3 07 be
       -0.022829885 -0.002187239 -0.08292691 -0.13258338
000260 88 4d 22 be 68 8c aa 3e 73 7d 49 be 91 a0 93 3d
       -0.15849888 0.33310246 -0.19676761 0.0720836
000270 07 21 35 bd 8b be 1c be 91 bd 47 be b3 29 91 bd
       -0.04422095 -0.15307061 -0.19505908 -0.070880316
000280 35 a6 6f 3d 6e 16 43 be 65 00 1f bd ca 2f 00 bd
       0.058508117 -0.19051525 -0.038818736 -0.031295575
000290 26 c0 7c be f4 16 2b bd 2f dd 0e bd fb 12 f2 bd
       -0.24682674 -0.041769937 -0.034878906 -0.118200265
0002a0 42 36 b3 3d 31 b1 97 be cc 8d 62 3e 35 0c 6c 3e
       0.08750583 -0.29627374 0.22124404 0.23051532
0002b0 1e 0d ba be 0f 1f 84 3e f0 e6 b1 bd 2e 23 00 bd
       -0.36338133 0.25804946 -0.08686626 -0.03128355
0002c0 3e 69 e6 3d a2 69 fc bc cd 8c af 3d 22 07 8a be
       0.11250542 -0.030812088 0.085717775 -0.26958567
0002d0 9e 31 63 3e 19 f1 02 be 33 e2 09 3e cc c1 eb 3e
       0.22186896 -0.12787284 0.13465194 0.46046293
0002e0 a9 98 80 be db c1 8a 3d e4 04 42 3e e3 62 ac bd
       -0.2511647 0.06775256 0.18947178 -0.08417299
0002f0 90 1f 7d 3d 66 8b 16 be d9 b9 a3 be 6e be 06 be
       0.06179768 -0.14701614 -0.31977728 -0.1315858
000300 d2 f6 83 3c 5d 27 07 3e 30 8a 1c be bd 7b 20 3e
       0.016108904 0.1319861 -0.1528709 0.15672202
000310 8c 93 0c 3e c5 47 2d 3d 83 55 f0 bc 07 9a 6a be
       0.1372816 0.042304773 -0.02933765 -0.2291032
000320 be be b2 3e ab 41 2b 3c 63 25 2f 3e 4c 26 11 3e
       0.3491115 0.010452668 0.17104106 0.14174765
000330 b7 34 23 3e f0 f0 4a 3d 91 ba c7 3d 74 69 16 3e
       0.15938078 0.049546182 0.097523816 0.14688665
000340 e2 31 0e 3d c1 84 62 bc df 58 23 3e 1d bd 18 3e
       0.03471554 -0.013825596 0.1595187 0.14915891
000350 ec 4e 84 be 11 88 b7 bd 18 5c 31 bf 8d 6d 81 3e
       -0.25841463 -0.089614995 -0.6928115 0.25278893
000360 0e e0 1e 3e 10 3c c7 3d e0 f5 86 be 2b 78 a1 bd
       0.15515158 0.09728253 -0.26359463 -0.07884248
000370 47 8d 87 3d 21 f5 76 3d 75 8b 87 3d 8e 5e 84 be
       0.066187434 0.060292367 0.06618396 -0.2585339
000380 66 31 32 be 14 8a 14 bc 40 63 ce be 8a 41 b0 3e
       -0.17401657 -0.0090661235 -0.40310097 0.34425002
000390 d5 8c 30 be b3 1f 38 be 64 50 25 bd ee 2a cd bd
       -0.17241223 -0.17980842 -0.04035987 -0.10017954
0003a0 8c b8 a1 bd 54 ce b3 bd 5f 50 99 be cc d4 89 3e
       -0.07896528 -0.08779588 -0.2994413 0.26920164
0003b0 86 40 f0 bd 29 d5 02 be e8 4a b4 be d3 2d 32 3e
       -0.11731057 -0.12776627 -0.352134 0.17400293
0003c0 01 b4 15 3e 3b c7 8d bc 6a 6c 4c bd 57 b9 c2 3d
       0.14619447 -0.017306915 -0.04990808 0.09508007
0003d0 4c 84 39 3e 30 da cd bd 7f 74 7a 3d 60 ba c7 3c
       0.18116874 -0.100513816 0.061146256 0.024380863
0003e0 48 5f fb 3d 09 75 74 be d8 b2 61 3e 39 a8 99 3b
       0.12274033 -0.2387277 0.2204088 0.004689243
0003f0 95 7f 81 3b 6e 1c 3e 3e 08 a0 28 be 10 80 ba 3d
       0.0039519765 0.18565533 -0.16467297 0.09106457

actor_mean.2.bias f4 [64]
000000 e7 ad 03 bd 88 4a 24 bd 36 3d bb 3d b1 c9 84 3d
       -0.032148268 -0.04011014 0.091425344 0.06483782
000010 15 2a f0 bc 2b 55 a6 bd df 3e 92 bd e0 17 4d bd
       -0.029316941 -0.08121713 -0.07140898 -0.050071597
000020 e0 6c 3f 3d 13 6a 5f 3d cd 1f 1d bd 3f 70 3e bd
       0.04673469 0.05454452 -0.038360406 -0.046493765
000030 ce f7 e6 3c ac 49 1e bc 0b 21 96 bd 2d 09 63 bd
       0.028194334 -0.009661119 -0.07330521 -0.055428673
000040 bd 76 4a bd 89 47 55 bd f3 73 38 bd 15 63 6e bd
       -0.049429644 -0.052070174 -0.045032453 -0.05819996
000050 c8 75 80 bd 6b aa b0 3c 35 49 81 3d f0 89 7d bd
       -0.06272465 0.021565637 0.06312791 -0.061899126
000060 f2 3e 75 bd 73 ac 04 bd 6b 45 69 3d ad 67 9f bd
       -0.059874482 -0.032391023 0.056950968 -0.077834465
000070 52 37 0e 3d a8 c1 1e 3d c3 e4 6a 3d 07 3d b4 3c
       0.034720726 0.038758904 0.05734707 0.022001756
000080 c7 d6 49 bd 07 95 27 3d c2 1d 78 3d bc e0 90 3d
       -0.049277093 0.040913608 0.060575254 0.07074115
000090 9e 67 b1 3c 72 c3 93 3c 42 54 45 3d 13 eb 81 3c
       0.021655854 0.018037532 0.048176058 0.015859162
0000a0 29 94 8c 3d 79 99 96 3d 47 bc 6d bd 90 cc 9f bd
       0.06864197 0.07353491 -0.058040883 -0.07802689
0000b0 de 22 b0 bd 0d 1f 1e bd c0 53 34 bd 3c 29 a4 bd
       -0.086004004 -0.03860383 -0.044025183 -0.08015677
0000c0 4f 96 5f 3d 24 61 4f bd 5b 47 2c bd 20 57 23 3d
       0.054586705 -0.05062975 -0.042060237 0.03987801
0000d0 82 00 33 3d 66 73 45 3d 71 31 51 bd 03 e4 5b bc
       0.043701656 0.048205756 -0.05107254 -0.013421061
0000e0 9d 6b 59 3d 81 fc b0 bd 9f 53 94 bd 9d b3 6f 3d
       0.053081144 -0.08641911 -0.07242512 0.058520902
0000f0 f2 c2 16 bd 78 59 94 bd 44 f5 4a bd a9 4f a3 bc
       -0.036807008 -0.07243627 -0.04955031 -0.019935446

actor_mean.4.weight f4 [12, 64]
000000 3f 41 f8 bc dd 07 e5 bc b2 ab 13 3d 6b d8 12 3d
       -0.03030455 -0.027957851 0.036052413 0.035850924
000010 d9 59 18 bd ea e8 1d bd 66 1b 1b bd dd 9c 14 bd
       -0.03719506 -0.038552202 -0.037867926 -0.03628241
000020 02 db fe 3c 33 db 22 3d 0e 3f 15 bd 35 6e 12 bd
       0.03111029 0.039759826 -0.036437087 -0.035749633
000030 80 d6 03 3d 44 66 a8 bc 1a 9b 17 bd 3f 55 1c bd
       0.032186985 -0.020556577 -0.03701315 -0.038167235
000040 a6 e6 17 bd 3e f1 15 bd 14 31 16 bd 9c 45 30 bd
       -0.037085198 -0.03660702 -0.0366679 -0.043035135
000050 99 84 12 bd 52 7f 04 3d 6d 7e 12 3d bd d0 0c bd
       -0.035770986 0.032347985 0.0357651 -0.034378756
000060 3e 55 0d bd de 67 1c bd a4 b5 16 3d b1 5e 1e bd
       -0.03450512 -0.038184993 0.03679432 -0.038664524
000070 b4 79 da 3c 1e e0 0f 3d 58 60 1f 3d ff 6a 56 bd
       0.02666936 0.035125844 0.03891024 -0.052348133
000080 23 da e6 bc 5b 33 1b 3d c9 37 24 3d 1e 72 18 3d
       -0.028180188 0.037890773 0.040092263 0.037218206
000090 11 f3 05 3d 3b f9 0b 3d 46 cc 0e 3d 46 0b d3 bc
       0.03270251 0.03417323 0.03486278 -0.025762212
0000a0 66 42 0b 3d 83 1b 18 3d 39 8f 03 bd 48 c1 33 bd
       0.03399887 0.037135612 -0.03211901 -0.0438855
0000b0 46 25 1c bd 23 53 e3 bc d3 25 23 bd 07 f5 0e bd
       -0.038121484 -0.027749604 -0.039830994 -0.034901645
0000c0 0c 1f 14 3d 34 ec 11 bd 0e 33 12 bd 65 01 08 3d
       0.03616242 -0.03562565 -0.03569322 0.033204455
0000d0 06 c9 13 3d 3e bb 09 3d 8e 14 13 bd ff 12 10 bd
       0.036080383 0.033625834 -0.035908274 -0.035174366
0000e0 bd 9c 0b 3d e7 30 07 bd 58 7c 0c bd 23 d8 f8 3c
       0.034085024 -0.03300562 -0.03429827 0.0303765
0000f0 e0 87 f6 bc fe 08 23 bd 6a 83 12 bd a3 59 fb bc
       -0.030094087 -0.039803497 -0.035769857 -0.03068239
000100 4e d1 86 3d b7 db 7d 3d 19 09 88 bd b0 f9 89 bd
       0.065828905 0.061977115 -0.0664236 -0.06737077
000110 1b ad 8e 3d e8 46 9e 3d bc fb 92 3d e0 5f 89 3d
       0.06966611 0.07728368 0.07176921 0.0670774
000120 bf 9e 86 bd e7 e3 98 bd 97 83 8b 3d b6 fe 8e 3d
       -0.06573247 -0.07465344 0.06812208 0.06982176
000130 2e d0 85 bd 7b b3 61 3d db 06 8b 3d 8e 97 77 3d
       -0.06533848 0.055102807 0.06788417 0.06044727
000140 a2 99 89 3d d0 1a 8f 3d b8 2d 98 3d ca 2f 9a 3d
       0.06718756 0.06987536 0.07430595 0.07528646
000150 96 fe 8b 3d 82 5b 90 bd 67 d9 8a bd c4 b6 8e 3d
       0.06835668 -0.07048704 -0.067797475 0.069684535
000160 49 9b 8d 3d 53 36 91 3d df 32 95 bd ad 2e 98 3d
       0.06914384 0.0709044 -0.072850935 0.07430778
000170 ad c3 82 bd 8f d0 72 bd e4 a8 87 bd f7 3c 34 3d
       -0.063849784 -0.05928093 -0.0662401 0.044003453
000180 5c 0a 7c 3d d5 fc 89 bd 88 4b a5 bd 13 15 a3 bd
       0.061533317 -0.06737677 -0.08071047 -0.07963004
000190 9a e7 7e bd 09 55 89 bd aa f5 88 bd be d7 28 3d
       -0.06223259 -0.06705672 -0.06687482 0.041221373
0001a0 cb d2 91 bd d0 a7 93 bd f3 cf 7b 3d 6e 6d 93 3d
       -0.07120284 -0.07209742 0.061477613 0.071986064
0001b0 ec 21 8a 3d 7c 40 6b 3d ff f7 8a 3d 79 f1 88 3d
       0.06744751 0.057434544 0.06785583 0.06686682
0001c0 d5 c8 90 bd 84 00 78 3d d6 cf 8b 3d 47 a7 87 bd
       -0.07069556 0.060547367 0.06826751 -0.066237025
0001d0 93 81 92 bd 5b 1c 8d bd fe 8f 8f 3d 7a a1 8f 3d
       -0.071536206 -0.06890174 0.07009886 0.07013221
0001e0 d2 37 8c bd 09 62 88 3d d1 23 85 3d dd f5 77 bd
       -0.068465844 0.06659324 0.06500972 -0.060537208
0001f0 7c b2 7a 3d ab c7 8e 3d d7 09 90 3d 1f 5b 9b 3d
       0.061205372 0.069716774 0.07033127 0.07585739
000200 d5 6f 21 3d 8d d7 09 3d 8c ed 03 bd 18 39 1c bd
       0.039413292 0.03365283 -0.032208964 -0.038140386
000210 cb 8d 2b 3d bc b3 4c 3d 19 dd 28 3d 96 3f 25 3d
       0.04188327 0.049976096 0.04122648 0.040343843
000220 ed 3c 0b bd 27 28 3c bd 16 d4 2f 3d 89 fc 2c 3d
       -0.03399365 -0.04593673 0.04292687 0.042233024
000230 0c 93 16 bd 2c 16 22 3d 2c b9 1a 3d 7c 93 0f 3d
       -0.03676133 0.039571926 0.03777425 0.03505276
000240 49 15 2e 3d 00 24 1c 3d 6d bb 24 3d 3a 56 29 3d
       0.042500768 0.03812027 0.040217806 0.041341998
000250 02 99 25 3d 14 eb 23 bd 0b 4e 1f bd ad be 30 3d
       0.040429123 -0.04001911 -0.038892787 0.043150593
000260 cf 85 0e 3d ab a6 32 3d 0d 8a 28 bd 7f b9 12 3d
       0.03479558 0.04361598 -0.04114728 0.035821434
000270 a9 6a fd bc e3 28 b7 bc d3 74 0c bd e7 d9 04 3d
       -0.030934649 -0.022358363 -0.0342911 0.03243437
000280 f5 ab 12 3d 03 a2 1f bd f3 67 31 bd a9 56 19 bd
       0.035808522 -0.038972866 -0.043312024 -0.03743616
000290 d8 73 31 bd 7a 59 13 bd 6f d2 23 bd 9b ec 47 3d
       -0.043323368 -0.035974003 -0.039995607 0.04880963
0002a0 c9 54 14 bd 84 5f 2c bd e9 da c1 3c 67 9c 36 3d
       -0.03621367 -0.04208328 0.023663955 0.04458275
0002b0 af 5c 1e 3d a0 3b d0 3c cb de 2f 3d 0f a9 1d 3d
       0.03866261 0.025419056 0.04293708 0.038491305
0002c0 a7 dc 27 bd 99 6b fa 3c 46 bd 2b 3d e0 77 0f bd
       -0.040981915 0.030568885 0.041928552 -0.03502643
0002d0 93 b8 27 bd 8c 00 2b bd 5c 8d 27 3d 7d c0 26 3d
       -0.040947508 -0.04174857 0.040906295 0.040710915
0002e0 4c 4d 13 bd db e3 08 3d cf ee 0e 3d ce ea e6 bc
       -0.035962388 0.033420425 0.034895714 -0.028188135
0002f0 c1 dd eb 3c ff 7c 30 3d c3 92 10 3d 47 af 13 3d
       0.028792264 0.043087956 0.035296213 0.03605583
000300 3e 66 fc 3c 15 42 e4 3c 4a 34 11 bd fb 73 11 bd
       0.030810472 0.027863542 -0.035450257 -0.035511
000310 64 ce 1d 3d 78 0d 43 3d 0a d8 21 3d 99 64 10 3d
       0.038526908 0.047620267 0.03951267 0.035252187
000320 9d 5e 07 bd 8b 79 26 bd f4 54 1f 3d b4 57 1c 3d
       -0.033049215 -0.040643256 0.038899377 0.038169578
000330 79 81 13 bd 33 c6 13 3d df 31 06 3d 94 80 e7 3c
       -0.036012147 0.03607769 0.032762405 0.028259553
000340 78 cb 18 3d 71 42 0e 3d 32 26 1a 3d 61 17 33 3d
       0.037303418 0.034731332 0.037634082 0.043723468
000350 7f 71 15 3d 93 71 15 bd 06 1c 03 bd 26 68 0f 3d
       0.03648519 -0.036485266 -0.032009147 0.035011433
000360 82 10 06 3d 69 e8 1d 3d 35 ce 1b bd b2 ad 17 3d
       0.032730587 0.03855172 -0.03803845 0.037030883
000370 d8 e0 03 bd ff fc c6 bc 55 1b 0f bd 18 c3 10 3d
       -0.03219685 -0.02429056 -0.034938175 0.035342306
000380 32 26 ed 3c ee af 12 bd 26 f6 36 bd 8b 57 2b bd
       0.028948877 -0.03581231 -0.04466834 -0.041831534
000390 2e df 07 bd 2e ed 0e bd b3 91 12 bd 88 67 64 3d
       -0.033171825 -0.03489416 -0.03578348 0.055762798
0003a0 10 dd 10 bd 17 86 16 bd 11 72 ef 3c a4 a6 17 3d
       -0.03536707 -0.03674897 0.029229196 0.037024155
0003b0 ef 62 0d 3d 95 c0 b5 3c d5 5c 2a 3d b2 8e fb 3c
       0.03451818 0.022186557 0.041592438 0.03070769
0003c0 c4 6c 15 bd 8d 0b 09 3d d2 da 17 3d 74 2f 0f bd
       -0.03648068 0.03345828 0.037073918 -0.034957364
0003d0 bc 07 2a bd 84 94 0a bd 04 d1 0b 3d 7a 9e 1a 3d
       -0.041511282 -0.03383304 0.03413488 0.03774879
0003e0 bb 33 25 bd 01 d7 15 3d dd 73 16 3d 39 83 01 bd
       -0.040332537 0.036581997 0.03673159 -0.031619284
0003f0 4f d6 e9 3c 33 a5 22 3d 53 06 0a 3d a5 29 15 3d
       0.028544573 0.039708328 0.033697437 0.03641667

actor_mean.4.bias f4 [12]
000000 9b 2e 0e 3d 2a d5 89 bd ff 84 20 bd 15 ff 0e bd
       0.034712415 -0.06730111 -0.039189335 -0.034911234
000010 08 3e 0f 3d 61 35 dd bc 5c 54 34 bd 2e 4d 04 3d
       0.034971267 -0.027002992 -0.044025764 0.032300167
000020 c6 2f 0d bd 89 ad 23 3d 33 d0 02 bd 1f e6 29 bd
       -0.03446939 0.039960418 -0.031936835 -0.041479226
