qhxCode/Jump/model/jump_model_2024-10-18_17-07-57.pth (torch, 64566 bytes, 12 tensors)

actor_logstd f4 [12]
00000000: 112c 053d b701 343d 2519 48bc b35f 003e
00000010: 815c 24bc fe05 233d d51c a13d 3f58 02bd
00000020: 33a8 ab3d 40ac 403d adc2 5a3d 99dd 0a3b
0.032512728 0.043946948 -0.012213026 0.12536506 -0.01003182 0.039800636 0.078668274 -0.03182244
0.08381691 0.04703927 0.053408314 0.0021189211

critic.0.weight f4 [64, 43]
00000000: 698f a03e 0746 373e 2863 0f3e 28ea 69be
00000010: 43c6 d0be 5b3b 0cbe bef2 383e 8ef0 1fbe
00000020: 21b5 263d b4b2 323e f87b a5bd aa9a e43d
00000030: 304b 78bd adc8 973d ecd6 213e a131 c03e
00000040: b4bf abbd f26a 1f3e 85ce b23e cffb 943d
00000050: e1be bf3b 48d8 0a3e 01d3 013e 9e1f 4d3e
00000060: 3af8 3b3d 1cc3 81bd f8d1 003d 190e 93bd
00000070: ca28 52bd 977e f53c 6281 843e 80db 233e
00000080: c18b 9b3d 305c 11bd 0d0d 933b af2c 943e
00000090: 2f38 41be 47fb 70bd 7234 583d f511 13be
000000a0: 0112 10be f512 92be cdb4 ed3d 61cd 9cbd
000000b0: 6847 fa3b 1176 af3b 0da2 543d 4cd7 603e
000000c0: 4bdf d3bd 7121 c7bb 3017 ef3d d47d 2bbd
000000d0: 2388 373e 1593 5abe 636a 52be 116f eebc
000000e0: 9bdc a2bd a80d 423e 79ef 84bd 6d07 c6bd
000000f0: a1e6 f2be e999 16bd 514a 5fbe 80b0 22be
00000100: b2e3 a33e fb12 c4bd a2ae 803e be23 83bd
00000110: 4dda a53e 2e93 973e 2312 b23c 6096 08be
00000120: 041c 19bd 2282 9f3d 0ab5 aabc 3b7b 9c3e
00000130: 4d9b d1be a301 a0be 9d66 103e c994 953e
00000140: 3755 aabd ea7e af3d b375 05be 6f9e ddbc
00000150: e12b d43d 1dd1 863e d8a0 1f3e 41c9 33be
00000160: cf45 f63d 60d2 143e 3210 d43d f384 e2bc
00000170: 2c2e 4fbe 82f5 8f3b eb0c 6dbd 80b3 b83e
00000180: 3e6f 283e 22a2 32be 50f7 4c3e 72a5 aa3c
00000190: e1a2 1f3e 710d 073e c9dd 9ebe 4084 8a3d
000001a0: 24d8 783d c794 3cbd 3fe5 3c3e 53e6 bc3d
000001b0: 133f 593d bacf f4bc e2c4 f73c fe82 043e
000001c0: a365 5ebe 70d8 e13d d21d 81be 7393 febd
000001d0: abf3 66be ef5b f1bd 04e6 c23e 2a65 a5bc
000001e0: 5ab7 1a3e a8fd 93be b75e 0fbd b281 05be
000001f0: ac51 2dbd b561 233e 9a54 58be fae4 90bd
00000200: f0a0 71be b15b bbbd ab8e 213d 4a56 713e
00000210: 3c80 f33d 0a34 cfbd bd33 2dbe 95a7 afbd
00000220: 3f1d f2bd 6b2d 9e3d 8e21 2abc 7bac b03d
00000230: 2464 043e 89fe 6b3e 44f2 033e 5306 18be
00000240: 000d 043e c420 f33c ccdb 2ebd 6716 3fbe
00000250: 7b27 ae3e 54be f73d c67d 153d b17d c23d
00000260: a8ac 833d 9eb9 3bbc 7e13 bcbd 4e3f 1b3e
00000270: afee a6be 9220 253e dea0 3a3d 731a 423e
00000280: 8518 853d 1cd5 cb3d 5adc ddbd 7eb6 6bbe
00000290: 9665 1ebe 61f3 663e 90e8 a7bd c944 6e3e
000002a0: cbe6 4d3e 6c34 60bd 66f1 da3e a3e4 7f3e
000002b0: 2e6d 9fbc 5dac 0b3d b3a1 d63d 9dfa 483d
000002c0: 3ac7 42be 5ea0 dabe 81ff 603b 28dc 6d3d
000002d0: bbf4 b3be e999 edbd 95cd 0f3e 0af7 2dbe
000002e0: 7263 7fbe 2117 dcbb 8465 d53c bd63 32be
000002f0: d253 833e b5bd 98be 547c 093e e92e 973d
00000300: 9bfa e5bd 7f0c 9c3e 37de 2f3e 1038 07bd
00000310: 7160 cbbe 21df 68be 0121 87bc 343d 873e
00000320: cd4a 0f3e 9fc9 8f3e d430 1d3d 591d 413d
00000330: 3bb5 f4bd 43c3 483e 1eda c33d 51f7 8ebd
00000340: a660 d23d 75d4 b8bd 8ca1 13bd 7964 95bc
00000350: 4269 373e fb5f 063e e22a 1ebe a398 6abd
00000360: afee 15be e3e4 263e 9ade 82bd b120 433e
00000370: 1c9e b93d a13b 603d 8bb2 a23c bd79 a73e
00000380: bbfe 0c3c 3a95 cfbe 350d 2d3e f957 c23e
00000390: bba6 abbd aa04 45bd 6076 9dbc e73d b33e
000003a0: 6ed6 13be 680b fc3d a071 583e d556 ee3c
000003b0: 2af1 e73d 8a2e 843e d620 e3bc 15b7 9bbd
000003c0: f8a8 84be df76 83be 4d06 a6bd 71fe 963b
000003d0: 235b 04be f766 8cbe 7418 abbd 18a9 623e
000003e0: 05fa cd3e 980b 0abe cc41 ccbe 3f98 01be
000003f0: 48d4 e13d 9112 213e dc3b 71be d94f c3bc
0.31359413 0.17897807 0.14002669 -0.2284323 -0.40776262 -0.13694517 0.18061349 -0.15619108
0.04070008 0.17450982 -0.08080286 0.11162312 -0.06061858 0.07411323 0.15804642 0.37537864
-0.08386174 0.1556814 0.34923187 0.07274591 0.005851612 0.13559067 0.12678148 0.20031592
0.045891024 -0.06336042 0.03145024 -0.07180423 -0.05130843 0.02996759 0.2587996 0.16001701
0.07595015 -0.035488307 0.0044876398 0.2894034 -0.18869089 -0.058833387 0.05278439 -0.14362319
-0.14069368 -0.28530088 0.11606751 -0.076563604 0.007637907 0.005354651 0.051912356 0.21957129
-0.10345324 -0.0060769846 0.116743445 -0.041868046 0.17923026 -0.2134517 -0.20548396 -0.029105695
-0.079522334 0.18950522 -0.06490988 -0.09669385 -0.4744158 -0.036767874 -0.21805693 -0.15887642
0.32009655 -0.09573933 0.25133234 -0.06403302 0.32393113 0.29604477 0.021737164 -0.13338614
-0.037380233 0.07788493 -0.02083828 0.30562767 -0.40938798 -0.3125125 0.14101644 0.29215077
-0.08317035 0.08569129 -0.1303318 -0.027053086 0.10359932 0.26331416 0.15588701 -0.17557241
0.12025034 0.14533377 0.103546515 -0.027651286 -0.20232457 0.0043932805 -0.057873648 0.36074448
0.16448686 -0.17444661 0.20016217 0.020830844 0.15589477 0.13188721 -0.31028584 0.06763506
0.060753003 -0.046040323 0.18446825 0.09223618 0.053038668 -0.029884208 0.030245248 0.12940595
-0.21718459 0.1102761 -0.25218064 -0.124304675 -0.2255389 -0.11785113 0.38066113 -0.02018984
0.15109006 -0.28904462 -0.035002436 -0.13037756 -0.042314216 0.15955241 -0.21126023 -0.07074924
-0.23596549 -0.09148348 0.0394427 0.23568073 0.11889693 -0.101173475 -0.16914268 -0.085768856
-0.118219845 0.077235065 -0.010383977 0.08626648 0.12928826 0.23046316 0.12885386 -0.14846162
0.12895584 0.02967871 -0.042690083 -0.1866089 0.34014496 0.12096849 0.0364969 0.0949663
0.06429416 -0.011457829 -0.09183405 0.15160868 -0.32603976 0.16125706 0.04556357 0.18955402
0.06498817 0.09952757 -0.10833044 -0.23018834 -0.1546844 0.22553779 -0.08198655 0.23268427
0.20107572 -0.054737493 0.42762297 0.24989562 -0.01946124 0.034099925 0.104800604 0.04906713
-0.19021311 -0.42700475 0.003433198 0.058071285 -0.35147652 -0.11601622 0.14043267 -0.16988769
-0.24940279 -0.0067166244 0.026049383 -0.1742086 0.25649887 -0.29832235 0.13426334 0.07381994
-0.1122944 0.30478284 0.17174612 -0.03301245 -0.39722016 -0.22741367 -0.01649523 0.26413882
0.13993378 0.28083512 0.038376644 0.04714713 -0.119486295 0.19605736 0.09563087 -0.069807656
0.102723405 -0.09024898 -0.036042735 -0.018236386 0.17911246 0.13122551 -0.15446046 -0.057274472
-0.14641832 0.16298251 -0.06390114 0.1905544 0.0906336 0.054744367 0.019860527 0.32710066
0.008605654 -0.40543538 0.1689957 0.37957743 -0.08381411 -0.04810015 -0.019221485 0.35008165
-0.14437267 0.12306863 0.21137094 0.02909414 0.11325295 0.25816756 -0.027725618 -0.076032795
-0.25910163 -0.2567663 -0.081066705 0.0046079685 -0.12925391 -0.27422306 -0.083542734 0.22134817
0.40229812 -0.13480985 -0.3989395 -0.12655734 0.110268176 0.15729739 -0.23557991 -0.023841785

critic.0.bias f4 [64]
00000000: 14b0 1334 907d 203a 5eff 73b6 0000 0000
00000010: 0000 0000 6b86 abba 0000 0000 0000 0000
00000020: af91 7aba 5869 d33a 97da df39 b684 b6b8
00000030: f2d9 f4b8 19ec 92b9 ef5a 20ba f53f fcb8
00000040: 5385 d3ba a744 1e3b 0000 0000 0000 0000
00000050: 7993 e8b2 f9d8 833a 0e1f 403a 5b6b 5c39
00000060: 7d14 3d3a 0000 0000 45dd 0eb9 c22e 8b3a
00000070: 543f f0ba 0000 0000 abe4 a3ba 10fd 91b9
00000080: 54c4 1438 7478 36ba 38cc a33a 0000 0000
00000090: e8a1 dfb8 0ffd 2eba 0432 74b9 eb9b 7d3a
000000a0: 0000 0000 0000 0000 9b57 deba 406f 5b3b
000000b0: 0000 0000 bb47 c638 07f2 6dba 0308 583b
000000c0: 0000 0000 dd08 b4b7 3d13 a638 d3af 1839
000000d0: 0000 0000 a149 f834 91d6 69ba 0000 0000
000000e0: 0000 0000 0000 0000 ba67 b3ba 8bf9 6d39
000000f0: 0000 0000 3d7f dc3a f4a9 7fb8 0ac8 f7b9
1.3754499e-07 0.0006122226 -3.6358465e-06 0.0 0.0 -0.0013086324 0.0 0.0
-0.0009558452 0.0016129417 0.00042696737 -8.7031556e-05 -0.00011675422 -0.00028023197 -0.0006117066 -0.00012028209
-0.0016137756 0.0024149807 0.0 0.0 -2.7075417e-08 0.001005917 0.0007328846 0.00021020828
0.0007212831 0.0 -0.00013624605 0.0010618793 -0.001832942 0.0 -0.0012504061 -0.000278451
3.5468795e-05 -0.0006960698 0.0012496775 0.0 -0.00010663626 -0.0006675282 -0.00023288286 0.00096744177
0.0 0.0 -0.0016963364 0.0033483058 0.0 9.4547366e-05 -0.00090768974 0.003296376
0.0 -2.14618e-05 7.91908e-05 0.00014561349 0.0 4.6247172e-07 -0.00089202175 0.0
0.0 0.0 -0.0013687529 0.00022695043 0.0 0.0016822588 -6.095502e-05 -0.00047260552

critic.2.weight f4 [64, 64]
00000000: bd2e d7be 29ff 3cbe 4b88 79be 721a fdbc
00000010: 9277 90bd ed90 68bd a2f2 a6bd 396a 3cbd
00000020: 4b43 3ebd d9ae f6bd 1adc 023e 30f3 0cbe
00000030: f488 33bc 183c 3d3e 34a5 1a3e a2c3 e4bd
00000040: b935 1abd 760d 473d 6623 003e f752 033b
00000050: 96c3 1e3d bc1d 18bb 84ec 6dbe 83eb 9f3e
00000060: 03dd b7bd d6d0 8c3d 4fda 2b3e ff87 82be
00000070: a621 623d 928c 003f d78a a5be 4e9c 65bd
00000080: 7e51 dd3c 6c38 4c3e 0e1f ea3d 8291 6abe
00000090: c9c0 1a3e a478 6bbe deb0 7dbc 6528 663d
000000a0: 2a0b bd3c 4e2c 87be b9de 133e 1612 e23d
000000b0: 52bf 9bbd 9478 cf3e 07fd fbbd a67b 3a3e
000000c0: 7f72 863e f0a2 a83e 6af9 fdbc 1404 693e
000000d0: bc20 b3bd 2dad 223e 4147 8fbe d1e1 46be
000000e0: f1be a7bd 868c e8bd 98dc 3bbe 403a 66bd
000000f0: f11b 9d3d 7f6f a9bb 0a9d 043d 3ec0 80bd
00000100: f0d0 c13d 0c57 7d3e 7df9 283e 71cb 2fbe
00000110: 2e51 e63b b1cb a43e 5fda 39be 6728 973d
00000120: 0c78 013e 0097 433e 7c5f 363e 03b5 d83d
00000130: 6d6a a23e 5076 bcbd 93bc b93e e705 623d
00000140: 2156 5fbd 8f18 a53d 586e 833e a815 773e
00000150: 9da4 0d3d ab82 1c3e e58b e9bd 542c a73d
00000160: 54a1 75be cf81 3bbe ed40 313e 89e9 c5be
00000170: 540e 9a3e 70b9 a3bd c160 8dbd 240e 93bd
00000180: 9a42 8b3e 3f9e 763e 95ab 64bd 14cb a13d
00000190: d107 0e3d 5a0f 91bd 3eb9 a8bd fd64 a9bd
000001a0: a08b b5bb 6781 223e 7d31 4abd bd64 be3e
000001b0: 3f8a 78be 9047 abbe 901c 383e 3d10 7abe
000001c0: 69f4 003e 4613 36be 3c93 5bbe 4073 84bd
000001d0: ac01 e1bd cec9 3e3e 8f59 17be b981 e9bc
000001e0: c792 c0bc b7f5 73bd c04a 5d3e c2de 1fbe
000001f0: 5b17 d0bd 3b0c 65be e4cc c6bd 2718 b13d
00000200: 4875 b23b a309 3a3d e1d2 f63c 9d77 26bd
00000210: b18d 833d ce3b fc3d 04bc 0abd a903 75be
00000220: 5992 4bbd 48a4 5ebe dc59 1c3e f7f2 2c3e
00000230: cc43 a93e 28a3 98bd 8f25 44be f321 76bd
00000240: 704c 89bd deba 0e3d ecd2 5e3e 8af3 4b3d
00000250: 8206 d03c b087 d1bd c58d 183e 2967 de3d
00000260: 18b8 983e 22f2 07be e8ab 84be 2aab 403e
00000270: 47ca 593e a377 b8bd d97e 9dbe b489 183e
00000280: f61a 6d3e 4e4b 84be fdb1 b73e e1e5 84bd
00000290: af25 39be 83f8 78bd 37d8 623e 68a8 5b3e
000002a0: b151 bc3d a297 78bc f6bf 853d d57c 883b
000002b0: a531 95be 6ce0 953e 6c69 0fbe 07ef e9bc
000002c0: 3b5d db3d 884f debc 8d3b b7be a730 c93d
000002d0: f1d4 0f3e 9868 c2be d216 893e 737a c13d
000002e0: 69fc 27bd a135 2c3e fb87 493e e2eb 8bbe
000002f0: 165e f33d 354a 74bb 4a2e 83bd b650 653e
00000300: dc8d d43e 4553 68be 4633 15be 43f5 c6bc
00000310: 4662 23be 273e 98bd 0d79 873e 06f1 e0bc
00000320: 6e5c ac3d 45c4 7e39 b538 03bc 312c a8bd
00000330: 6349 513e 8b46 debd d97e 0abe 1bed 503e
00000340: cac0 183d 9bf5 8cbe 8a87 7c3d 55c2 7a3e
00000350: d398 93bd 84e4 863e de1e fdbd caf4 493d
00000360: 1b54 ee3d 249c 60be 9b96 2ebe 8484 68be
00000370: 2912 283e eadc 4e3e 2f55 ec3d d153 e5bd
00000380: fe08 313d 696f 21bd ae31 9fbe 028e 2cbe
00000390: 02ad 99be 482f c6bd ae88 04bd d0f3 25be
000003a0: 02a3 123e 4198 0ebd b18a c0be 08e3 683e
000003b0: f4af 133d edee 673e 7eae 26ba cc5c 9c3e
000003c0: 36df 8dbe 9dec 5b3e 7001 1e3e 9569 d43d
000003d0: 81b5 3c3e 6ea2 563c a46c 463e c748 22be
000003e0: d617 a03e ffb8 41be 2ac5 213e 9ee7 d1bd
000003f0: 8871 32bd 3a5b 2dbe 24f7 80bb 0a3f b23c
-0.42027846 -0.18456711 -0.24368398 -0.0308964 -0.07054056 -0.056778837 -0.08151747 -0.04599974
-0.046450894 -0.12045068 0.12779275 -0.13764644 -0.010957945 0.18479955 0.15102082 -0.111701265
-0.03764889 0.04859682 0.12513503 0.0020038465 0.038760744 -0.0023211082 -0.23234755 0.3123437
-0.089777015 0.0687577 0.16782497 -0.25494382 0.05520787 0.50214493 -0.3233249 -0.056057267
0.027016398 0.19943398 0.114317045 -0.2290707 0.15112604 -0.2299524 -0.015484063 0.056190867
0.023076613 -0.2640099 0.1444043 0.11038606 -0.07604851 0.4052168 -0.123041205 0.1821123
0.2625923 0.3293681 -0.031002719 0.22755462 -0.08746478 0.15886374 -0.2798405 -0.1942208
-0.08190716 -0.11354928 -0.18345869 -0.056207895 0.07671345 -0.005170762 0.032376327 -0.06286667
0.0946368 0.24740237 0.16501422 -0.1716745 0.0070287203 0.32186654 -0.18149708 0.07380753
0.1264345 0.1910057 0.17809862 0.105814 0.3172182 -0.09202254 0.36276683 0.05518141
-0.0545255 0.08061325 0.25670123 0.24129355 0.034580816 0.15284221 -0.11403636 0.08162752
-0.23987323 -0.18311237 0.17309923 -0.38654736 0.30089056 -0.07994354 -0.0690322 -0.071804315
0.2719925 0.24083804 -0.055827696 0.07900062 0.034675423 -0.07083006 -0.08238457 -0.08271215
-0.0055403262 0.15869676 -0.049363602 0.37186232 -0.24271487 -0.33453035 0.17979646 -0.24420257
0.12593235 -0.1778079 -0.21442884 -0.06467295 -0.10986647 0.1863167 -0.14780258 -0.02850424
-0.023507489 -0.059560504 0.21610546 -0.15612319 -0.10160705 -0.22367947 -0.097070485 0.08647185
0.00544611 0.045419347 0.030129852 -0.040641416 0.0642351 0.12316094 -0.033870712 -0.23927177
-0.049700115 -0.21742356 0.15268654 0.16889559 0.33059537 -0.074529946 -0.19154952 -0.06009097
-0.067040324 0.03484618 0.21760148 0.049792804 0.025393728 -0.102309585 0.14897831 0.1085952
0.29827952 -0.1327596 -0.25912404 0.18815294 0.21268569 -0.09007194 -0.3076084 0.1489628
0.23154816 -0.25838703 0.35877982 -0.064891584 -0.18080781 -0.060783874 0.22152792 0.2145096
0.09195269 -0.015172871 0.06530754 0.0041652718 -0.29139438 0.29272783 -0.14005059 -0.02855636
0.10711142 -0.027137533 -0.3578762 0.09823733 0.14046074 -0.37970424 0.26775223 0.094471835
-0.0410122 0.16817333 0.19680779 -0.27328402 0.1188318 -0.0037275676 -0.06405313 0.2239407
0.4151448 -0.22688015 -0.1457034 -0.024286872 -0.15955457 -0.074337296 0.26459542 -0.027458679
0.08416067 0.00024296444 -0.0080091255 -0.08211554 0.20438151 -0.10853299 -0.13524951 0.20402949
0.037293233 -0.27531132 0.061652698 0.24488194 -0.07206883 0.2634622 -0.12359403 0.049305715
0.116371356 -0.21934563 -0.17049639 -0.227068 0.16413178 0.2020146 0.11539685 -0.11197627
0.043221466 -0.03941289 -0.3109259 -0.16851047 -0.30014807 -0.09676987 -0.03235691 -0.16206288
0.14319995 -0.03481317 -0.37605813 0.22742856 0.036056474 0.22649737 -0.0006358399 0.30539548
-0.2770936 0.2147698 0.15430236 0.10371701 0.18428613 0.01310025 0.1937738 -0.15848075
0.31268185 -0.18918227 0.15797868 -0.102492556 -0.043565303 -0.16929331 -0.0039357115 0.021758575

critic.2.bias f4 [64]
00000000: fbc8 76bc 02fa 19bd dc18 6cbc 2997 25bc
00000010: 745c c8bb 0410 31bc 9798 ddbc 42f5 803c
00000020: 7ecb e63c 9d7d 0c3b 87a9 cc3c 04a8 d93c
00000030: a77d c53c 52d1 44bb 1857 19bc 2c83 cfb9
00000040: 4605 fabc 9068 01bc 366c 1d3b 9f0f cfbb
00000050: 7414 813b 7b58 273c 903c 083c 2ed0 efbc
00000060: 5afc 2c3c 1b9e 34bc d456 49bc 14c2 fa3c
00000070: c5c2 70bc fd95 23bc 6df1 1ebc 06ff 353d
00000080: 8b1b 1b3d 16e5 953c 7725 da3c 3093 f6bc
00000090: 5559 dcba 13be a43b e39b e23c 73e3 e83c
000000a0: 0a37 ae3c def1 603b 7723 2dbc c26e 103c
000000b0: 4450 a9ba 8abf ca3c 1e01 663b 4978 633d
000000c0: ef61 603c 607e a5bc 9b20 62bb b586 233d
000000d0: 91d7 3b3c 0b66 603c 812c 09bb 9e07 63bc
000000e0: 1bb2 edbb c36b 9a3c d9fe 1f3a 5756 a3bc
000000f0: 3dc9 aabb 5f62 8ebc 11c6 b0bc e247 e1bb
-0.015062566 -0.03759194 -0.014410224 -0.01010684 -0.006114537 -0.010807041 -0.0270503 0.015741948
0.028173205 0.0021437176 0.02498318 0.026569374 0.024107767 -0.0030031991 -0.009359144 -0.00039579847
-0.030520093 -0.007898465 0.0024020798 -0.006319001 0.003939206 0.0102139665 0.0083152205 -0.029274072
0.010558212 -0.011024023 -0.012288768 0.030610122 -0.014694874 -0.00998449 -0.009701115 0.044432662
0.037868064 0.018297713 0.026629193 -0.030099481 -0.0016811291 0.0050275414 0.027662223 0.028428769
0.021266479 0.0034323852 -0.0105675375 0.008815469 -0.0012917598 0.024749536 0.003509588 0.055534635
0.013695224 -0.020201862 -0.0034504298 0.03992339 0.011464969 0.013696204 -0.0020931067 -0.013856797
-0.007253898 0.018850213 0.0006103344 -0.019938631 -0.0052119778 -0.017380891 -0.02157882 -0.006875024

critic.4.weight f4 [1, 64]
00000000: f36e eabc 3d73 2dbe 55d0 51bd e114 87bc
00000010: 846b 4ebd 40db 67bd c469 8bbe 4819 503d
00000020: 5747 b93d eacd a6bd 1ca6 043e 73e0 423e
00000030: 4029 763d a728 ddbd 57d0 b2bc 264f 22be
00000040: 369b 62be c4e1 0dbc 6ccd 36be cfff 30bd
00000050: e0ea 053e 97e4 b83d 3651 b03d 3dfa 47be
00000060: 9aef 773e 1f4b 8bbd 3372 4ebd 8ba7 3c3e
00000070: 8ddc cbbd 0136 fabd 53b4 78bd 9233 683e
00000080: 417f b83d 5f69 923d b99f 273e 97c3 e1bd
00000090: a6ec 413e 347e 773b 40cc 1c3e 7435 3a3e
000000a0: 13ba 153d dc83 2d3d e3ac 81bd 15fe 473d
000000b0: 7080 6cbe 0e33 5a3e c86e 773d 3d05 b43e
000000c0: 7956 0b3e 1967 88bd 52d8 34be 4863 5d3e
000000d0: 7802 fc3c 5166 073d 2e43 afbd 3105 bfbd
000000e0: 7467 9dbd 6e97 b93d 59eb c93d be01 c7bd
000000f0: 2e2f 933b 3164 99bd 1f34 96bd 863a 27bd
-0.028617358 -0.16938491 -0.05122407 -0.016489448 -0.050395504 -0.056605577 -0.2722913 0.05080536
0.0904681 -0.08144744 0.1295399 0.19030933 0.060097933 -0.107987694 -0.02182786 -0.15850505
-0.22129521 -0.008659784 -0.178518 -0.043212708 0.13077879 0.09027975 0.0860924 -0.19529052
0.24212494 -0.068014376 -0.050401878 0.18423288 -0.09954176 -0.12217332 -0.060718846 0.22675923
0.09008647 0.07149004 0.16369523 -0.11023634 0.1893793 0.0037764432 0.1531229 0.18184453
0.036554407 0.04236208 -0.06331804 0.048826296 -0.2309587 0.21308538 0.060408384 0.35160246
0.13607205 -0.06660289 -0.17660645 0.21619904 0.030762896 0.03305656 -0.085577354 -0.09327162
-0.07685748 0.09062086 0.09859342 -0.09717129 0.0044917082 -0.07489813 -0.0733416 -0.040827297

actor_mean.0.weight f4 [64, 43]
00000000: 468a c0bc 1208 97be 6ba9 4e3d e763 1cbe
00000010: d4c9 f43d 833e e6be 1da1 64be 6a4e b5bd
00000020: b654 a2bd d93a 0c3e fe6f 3abd c4e0 223d
00000030: afef f63d b7f8 4d3e bf99 60be d9a0 a33d
00000040: ab71 f8bc d9e6 0abe fd34 56be 6119 21be
00000050: 531c 80be fce9 dcbd 29d5 51be 257d 8abd
00000060: be7d 6f3d 1370 88be d8bf 40bd 4138 62be
00000070: 6a6e d33d 42f4 053e 609d 4bbe 382f 0a3d
00000080: 50d8 30bd 8e69 073e 543d d73b 5200 df3e
00000090: 103b b9be 1f40 cdbd 6c3b 11bd c992 91be
000000a0: 138a 833d 3d99 42bd e245 79be 673b a2be
000000b0: 9876 39be 1616 293e 600b 3ebb 8567 603e
000000c0: b831 0c3e 9445 c53c fee2 73be 9268 0fbe
000000d0: 77a0 ae3d b33d f03d 503c 943e d30a 8a3e
000000e0: 5efe 58bd 4dce 683d 8193 be3d b996 953e
000000f0: 2d8f bd3d 74c6 d7bd 266f 613d 9f29 993d
00000100: 69d7 9cbe 503e 9838 8c73 643d f622 163d
00000110: fb6a ea3e e356 73bc 1e05 4c3c 86c2 3fbe
00000120: 57c0 d7bd 590d 5dbd bcd4 903d ecce a3be
00000130: 1b3f 6d3e db73 b7bd 4059 3dbe b990 bc3b
00000140: 9589 133e 9b71 a13e 1fbb 653d c9b6 55be
00000150: a51a 90be da31 4c3e b5d6 fb3d 8110 22be
00000160: 72fc 87be e445 87be fec8 e73d db71 04bd
00000170: d91a 3c3d 98af e93e 6458 0f3e e19c 9f3c
00000180: 14a2 013c 57c6 28be 0240 46be 0589 28be
00000190: 2dfd ad3e 65f2 40bd 9ea5 65bd 36e4 823d
000001a0: 9f33 353e 54ef 5abd 15d8 ed3e 7c99 9abd
000001b0: d248 573d ce9c aabe 457a 393e 1284 663e
000001c0: b0c0 76be 23d2 433e 1fbf e3bd 35b0 67bd
000001d0: ede6 8e3d 741f 663c b242 653c 4a41 093e
000001e0: 224c 7b3e a239 c93d f896 11be f0b6 593d
000001f0: c49e 88be 1df2 253e cdbd 9abd 62d6 3fbe
00000200: e8fa c73d b005 99bd 1145 e23c 28df e3bd
00000210: 796f 883e e28c 6ebe 9160 24be 3d73 ccbc
00000220: 18cc 12bd 93e3 0ebe fd35 d8bc dbf8 a4bd
00000230: 0441 5bbe 4473 a33c ad0c 383c 4526 8b3e
00000240: f731 01be 604a 6e3c 4505 63bc 8caa e4bd
00000250: ad89 c4be 6fc4 463e 8240 a3be 1397 debe
00000260: 9a65 f13d f33b 763e ad42 c9bc 5f91 63be
00000270: 1b71 bdbc 0a80 8cbc 7629 423d cf49 463e
00000280: fda1 8c3e 51aa 303d db6a a0be e74e bcbd
00000290: eb40 ee3d bf5b a9be dc16 373e 3c5e 83bd
000002a0: 7c7a 993e 1ec0 a03e 8c4d eebd bf06 113d
000002b0: 2d3c 323e ed87 aa3c 7157 173e ed2d 3abe
000002c0: edab c7bc d8dd c23e a908 2a3e 2903 973d
000002d0: 72cd 45be bb1a 00bd 8d96 edbd e211 173e
000002e0: 0c08 833e 2b2a bf3d af1e b9bd 830a e63c
000002f0: ef8f c4be c499 2a3e eac5 40be d9bd a7be
00000300: 149b 73be 328b 3abd bbe0 6d3d 1977 95bd
00000310: aff7 6f3e aca7 19bd 3a6d a33e 4ccf b8bd
00000320: e0e1 83bb 0e40 eebb f6f0 343e 2d68 113e
00000330: 2ac2 63bd 193b 8abd e21b b73c 4ba2 dd3d
00000340: f8ae b33e 35ba 7abe ed4e 4abe 862c 663c
00000350: 15e6 8cbc 9721 a9be 3993 60be 3796 c93d
00000360: 41a2 5f3d e89b 81bc 15f4 1e3d cabd 31be
00000370: 82dd 623d cbac b13d 5a45 c7bd 0d86 d7bd
00000380: 187e a63e a28e 8f3e 6839 2cbd 461f 25bc
00000390: df81 81bd e581 1c3e e90a 6fbe 7eea aebe
000003a0: 32fe 86be 3135 963d c439 563e e3c5 c23d
000003b0: 645a d73d 6381 be3d 3052 213e d411 cb3d
000003c0: b5f7 8ebe 6ac7 373e 0941 6f3d 0528 253e
000003d0: 6651 41be 1960 f8bd 18bb c6bc 6819 efbc
000003e0: b849 c83c 6401 29be 7b25 6c3e b2bf 35be
000003f0: 1299 73be 42d5 443e dff6 ce3e 447b 93be
-0.023503434 -0.29498345 0.05045454 -0.15272485 0.11952558 -0.44969568 -0.22327085 -0.08852847
-0.079263136 0.13694324 -0.04551696 0.039765134 0.12057435 0.20114408 -0.2193365 0.07989664
-0.030327639 -0.13564624 -0.20918651 -0.15732338 -0.2502161 -0.107868165 -0.2049147 -0.06762151
0.058469526 -0.26648006 -0.047057956 -0.22091772 0.10323794 0.13081458 -0.19884253 0.033736438
-0.04317504 0.1322386 0.00656859 0.43554932 -0.36177874 -0.10021996 -0.03545706 -0.284323
0.0642282 -0.04750942 -0.24343064 -0.31685945 -0.18111646 0.16512331 -0.002899848 0.2191449
0.13690841 0.024081029 -0.2381706 -0.14004734 0.085267 0.11730518 0.28952265 0.26961383
-0.05297696 0.05683737 0.09305478 0.29216555 0.09255824 -0.10535899 0.05503764 0.07478642
-0.30633095 7.2595314e-05 0.055774257 0.036654435 0.45784745 -0.014852258 0.012452392 -0.18726549
-0.10534733 -0.053967807 0.07071826 -0.31993806 0.23168604 -0.089576446 -0.18491077 0.005754557
0.14407952 0.31531987 0.056086656 -0.20870508 -0.28145328 0.19940892 0.122968115 -0.15826608
-0.26559788 -0.2642051 0.11317633 -0.032335144 0.04592404 0.4564178 0.13998562 0.019483985
0.007912178 -0.1648191 -0.19360355 -0.16458519 0.3398222 -0.047106165 -0.056066148 0.06391184
0.17695473 -0.053450897 0.4645392 -0.07548806 0.05255968 -0.33322757 0.18113048 0.22511318
-0.24096942 0.1912313 -0.11120438 -0.05656453 0.06977639 0.014045585 0.013992952 0.13403812
0.24540761 0.09825446 -0.14217746 0.05315298 -0.2668363 0.1620564 -0.07555733 -0.18734124
0.097646534 -0.07471788 0.027620824 -0.11126548 0.26647547 -0.2329593 -0.16052462 -0.024957294
-0.03583917 -0.13954 -0.026392931 -0.08055278 -0.2141152 0.019952424 0.011233491 0.27177635
-0.12616716 0.0145441 -0.013856237 -0.11165342 -0.38386288 0.19410871 -0.31885153 -0.43474635
0.11786957 0.24046306 -0.024567926 -0.22223423 -0.023125222 -0.017150898 0.04740282 0.19364093
0.27467337 0.043131176 -0.31331524 -0.09194737 0.11633476 -0.3307781 0.17879814 -0.06414458
0.2997626 0.31396574 -0.11635885 0.035406824 0.17405768 0.020816768 0.1477945 -0.18181582
-0.024373973 0.38059878 0.16604866 0.073736496 -0.19316652 -0.031275492 -0.11600981 0.14752916
0.25592077 0.09334215 -0.090390556 0.028081184 -0.38391063 0.1666022 -0.18825498 -0.3276203
-0.23789626 -0.045542903 0.058075648 -0.07298107 0.23434328 -0.03751342 0.3191927 -0.09023914
-0.004024729 -0.0072708195 0.17670044 0.14199896 -0.05560509 -0.06749553 0.022352163 0.108219706
0.35094428 -0.24485095 -0.1975667 0.014048701 -0.017199555 -0.3303344 -0.21931161 0.09843104
0.054598097 -0.015821412 0.038806994 -0.17357555 0.055387028 0.08675536 -0.09730025 -0.10523615
0.32518077 0.28038508 -0.042046934 -0.010078257 -0.06323599 0.15283926 -0.23344006 -0.34163278
-0.2636581 0.07334364 0.20920473 0.095104 0.105152875 0.09302022 0.15754008 0.0991551
-0.2792336 0.17947164 0.05841163 0.16128547 -0.18878707 -0.12127704 -0.024259135 -0.02918692
0.024449214 -0.16504437 0.23061173 -0.17748907 -0.2378886 0.19221976 0.40422723 -0.28804982

actor_mean.0.bias f4 [64]
00000000: 7270 66bc 0000 0000 3bb9 35bc ebe1 9fb8
00000010: d455 8b3b 0000 0000 0000 0000 0923 85bb
00000020: 0000 0000 7c4e fa32 336b d93a d40f c4bb
00000030: 4d63 0339 1049 0ebc 22e0 49bc 0000 0000
00000040: 0000 0000 0000 0000 0000 0000 8466 82b9
00000050: ab7d 583b 0000 0000 0000 0000 0000 0000
00000060: c1e3 0f3c 826c c03a 7a00 e0bb 0000 0000
00000070: 7c57 18bb 0000 0000 2b86 3cbc 0000 0000
00000080: 4057 cd3b b6bd 6dbc 0000 0000 0000 0000
00000090: 068f d239 2ae0 0f3c 0000 0000 ef63 ccb9
000000a0: 0da4 af3a ba9f 2b3c 94c0 beba c14b f6bb
000000b0: 6400 27ba 29cc ab3a 0000 0000 0000 0000
000000c0: e1ab 4e3b ffd3 333b 68bd b43c 708d de3b
000000d0: ce2b 893b b1b5 3236 cb49 5dbc 0000 0000
000000e0: cde7 d93a 0cf0 a639 db25 71bc f265 71bc
000000f0: 0000 0000 097b d13b 0000 0000 0000 0000
-0.014064895 0.0 -0.011091526 -7.623791e-05 0.004252175 0.0 0.0 -0.0040630144
0.0 2.9139521e-08 0.0016587734 -0.005983332 0.00012530126 -0.008684412 -0.012321504 0.0
0.0 0.0 0.0 -0.00024871912 0.0033033888 0.0 0.0 0.0
0.008782328 0.0014680775 -0.0068359943 0.0 -0.0023245504 0.0 -0.0115065975 0.0
0.0062665045 -0.014510563 0.0 0.0 0.00040160882 0.008781472 0.0 -0.00038984368
0.0013400331 0.0104750935 -0.0014553242 -0.007516355 -0.00063706026 0.0013107109 0.0 0.0
0.0031535553 0.0027439592 0.022062972 0.006791763 0.00418613 2.6629825e-06 -0.013506363 0.0
0.0016624868 0.00031840836 -0.014718498 -0.014733778 0.0 0.0063928408 0.0 0.0

actor_mean.2.weight f4 [64, 64]
00000000: 68b9 4d3e b603 073e 2ff5 33be 6f78 b23e
00000010: 8a5a 77be 8eea 033f 37cb 4ebe d2f5 e73d
00000020: cbcd 473d 42d5 a0be 6890 e7bd 2179 b2bd
00000030: 6b62 113e 1303 383e 7fd8 383e ee7c 863d
00000040: 9f12 893e 98c2 093e dcab 62be e46e b13e
00000050: e3f1 17bd d432 7cbe 43ef 853e e695 9a3e
00000060: bb11 3bbd 347d 02be 0562 b83d cea4 37be
00000070: 3ab5 9ebd f56a bbbd 746c b6bd aeed aa3d
00000080: 366e 623d b496 4ebe 5d66 033e b459 fbbe
00000090: 3e5b 8bbe 992f 0f3e 536d 063e 43ee 1a3e
000000a0: 3f68 143e 126c 9f3d 4910 383e 3555 74be
000000b0: ec33 91bd 3a27 49be bdf5 95be eae5 16be
000000c0: e383 c6bc 990b f3bd b7a7 d73d 12a8 92be
000000d0: cc67 ae3e 8a34 5bbd 9a5b 45be b76c 60bd
000000e0: ab5e 513e aaf6 aebd 432c dcbd 427d cfbc
000000f0: ab24 99bd 160c a7bc 7cf9 233d de27 34be
00000100: aba2 9bbe f36e 29bb 4c0e 8ebe 2cba 0f3b
00000110: 8f89 73bd c0d8 703d d29f a93e a088 833e
00000120: cd75 fabd d3c5 04be 5a7b cb3e 977e 88bc
00000130: 0e34 84bd 4e72 8c3d 4de5 2fbd ab75 51bd
00000140: d0ba 8cbd ba77 51be 5ea0 9bbe c0f4 be3e
00000150: 87bd 00be 1190 c3be ed2f 4e3e ced3 aa3c
00000160: 8c9f 843d bddd e3bb 9690 94bd 96d1 48be
00000170: 0327 0b3d 8b66 76be ba16 883e b564 2abe
00000180: 3020 b23e 74b1 a53e 7d23 833e 592c e2bd
00000190: fe06 033e 395d a73e 0f9f 22be f1c8 b33d
000001a0: 15f2 b63d 63b1 efbd faa9 003d ce2a 0ebe
000001b0: 841d 1f3e d530 41bd 8073 0bbe a83e 61bd
000001c0: a0f2 973e e6f6 a6be bd76 923e 85ab f13d
000001d0: d150 98bd d086 a1be 2d52 cf3d 2323 93be
000001e0: df94 513e 997b 8cbd 751f 15bd c813 13be
000001f0: ea71 b43e e094 e13d b3cc 153d 2a87 08be
00000200: 287c 74be afb7 36be af75 ee3e 6471 413d
00000210: ad3d 5a3d 8e76 6cbe 4976 6a3e 3046 2c3e
00000220: 2651 ac3d 659b 2ebe f3bf 573e 12bb b6bc
00000230: f8b5 923b f723 adbe 6b1c 5ebd 6e87 6b3e
00000240: a59f 96be a090 133d 3b03 573d 7bc1 e5bd
00000250: 6140 f2bd 0dca bb3d fd2e 15bd ef0a 68be
00000260: 9061 5ebe aabc 923e 6336 8fbe 3f89 d13c
00000270: aef6 893c eaf8 71bd de3c 7dbe b8ad c7bc
00000280: cac5 923d 2be5 89be a7f9 07be 1b5b 803d
00000290: b978 9bbe 1436 ffbd 72be 4c3d 3497 99bd
000002a0: a9dd 273d 162d 89be 2e39 2f3e c93d 193e
000002b0: 591e e9be ec99 583e b451 25bd d14f 9fbd
000002c0: fca1 cc3c 3503 a7bd e12f a63c f9f3 7cbe
000002d0: 6411 073e cb47 01bd 71af 633d 63ed 0d3f
000002e0: e7ef 8fbe 1df9 eb3d 86c3 2f3e 3687 10bd
000002f0: 2943 f03d 34fe d0bd 39ea 8bbe 712f 22bd
00000300: 5161 38bd 72d4 413d bdfd 84bd 619f 603e
00000310: 20a0 b03d 6204 34bd bc3a 303d 84db 3cbe
00000320: f883 993e 40ad 373d 5fd2 ff3d 5278 2f3e
00000330: 8e6e a93d 6a6c 933c 5b54 003e 802b 593d
00000340: 3604 ac3d 6669 dfbd 7d8b 573e 5591 e03d
00000350: 9e78 b5be e38b a93b 9cbe 24bf 93fe 213e
00000360: ec02 ad3d 5682 443d b18b a2be b531 03be
00000370: 6680 133e 7761 1f3e 1a82 1c3c bb47 56be
00000380: c32b 4dbe 79ea dcbd 8d29 ffbe ca07 e13e
00000390: 732c 64be 0efa 86be 9410 033d b83f 4dbd
000003a0: e59a 03be 0732 f0bd 49de 9cbe f69b 6c3e
000003b0: f2a4 58be d2aa 35be 2210 9bbe 6070 ff3d
000003c0: 4424 5b3d e2be 93bd 5f2d 02be 0f42 9e3d
000003d0: 035d 2a3e 8751 7dbb 12de 323d 31f1 f33d
000003e0: f502 a53d ff08 41be 1724 723e f435 3a3d
000003f0: 417c 9b3d 2a82 3a3e b854 ecbd 976c 373e
0.20090258 0.1318501 -0.17573999 0.3485751 -0.24155632 0.5152978 -0.20194708 0.113261834
0.048780244 -0.31412703 -0.1130684 -0.0871451 0.141977 0.17969923 0.18051337 0.06566797
0.2677202 0.13453138 -0.22135872 0.34654915 -0.037095916 -0.24628764 0.26159105 0.30192488
-0.045671206 -0.12743074 0.09003071 -0.17933962 -0.0774941 -0.0915126 -0.089074045 0.08346115
0.055280887 -0.20174676 0.12832017 -0.49091876 -0.2721805 0.13983001 0.13127641 0.15129952
0.14492892 0.07784285 0.17974962 -0.23860629 -0.070899814 -0.1964387 -0.29289046 -0.14736143
-0.02423281 -0.118674465 0.10530036 -0.28643852 0.34063566 -0.053516902 -0.19273224 -0.05479118
0.20446269 -0.08543141 -0.1075063 -0.025328282 -0.07477697 -0.020391505 0.04003285 -0.17593333
-0.30397543 -0.0025853484 -0.27745283 0.0021931035 -0.059457358 0.05880046 0.33129746 0.25690174
-0.122295 -0.12966089 0.39742547 -0.016661925 -0.06455241 0.068577394 -0.042943288 -0.051137608
-0.06871569 -0.20455828 -0.30395788 0.37296104 -0.12572299 -0.3819585 0.2013547 0.02085295
0.06475744 -0.0069539235 -0.0725414 -0.196112 0.03397275 -0.24062555 0.2657984 -0.16639979
0.34790182 0.32361948 0.25613013 -0.11043615 0.12795636 0.3268831 -0.15880989 0.08778561
0.08932892 -0.11703756 0.031412102 -0.13883516 0.15538603 -0.04716571 -0.13618279 -0.054991394
0.29677296 -0.32610244 0.28606215 0.11800293 -0.074372895 -0.31548166 0.10123096 -0.28737745
0.20466946 -0.06859512 -0.036406953 -0.14363015 0.3524316 0.11014724 0.03657217 -0.13332811
-0.23875487 -0.17843507 0.4657416 0.04722728 0.053281475 -0.230921 0.22896685 0.1682365
0.08413915 -0.17051466 0.21069317 -0.022305999 0.004477259 -0.33816501 -0.05422632 0.23000881
-0.29418674 0.036026597 0.052493315 -0.11218544 -0.118286856 0.091693975 -0.036421765 -0.22660421
-0.21716905 0.28659564 -0.2797118 0.02557814 0.016841259 -0.059075274 -0.2473025 -0.024374828
0.071666315 -0.26932654 -0.13278829 0.06267377 -0.30365542 -0.124614865 0.04998631 -0.07499543
0.040982876 -0.2679221 0.17111656 0.14964975 -0.45530966 0.21152467 -0.04036112 -0.07778896
0.024979584 -0.081549086 0.020286502 -0.24702443 0.13190228 -0.031562608 0.055587236 0.5544035
-0.28112718 0.11522124 0.1716443 -0.035285197 0.1173156 -0.102047354 -0.27327135 -0.039596025
-0.045014683 0.047321744 -0.06493709 0.21935798 0.086242914 -0.043949492 0.043024763 -0.18443114
0.29983497 0.04484296 0.12491297 0.17135742 0.0827304 0.017996032 0.12532179 0.05302
0.08399241 -0.10908775 0.21049304 0.1096522 -0.35443586 0.0051741465 -0.64353347 0.15819769
0.08447823 0.04797586 -0.317472 -0.1281193 0.14404449 0.15564524 0.009552503 -0.209258
-0.20036225 -0.107869096 -0.49836388 0.43951255 -0.22282581 -0.26362652 0.031998232 -0.050109595
-0.12852056 -0.11728292 -0.3063834 0.2310637 -0.21156672 -0.17740944 -0.30285746 0.12472606
0.053501382 -0.072141424 -0.1271262 0.077274434 0.16637044 -0.003865333 0.043668814 0.11911238
0.08057205 -0.18851088 0.2364658 0.04546161 0.07592059 0.18213716 -0.11539596 0.17912517

actor_mean.2.bias f4 [64]
00000000: 2870 a5bc b64e babc 34fe 373d 0ff3 7e3c
00000010: 2dbe b9bc 239d 46bd 2a9f 0cbd 7627 a6bc
00000020: 8161 2b3d a07e 113c 9665 0fbd 3e26 b2bc
00000030: 8ab4 d23c d2eb 31bd 409c 03bd 9aa2 14bd
00000040: 2d5a 2fbd 733f 09bd 7bbd 71bc cb43 9abd
00000050: 39a3 48bc ae97 553d 1666 2d3d c8ac 1bbd
00000060: 4c3b 1dbd f385 55bd 2887 053d 68bb 513d
00000070: 8971 a93c a1af 243d 57f1 143d 262b 84bc
00000080: 98ec 04bd 2651 d13c 7d74 5d3d 8146 22bd
00000090: 817d e83c edec d83c 4235 b83c 2769 16bd
000000a0: 84d3 0a3d f645 843c 6db1 14bd 3b43 d5bc
000000b0: fecd 99bc 79ef 8bbc bb99 16bd d2d7 3ebd
000000c0: 8b24 7ab7 9020 13bd 3b15 86bd 0128 043d
000000d0: 8d17 a83c de9b ef3c 0da2 66bd abc7 0cbb
000000e0: 8eea 233d e3d2 adbc 6f82 58bc a026 0d3d
000000f0: 93ea e2bc 5b6b 67bd 067e 7abd 629c 873d
-0.020195082 -0.02274261 0.04492016 0.015560879 -0.02267369 -0.0484897 -0.03433148 -0.020282488
0.041841034 0.008880287 -0.03500899 -0.02174675 0.025720853 -0.043437786 -0.032131433 -0.03628788
-0.042810608 -0.033507776 -0.014754648 -0.07532462 -0.012245947 0.052146606 0.042333685 -0.038006574
-0.038386628 -0.052129697 0.0325996 0.051204115 0.02068402 0.040206555 0.036362972 -0.016133856
-0.032452196 0.02555139 0.05406617 -0.03961802 0.028380157 0.026480163 0.022486333 -0.036721375
0.033893123 0.016146641 -0.03630202 -0.026033035 -0.018774983 -0.017081963 -0.036767703 -0.04659254
-1.49096695e-05 -0.035919726 -0.06547018 0.032264713 0.020519042 0.029249128 -0.056306887 -0.0021481316
0.04001861 -0.021218723 -0.013214692 0.034460664 -0.027699744 -0.056498867 -0.06115534 0.066216245

actor_mean.4.weight f4 [12, 64]
00000000: fbc6 07bd a885 0fbd 521c 203d 82ff f13c
00000010: e33c 0abd abb6 42bd bfba 1bbd 7a91 10bd
00000020: 49d1 1e3d 3c17 363d b3f3 b3bc 16c0 0dbd
00000030: 3d66 103d bf48 21bd cb40 0dbd 5e11 18bd
00000040: 7778 b6bc 5b06 02bd 047d 01bd 4365 2abd
00000050: f4b8 0abd ed8e 513a 35af 153d be3a 08bd
00000060: 71bf 26bd d98a 62bc c17d da3c e7b4 4d3b
00000070: 8311 0b3d 05ac 1e3d bac8 183d b638 09bd
00000080: 3103 0fbd 63d4 d93c 1ba0 513c 4a0b 2abd
00000090: f616 c63c 88ca 9d3c 3248 123d c1cc 16bd
000000a0: e873 153d 36d5 243d d1f3 19bd e5b0 09bd
000000b0: 95d0 2ebd 88b5 13bd a1bf e8bc 5f42 22bd
000000c0: 64a2 f13c b270 1cbd d16d e2bb 7de5 053d
000000d0: 2f51 fd3c b577 eb3c 55e8 7ab9 817f 0bbd
000000e0: da30 133d d5d4 15bd f382 1dbd 7d45 303d
000000f0: 7557 10bd 86f3 19bd cbf5 21bd eff8 483d
00000100: 54a1 25bd bb89 32bd 11ab 323d 0bcc 1a3d
00000110: 0880 2dbd 3be9 1bbd e16c 1cbd 9ac4 2cbd
00000120: 5b57 363d 893e 2c3d 8b9e 25bd 50f9 2bbd
00000130: 6121 373d 7736 2dbd fbeb 26bd 1949 34bd
00000140: 11cf 11bd 65e9 23bd 4945 1fbd 60b1 26bd
00000150: bcca 2bbd e3aa dc39 4710 323d 640a 34bd
00000160: b459 33bd d1bc adbc 228d 163d 204d 48bc
00000170: 93aa 2b3d 5ca8 2a3d 89d2 213d a83c 32bd
00000180: 6173 3ebd 0e27 1b3d c846 723c fa73 30bd
00000190: 5b22 1c3d 72bd 053d 5173 353d 58c2 35bd
000001a0: 1145 323d 816e 353d c36a 3bbd db1a 20bd
000001b0: 1869 30bd 4785 33bd fb3c 2cbd fcde 34bd
000001c0: d768 1d3d c021 3abd c590 ecbb 5bbb 1f3d
000001d0: 8f12 263d 600e 253d 7282 3a3b f0e1 2cbd
000001e0: e01b 363d f50d 2fbd 8769 34bd 7dba 293d
000001f0: a27d 2fbd 5b77 32bd fd1e 26bd ea07 293d
00000200: b0ce 763e 13eb 753e 86d9 77be 91b7 77be
00000210: ec63 763e ff33 793e ffa9 7c3e da34 793e
00000220: 849c 77be 7915 7bbe 3c4e 7d3e fbae 773e
00000230: 7574 75be 34b3 763e 6632 7b3e 68ca 763e
00000240: f723 7f3e 6aa0 793e 6b11 763e d90e 793e
00000250: cdbe 773e 0679 82be e0c2 76be ccbb 783e
00000260: c034 773e 0b4d 813e ead8 7bbe b1b5 84be
00000270: 7f88 76be 179d 79be 2fd1 77be e5ac 783e
00000280: e778 783e 0430 7abe 13b2 85be 8cbd 793e
00000290: 18fd 7abe c9b6 78be e37a 77be fbed 743e
000002a0: 0902 7abe 6a32 78be 17a8 753e 14cd 793e
000002b0: 8688 793e d2de 773e cea2 783e 4ac8 7c3e
000002c0: f27d 77be ac9c 783e dbde 843e 00d4 77be
000002d0: f57b 7bbe 0f03 7bbe cb30 823e 483f 783e
000002e0: f98e 77be e3a1 783e 1beb 773e 5a3b 79be
000002f0: 1e5a 773e 0415 793e 0e6f 783e 7371 7dbe
00000300: 3094 4ebd 4bea 64bd b355 693d 11d9 4e3d
00000310: d2ff 56bd 46f0 73bd c268 5fbd d62d 53bd
00000320: 5da2 703d 3659 6b3d 3495 57bd 930a 51bd
00000330: 83dc 5f3d d903 6abd c317 5ebd bf41 5dbd
00000340: fc51 3cbd 9ae4 56bd 69d0 48bd 8636 75bd
00000350: 8002 52bd 5c74 5a3d c221 733d 4823 63bd
00000360: 4dd5 6cbd 2756 4bbd bd31 4c3d 2344 793d
00000370: 09dc 683d 076e 6b3d 0382 573d cdfd 61bd
00000380: 9989 63bd 7a2d 483d a3db 7b3d c6ac 70bd
00000390: ba40 403d 606a 423d 649f 563d d5b7 5ebd
000003a0: 4606 6c3d 69e8 673d 442b 6fbd cdd5 50bd
000003b0: 9b29 5fbd 2e71 6cbd 3d6d 47bd 0b2a 70bd
000003c0: 749f 453d 398f 61bd b769 51bd 770e 533d
000003d0: 1223 3e3d 0cb7 593d 4419 72bd 9215 5ebd
000003e0: f6e5 683d cc8a 60bd 0959 5abd a0b7 673d
000003f0: a508 6abd 9da7 76bd c78c 6fbd d6a3 6a3d
-0.033148747 -0.035039574 0.03908951 0.029540781 -0.033749472 -0.047537487 -0.03801989 -0.035294987
0.03877381 0.04445575 -0.02196679 -0.034607016 0.035253752 -0.039376017 -0.03448562 -0.037125938
-0.022274239 -0.031744342 -0.031613365 -0.041600477 -0.03386779 0.0007994015 0.036544044 -0.033259146
-0.040709917 -0.013827049 0.026671292 0.0031388344 0.033952247 0.03873827 0.037300803 -0.03350135
-0.034915153 0.026590532 0.01279452 -0.041514672 0.02418087 0.019261613 0.035713382 -0.036816362
0.03648749 0.040242396 -0.037586037 -0.033615965 -0.042679388 -0.036061794 -0.028411688 -0.039614078
0.02949638 -0.038193412 -0.006910064 0.03268956 0.0309225 0.028743604 -0.00023928408 -0.034057144
0.03593526 -0.036579926 -0.03845496 0.04303502 -0.035239656 -0.037585758 -0.039541047 0.049065527
-0.040437058 -0.04358838 0.043620173 0.037792247 -0.04235843 -0.038064223 -0.038189773 -0.04217968
0.044516902 0.042051826 -0.0404344 -0.04198581 0.044709567 -0.04228827 -0.040752392 -0.044015024
-0.035597865 -0.040017504 -0.038884435 -0.0406965 -0.04194139 0.0004208899 0.043472555 -0.04395522
-0.04378672 -0.021208199 0.03675569 -0.012225419 0.04191072 0.041664466 0.039507423 -0.043514878
-0.046496753 0.037879042 0.014787383 -0.043079354 0.0381187 0.032651372 0.044299427 -0.044374794
0.043522898 0.044294838 -0.045756113 -0.03908811 -0.043068975 -0.043828275 -0.042050343 -0.044157967
0.03843006 -0.045442343 -0.0072194063 0.038997035 0.040545043 0.040296912 0.00284591 -0.04220766
0.044460177 -0.04273792 -0.04404595 0.041437615 -0.042844422 -0.043570857 -0.040556896 0.041267313
0.24102283 0.24015455 -0.24204072 -0.24191119 0.24061555 0.24336241 0.24674223 0.24336568
-0.241808 -0.2451991 0.24736875 0.24187844 -0.23970206 0.24091798 0.24530944 0.2410065
0.24916063 0.243776 0.24030082 0.2432207 0.24193878 -0.2548296 -0.24097776 0.24290389
0.24141216 0.25254092 -0.24594465 -0.2591987 -0.24075507 -0.24376331 -0.24200891 0.24284704
0.2426487 -0.24432379 -0.26112422 0.24388713 -0.2451061 -0.24288477 -0.24167971 0.23918907
-0.24414839 -0.24237981 0.23989902 0.24394637 0.24368486 0.24206093 0.24280855 0.24685779
-0.24169138 0.24278516 0.25951275 -0.24201965 -0.24559005 -0.24512886 0.2542785 0.2424289
-0.24175633 0.24280505 0.2421078 -0.24339047 0.2415547 0.24324423 0.24261114 -0.24750309
-0.05043429 -0.0558875 0.056966495 0.05049998 -0.052490063 -0.059555314 -0.054543264 -0.051557384
0.05874859 0.057458125 -0.052632526 -0.051035475 0.054653656 -0.057132576 -0.05422188 -0.05401778
-0.045976624 -0.052464105 -0.04902688 -0.05986645 -0.051271915 0.053333625 0.059358366 -0.05545357
-0.057820607 -0.04964271 0.04985212 0.060855996 0.056850467 0.057477977 0.052614223 -0.055173684
-0.055551145 0.048871495 0.06148876 -0.05875852 0.046936728 0.04746473 0.0523981 -0.054374535
0.05762317 0.056618128 -0.05839087 -0.050985146 -0.054483037 -0.057725124 -0.048688162 -0.058633845
0.04824777 -0.05506823 -0.05112621 0.051527467 0.046420164 0.053153083 -0.059106126 -0.05421979
0.056859933 -0.054819867 -0.053307567 0.056571603 -0.05713715 -0.060218442 -0.058483865 0.057285152

actor_mean.4.bias f4 [12]
00000000: 072c 47bb ebe8 16bd de14 82be 67e7 6c3d
00000010: 5271 aa3b 37ca e3bb cce5 903c bf0a 90be
00000020: 004d 093d 20e0 093c dbc3 dbbc 6675 11bc
-0.0030391233 -0.03684322 -0.25406545 0.05783787 0.005201497 -0.006951596 0.0176877 -0.281332
0.0335207 0.008415252 -0.02682679 -0.008878088
