qhxCode/Jump/model/jump_model_2024-10-18_14-53-50.pth (torch, 64566 bytes, 12 tensors)

actor_logstd f4 [12]
00000000: 4b96 5c3b 61de 60bc 374d f7bd 4134 c3be
00000010: 22a2 923b ab07 1a3c 33db 8fbc 90f5 f8bd
00000020: fc16 c5be 9944 523c bf61 08bd 3e73 23bd
0.0033658918 -0.013724894 -0.120752744 -0.38125804 0.004474894 0.009401242 -0.017560577 -0.12156212
-0.38494098 0.012833738 -0.033296343 -0.039904825

critic.0.weight f4 [64, 43]
00000000: 698f a03e 0746 373e b7cd 183e 4686 60be
00000010: 43c6 d0be 5b3b 0cbe b7f2 383e 8ef0 1fbe
00000020: 13b5 263d b6b2 323e fb7b a5bd aa9a e43d
00000030: 304b 78bd a5c8 973d eed6 213e a131 c03e
00000040: b4bf abbd f26a 1f3e 85ce b23e 6afc 943d
00000050: 78bf bf3b e2d5 0a3e f6d2 013e 7f1d 4d3e
00000060: 5bf8 3b3d 6dc3 81bd b4a9 003d eff1 92bd
00000070: 2c42 52bd f87e f53c 5881 843e 98d1 233e
00000080: 97a7 9b3d b875 11bd c117 933b cb29 943e
00000090: f43d 41be 6afc 70bd fe63 583d 3d2f 13be
000000a0: 65f8 0fbe 1613 92be 96cc ed3d 9cbf 9cbd
000000b0: 4fa4 f93b 8c67 b5bb fbde 2b3d f3d8 603e
000000c0: 80eb d3bd ab30 dbbb 71fc ee3d 8948 2cbd
000000d0: 28ce 373e 1cc6 5abe 3487 52be 64e0 eebc
000000e0: 625c a3bd 1e75 423e bf87 85bd a828 c6bd
000000f0: 10fb f2be d5ec 16bd 3def 5cbe 7152 27be
00000100: e66b a03e 5067 d3bd 1a00 7c3e 1730 86bd
00000110: 75c7 a13e 0756 943e 6b04 e83c 30de 0fbe
00000120: 84ca 3dbd c551 913d b0e7 e0bc a50f a03e
00000130: 4b8f d5be b2cf a8be fa5a 093e 325b 923e
00000140: 0b47 8ebd 8df2 993d 9deb 0bbe 4b27 acbc
00000150: 093a f03d 006e 813e c7a0 1f3e 41c9 33be
00000160: a719 073e 27b8 203e 0d10 d43d e784 e2bc
00000170: 3d2d 4fbe 7ef6 8f3b f00a 6dbd 3fb3 b83e
00000180: 846f 283e 26a2 32be 54f7 4c3e 58a9 aa3c
00000190: 5da2 1f3e b60d 073e ccdd 9ebe ee84 8a3d
000001a0: 8cd9 783d 63b5 3cbd c4e4 3c3e da5f bd3d
000001b0: c545 593d 321f f3bc 5bbd f73c 6587 043e
000001c0: 1b8a 5dbe 429a df3d d6d3 80be 0e96 febd
000001d0: 9af0 66be 54aa efbd ba57 c23e f6be a0bc
000001e0: 96ae 1a3e 1eb9 93be 593e 0dbd 247a 05be
000001f0: 193f 31bd 1540 253e 280c 5abe dfd5 90bd
00000200: 459c 72be b15b bbbd ab8e 213d a026 7c3e
00000210: aa78 043e 0a34 cfbd bd33 2dbe 95a7 afbd
00000220: 3f1d f2bd 6b2d 9e3d 8e21 2abc 7bac b03d
00000230: 2464 043e 89fe 6b3e 44f2 033e 5306 18be
00000240: 000d 043e c420 f33c ccdb 2ebd 6716 3fbe
00000250: 7b27 ae3e 54be f73d c67d 153d b17d c23d
00000260: a8ac 833d 9eb9 3bbc 7e13 bcbd 4e3f 1b3e
00000270: afee a6be 9220 253e dea0 3a3d 731a 423e
00000280: 8518 853d 1cd5 cb3d 5adc ddbd 7eb6 6bbe
00000290: 9665 1ebe 61f3 663e 90e8 a7bd c944 6e3e
000002a0: cbe6 4d3e 6c34 60bd 66f1 da3e a3e4 7f3e
000002b0: 2e6d 9fbc 5dac 0b3d 8735 ec3d ab15 743d
000002c0: 3ac7 42be 5ea0 dabe 81ff 603b 28dc 6d3d
000002d0: bbf4 b3be e999 edbd 95cd 0f3e 0af7 2dbe
000002e0: 7263 7fbe 2117 dcbb 8465 d53c bd63 32be
000002f0: d253 833e b5bd 98be 547c 093e e92e 973d
00000300: 9bfa e5bd 7f0c 9c3e 37de 2f3e 1038 07bd
00000310: 7160 cbbe 21df 68be 0121 87bc 343d 873e
00000320: cd4a 0f3e 9fc9 8f3e d430 1d3d 591d 413d
00000330: 3bb5 f4bd 43c3 483e 1eda c33d 51f7 8ebd
00000340: a660 d23d 75d4 b8bd 8ca1 13bd 7964 95bc
00000350: 4269 373e fb5f 063e e22a 1ebe ac0e 6bbd
00000360: bcee 15be 9634 303e a717 69bd 1503 433e
00000370: e8a1 b93d 8493 653d c2e8 a23c 58d5 a73e
00000380: a291 003c 1a5f cfbe 9204 2d3e ca5b c23e
00000390: 7b3c aabd f813 48bd 3304 9abc 963c b33e
000003a0: 0653 13be f310 fd3d b97b 503e 1590 ed3c
000003b0: fb25 063e aa76 853e 84b1 2fbc ad1b 9cbd
000003c0: 6db8 82be a716 71be e02c d3bd 9bb8 cd3c
000003d0: bbec 08be d4f4 89be 8cdb 7ebd f221 4c3e
000003e0: 9a86 d83e f9c5 0cbe 53c3 c1be be7e d9bd
000003f0: 6051 fd3d dfbc 3a3e 8283 83be cfa6 3fbd
0.31359413 0.17897807 0.14922224 -0.21926221 -0.40776262 -0.13694517 0.18061338 -0.15619108
0.04070003 0.17450985 -0.08080288 0.11162312 -0.06061858 0.07411317 0.15804645 0.37537864
-0.08386174 0.1556814 0.34923187 0.07274707 0.0058516823 0.13558152 0.12678131 0.20030783
0.045891147 -0.06336103 0.03141184 -0.071750514 -0.051332638 0.02996777 0.2587993 0.15997922
0.076003246 -0.035512656 0.0044889157 0.28938136 -0.1887129 -0.05883447 0.052829735 -0.14373489
-0.14059599 -0.28530186 0.11611287 -0.07653734 0.007618464 -0.0055360254 0.041960698 0.2195776
-0.103476524 -0.0066891513 0.11669243 -0.042061362 0.17949736 -0.21364635 -0.20559388 -0.029159732
-0.07976605 0.18989989 -0.06520032 -0.09675723 -0.4745717 -0.036846954 -0.21575637 -0.16340043
0.3133232 -0.1032244 0.24609414 -0.06552141 0.31597486 0.28971884 0.02832242 -0.14049602
-0.046335712 0.070956744 -0.027454227 0.31261936 -0.41710886 -0.3297096 0.13413611 0.28585202
-0.06947144 0.07516966 -0.13664098 -0.02101483 0.11729819 0.25279236 0.15588675 -0.17557241
0.1319338 0.15695249 0.10354624 -0.027651263 -0.20232101 0.004393398 -0.05787176 0.36074254
0.1644879 -0.17444667 0.20016223 0.020832703 0.1558928 0.13188824 -0.31028593 0.067636356
0.060754344 -0.04607142 0.18446642 0.09246798 0.053045053 -0.029677961 0.030241659 0.12942274
-0.21634714 0.10918094 -0.25161618 -0.124309644 -0.2255272 -0.117024094 0.37957555 -0.019622307
0.15105662 -0.2885217 -0.034483287 -0.13034874 -0.043273065 0.16137727 -0.212937 -0.07072043
-0.23692425 -0.09148348 0.0394427 0.2462411 0.12936655 -0.101173475 -0.16914268 -0.085768856
-0.118219845 0.077235065 -0.010383977 0.08626648 0.12928826 0.23046316 0.12885386 -0.14846162
0.12895584 0.02967871 -0.042690083 -0.1866089 0.34014496 0.12096849 0.0364969 0.0949663
0.06429416 -0.011457829 -0.09183405 0.15160868 -0.32603976 0.16125706 0.04556357 0.18955402
0.06498817 0.09952757 -0.10833044 -0.23018834 -0.1546844 0.22553779 -0.08198655 0.23268427
0.20107572 -0.054737493 0.42762297 0.24989562 -0.01946124 0.034099925 0.11533647 0.059590977
-0.19021311 -0.42700475 0.003433198 0.058071285 -0.35147652 -0.11601622 0.14043267 -0.16988769
-0.24940279 -0.0067166244 0.026049383 -0.1742086 0.25649887 -0.29832235 0.13426334 0.07381994
-0.1122944 0.30478284 0.17174612 -0.03301245 -0.39722016 -0.22741367 -0.01649523 0.26413882
0.13993378 0.28083512 0.038376644 0.04714713 -0.119486295 0.19605736 0.09563087 -0.069807656
0.102723405 -0.09024898 -0.036042735 -0.018236386 0.17911246 0.13122551 -0.15446046 -0.05738704
-0.14641851 0.1720756 -0.056907322 0.19044144 0.09064084 0.056048885 0.019886378 0.32779956
0.007847222 -0.40502244 0.16896275 0.37960654 -0.08312317 -0.04884717 -0.01880083 0.3500716
-0.1438714 0.123567484 0.20359696 0.028999368 0.13100426 0.26067096 -0.010723475 -0.07622466
-0.2553133 -0.23543797 -0.103112936 0.02511244 -0.13371556 -0.26944602 -0.062221095 0.19934824
0.42290193 -0.13747396 -0.37844333 -0.10619877 0.12369037 0.18236111 -0.2568627 -0.04678994

critic.0.bias f4 [64]
00000000: 7040 163c e70f 23bc e35d 3e3c a78b 2b3c
00000010: d56b 2c3c bc29 e53b 4b25 523c f609 eabb
00000020: e0d4 2dbc 5c70 2cbc 0456 143c 4e43 09bc
00000030: e2fd 12bc 64fe f1bb c98d 56bc 4caf 0a3c
00000040: 7f24 353c 5176 2c3c ddcf 2b3c c887 1bbc
00000050: 2805 08bc 0fe3 383c a2ff 18bc 5b5c e2bb
00000060: 64af 333c dd59 153c cd3a 30bc 39ea 0d3c
00000070: 467e 1abc 9db5 4b3c 2e77 14bc 45ba 19bc
00000080: 8ee6 143c 927c 0f3c 6c2e 1e3c 8c7b 0f3c
00000090: 65cb 333c ceae 2b3c 01d4 51bc e6dc 30bc
000000a0: e873 d1bb 654b 273c 8786 4fbc adc9 203c
000000b0: 301a 1f3c 13c3 58bc f270 513c 78f4 273c
000000c0: d1b1 3bbc 145f 0b3c ac6a 0fbc 261e 2dbc
000000d0: 8c5d 39bc df68 103c 0911 eebb 2cd9 0abc
000000e0: 712c 9e3b 7c09 3f3c e7dc 273c 2c46 2c3c
000000f0: 74a7 1b3c e0ab 273c e3fe 1dbb 7e50 dfbb
0.009170637 -0.009952522 0.011619064 0.010470307 0.010523756 0.0069935005 0.012826274 -0.0071423007
-0.010609835 -0.010524835 0.009053711 -0.008377863 -0.008971663 -0.007385062 -0.013095328 0.008464646
0.011056065 0.010526256 0.01048657 -0.009492822 -0.008302011 0.011284604 -0.009338291 -0.0069079823
0.010967109 0.009115663 -0.010756207 0.0086618 -0.00942952 0.012433437 -0.009061618 -0.009382789
0.009088172 0.008757727 0.0096546225 0.008757483 0.010973786 0.010478688 -0.012806893 -0.010794854
-0.006391991 0.010210847 -0.012666351 0.009813708 0.009710833 -0.013230103 0.012783276 0.010251157
-0.011455969 0.008506555 -0.00875346 -0.01056627 -0.011313807 0.008814066 -0.0072652143 -0.008474629
0.004827075 0.011659976 0.010245538 0.010514777 0.009500373 0.010233849 -0.0024108223 -0.0068150153

critic.2.weight f4 [64, 64]
00000000: ea8e cfbe 6c2b 20be e031 87be 77d7 e6bc
00000010: d0eb b8bd c23a 8fbd a136 a3bd 3028 79bd
00000020: c4f3 09bd c6f0 c4bd 2173 163e ee47 20be
00000030: c843 5fbc 5bb4 383e 4726 193e 191d f4bd
00000040: d7ff 6abd 40df 1e3d fca9 df3d ca91 a4bc
00000050: a80c 883c 4caa 74bb c413 63be e234 963e
00000060: 0e6d bebd 72b4 ba3d 977f 273e 6ab4 7cbe
00000070: 51c5 443d 63ae f63e 4cf4 a6be 6bd2 80bd
00000080: 7323 403d 9b56 413e 4c79 0a3e a7c5 6dbe
00000090: 6277 053e 95d0 7cbe ab23 2fbc 4abb 993d
000000a0: bdc7 e53c 2826 84be 3a8d 233e ace6 e73d
000000b0: bb85 a4bd 0a3c da3e 2a07 15be 8576 323e
000000c0: 7513 8f3e 7fa9 a63e 817e e8bc 6b84 7b3e
000000d0: a3b8 94bd e8a2 393e c0d6 9abe 7d64 5fbe
000000e0: 2103 b1bd 5be2 d9bd 9173 51be bb53 9dbd
000000f0: 09cb c73d b6ff 2cbd 49e1 e33c e9ab acbd
00000100: ef10 db3d 730e 7e3e 7c8a 183e 493a 33be
00000110: 8b6c 12bc caa4 973e 97c5 3abe 7dc1 7b3d
00000120: be21 063e b56d 6c3e 2945 463e 1717 b93d
00000130: 551b a43e d715 a0bd bb31 b23e bd0e 693d
00000140: e65f a5bd cb35 d33d e290 773e 41a0 473e
00000150: 8186 41bc 2dfa 183e dcf9 f1bd 4032 893d
00000160: 6496 82be a7e5 0bbe 01b9 1c3e 3cfd c4be
00000170: d9fd 923e 729a c4bd cf15 a7bd 7a6f b2bd
00000180: 5738 933e 11d0 6a3e 1bd8 42bc d402 a83d
00000190: ee44 983c 4b82 b1bd 7d0a a2bd ae1a 89bd
000001a0: 5296 00bc c90a 3f3e 3b10 1dbd 224b c63e
000001b0: dbe8 75be 8a64 94be cbbc 083e deb7 78be
000001c0: 6cb2 103e 7a38 33be 5c4f 5ebe 40be 48bd
000001d0: 5acd c3bd 505a 6e3e 6e13 43be 33d3 9abd
000001e0: 0dd2 abbc 0f54 01bd ecb5 563e 19f4 32be
000001f0: 4f0f 65bd 63f7 69be 1966 c1bd 33c8 3e3d
00000200: f4ad 32bb f24c 023d 71ed 093d 07be 80bd
00000210: 4b67 8b3d ad1b d03d 8ece 8ebd 6b9a 6cbe
00000220: cb2f 52bd 5a5a 47be 0e18 183e dc52 313e
00000230: 42a3 b43e 30ab 8dbd c51c 48be 2b8f 29bd
00000240: 5eb6 b3bd 4506 353d 1a65 653e e7cd df3c
00000250: e2fe 3b3b c445 fabd 67fe 063e b988 e53d
00000260: 895c 8e3e f76b e1bd b50c 87be 78a1 223e
00000270: b184 5d3e 1033 b1bd 3647 a7be f995 1c3e
00000280: 4a84 693e fa44 86be eee8 c23e 4034 30bd
00000290: 40b0 35be 230f 72bd 4f54 753e 2c17 593e
000002a0: 15ed 913d a7af 27bc 54f9 833d 2a19 c2b9
000002b0: 7c5e 8abe 7593 a13e e11a 26be b974 d6bc
000002c0: dfe4 cf3d 3c0b c2bb 442a c2be 16c3 bf3d
000002d0: 4c1d 083e f1bb b6be af26 7a3e 9a10 913d
000002e0: efc0 a3bc a6d3 313e 645e 333e 35d7 87be
000002f0: 29bc 0f3e 66df 26bb 1809 32bd 71d0 4d3e
00000300: 43fd d43e 5fda 59be 5d57 0fbe d57d 58bc
00000310: 4e00 1fbe e4ac 97bd 3de4 8e3e 1330 e8bc
00000320: 8b2a 933d 543f 473b 0bcb 55bc c446 9fbd
00000330: e98e 453e d950 b7bd 5658 1bbe 7e5f 4a3e
00000340: 92f8 0a3d 74ce 8abe 69f0 7b3d 71b5 753e
00000350: 0188 9dbd 0d07 8e3e 6f02 dfbd 2ff4 553d
00000360: dc24 ff3d 8612 5cbe 225a 3ebe 306f 61be
00000370: 7907 383e 54a7 543e 73c2 f33d 67df c9bd
00000380: d3c5 263d ab0d 77bd 5bbc 9cbe da2f 37be
00000390: 6827 96be 02c4 bcbd 6f84 0dbd 60df 1ebe
000003a0: 12b5 193e c5e0 79bc a469 c6be 38d8 5b3e
000003b0: 46c4 e53c 2e63 6a3e 8bcf 9dbb ef49 a43e
000003c0: 7b23 8ebe b845 513e c203 283e 541a d23d
000003d0: 0078 3d3e 3398 8c3c 349d 463e 7f76 23be
000003e0: 1d39 9c3e 8f0e 31be ee7c 173e f018 d7bd
000003f0: 518b 17bd b899 2cbe 2ab4 57bc d41d b03c
-0.40538722 -0.15641564 -0.2640524 -0.028178914 -0.09029353 -0.06993629 -0.07969404 -0.06082934
-0.03367974 -0.096162364 0.14692356 -0.15652439 -0.013627 0.1803755 0.14956008 -0.119196124
-0.057372894 0.038787127 0.10921094 -0.020089049 0.016607597 -0.003733295 -0.22175509 0.2933722
-0.09298144 0.091164485 0.16357265 -0.24678198 0.048039738 0.48179922 -0.3260826 -0.06290134
0.046908807 0.18880694 0.13522834 -0.2321993 0.13033822 -0.24688943 -0.010689656 0.07506426
0.028049344 -0.2581036 0.15971842 0.11323294 -0.080333196 0.4262393 -0.14553514 0.17428024
0.27944532 0.3255119 -0.028380634 0.24562232 -0.07261779 0.1812855 -0.30241966 -0.21815677
-0.08643175 -0.10638877 -0.20454241 -0.07681986 0.09755523 -0.042236052 0.027817385 -0.08431227
0.10696589 0.248102 0.14896578 -0.17502703 -0.0089370115 0.29617912 -0.18239437 0.06146382
0.13098809 0.23088725 0.1936232 0.09037607 0.32052103 -0.078166656 0.34803566 0.05689882
-0.08074932 0.103129946 0.24176362 0.19494726 -0.011811853 0.14939184 -0.11815235 0.066990376
-0.25505364 -0.13661824 0.15304948 -0.38474452 0.28709295 -0.095997706 -0.081584565 -0.08712669
0.2875392 0.22930934 -0.011892344 0.082036644 0.018587556 -0.086674295 -0.07912157 -0.06694542
-0.007848339 0.18656458 -0.038345557 0.38729197 -0.24014609 -0.28982955 0.13353269 -0.2428889
0.14130563 -0.17502013 -0.2170996 -0.04900956 -0.09560652 0.23276639 -0.1905038 -0.07559814
-0.020974183 -0.031574305 0.20967835 -0.17475928 -0.055922803 -0.22848277 -0.09443302 0.046577644
-0.0027264329 0.031811662 0.033673707 -0.06286245 0.06806811 0.10161529 -0.06972991 -0.23105781
-0.05131511 -0.1946806 0.14852926 0.17316765 0.35280806 -0.06917417 -0.19542225 -0.0413963
-0.08775018 0.044195432 0.22401848 0.027319862 0.0028685858 -0.12220338 0.13182984 0.112077184
0.27804974 -0.11006921 -0.26376882 0.15881908 0.21632649 -0.086523175 -0.32671517 0.15291585
0.2280437 -0.262245 0.38068336 -0.04301858 -0.17743015 -0.059096467 0.23957942 0.21200246
0.07125298 -0.01023475 0.0644404 -0.00037021312 -0.2702521 0.31557813 -0.16221191 -0.026178705
0.101510756 -0.0059217494 -0.3792287 0.093633816 0.13292426 -0.35690263 0.24428819 0.070832446
-0.019989459 0.17365894 0.17516476 -0.26531377 0.14036621 -0.0025462746 -0.043465704 0.20099045
0.41599473 -0.21274708 -0.1399817 -0.013213594 -0.1552746 -0.07406023 0.27908507 -0.028343236
0.07185849 0.0030402737 -0.0130488975 -0.07777169 0.19292797 -0.08950967 -0.15170416 0.1976299
0.03392846 -0.27110636 0.06150857 0.23994996 -0.07691956 0.27739754 -0.10889136 0.052234825
0.12458202 -0.21491441 -0.1858907 -0.22015071 0.179716 0.20766956 0.119023226 -0.09857064
0.040716004 -0.06031577 -0.30612454 -0.17889348 -0.2932694 -0.09217073 -0.034550127 -0.15514898
0.15010479 -0.015251343 -0.38752472 0.214692 0.028047692 0.22889397 -0.004816001 0.32087657
-0.27761444 0.20436752 0.16407683 0.10258928 0.18502808 0.017162418 0.19395906 -0.15963171
0.30512324 -0.1729071 0.1479375 -0.10502803 -0.036998097 -0.16855514 -0.013165513 0.021498598

critic.2.bias f4 [64]
00000000: e155 1cbc ad81 1fbc 5a6b 1dbc 321a 343c
00000010: 5749 1cbc 5cff 20bc f516 1fbc dfb9 203c
00000020: 3640 253c 4797 23bc 8ef8 273c 7ee2 213c
00000030: f1d3 283c 736b 24bc 179c 28bc 2c5c 24bc
00000040: 79d6 20bc 59ef 0dbc 2caa 21bc c8de 2abc
00000050: d257 263c 62e6 253c aa8d 223c dae2 24bc
00000060: 1257 253c 176b 22bc 30ff 18bc 2da8 273c
00000070: dfc2 18bc 3e0b 23bc 0dc8 29bc fd94 283c
00000080: b61a 253c a93c 273c e70f 253c b736 26bc
00000090: f972 253c 227b 2d3c 9d16 253c b494 293c
000000a0: 7ff5 2e3c d6da 2b3c bdc1 1ebc d95b 203c
000000b0: 125c 29bc a462 253c 9313 233c d0a3 203c
000000c0: f96e 233c dcc2 27bc cbe8 25bc 90aa 1f3c
000000d0: c2db 1e3c db1f 243c b60d 1fbc 9380 20bc
000000e0: 6737 22bc 5d5b 243c d4d0 1f3c 8b6f 22bc
000000f0: 83ce 00bc 8ef1 20bc 775f 21bc 73b2 273c
-0.0095419595 -0.009735507 -0.009608114 0.010992574 -0.00953897 -0.009826507 -0.009710063 0.00980994
0.01008611 -0.009984798 0.010252131 0.00988066 0.010304437 -0.0100353835 -0.010291121 -0.010031741
-0.009816759 -0.008663022 -0.009867232 -0.010429092 0.010152774 0.010125728 0.009921471 -0.010063851
0.01009156 -0.0099132275 -0.009338185 0.010232967 -0.009323805 -0.009951411 -0.010362637 0.010289428
0.010077169 0.010207334 0.010074592 -0.010144881 0.010098212 0.010588439 0.010076192 0.010350395
0.010678648 0.010489186 -0.0096897455 0.009787523 -0.010336893 0.010094319 0.009953397 0.009804681
0.009975188 -0.010239329 -0.010126303 0.009745255 0.009695949 0.010017361 -0.009707859 -0.0097962795
-0.009900904 0.010031548 0.009754378 -0.009914289 -0.007861736 -0.009823216 -0.009849421 0.010235417

critic.4.weight f4 [1, 64]
00000000: a1fb 50bd 11ea 29be cc82 1dbd c339 763c
00000010: 9d8d 03bd 4197 40bd 82c2 88be 778c 673d
00000020: 1058 bf3d b36a a5bd 4822 043e b4df 433e
00000030: 7a53 913d 6b10 d6bd 3753 d4bc 67d7 12be
00000040: a1e8 7ebe 0fa8 4fbc a033 3abe 676b 29bd
00000050: b375 f73d 49d9 bd3d 081e b83d 80fe 32be
00000060: bbcf 6d3e 48d9 5dbd d2bc d6bc eed9 243e
00000070: b7ea d8bc c069 a0bd b423 37bd fd9d 4e3e
00000080: fda4 e43d e0a3 8a3d 4a02 223e e867 fbbd
00000090: 32de 533e c5cb d23c 36bc 0c3e 2c64 243e
000000a0: 53a8 ff3c edc5 1a3d 46bc 24bd 1b31 493d
000000b0: 9ef6 59be 0991 523e 564a 933d f085 b43e
000000c0: 8457 bb3d 6752 85bd 6e09 4abe 0195 583e
000000d0: 68c7 6a3d 0f38 0a3d 8825 35bd cc17 bebd
000000e0: f63b a1bd 85e5 cc3d fd8d a03d cf61 96bd
000000f0: 875e 0ebc 8712 9abd 6334 b2bd 0e99 383c
-0.051021222 -0.16593195 -0.038454816 0.01502842 -0.032117475 -0.047019247 -0.26710898 0.056530442
0.093429685 -0.08076992 0.12903702 0.19128305 0.07096 -0.1045235 -0.025918586 -0.14339982
-0.24893428 -0.012674346 -0.18183756 -0.041362192 0.12082996 0.092699595 0.08990103 -0.17479897
0.23223774 -0.054162294 -0.026213083 0.16098759 -0.026479108 -0.0783267 -0.044711784 0.20177455
0.111642815 0.06769538 0.15821186 -0.12275678 0.2069023 0.02573193 0.13743672 0.16053838
0.031208193 0.037786413 -0.040218614 0.049119096 -0.21285483 0.20563139 0.07191913 0.35258436
0.09147552 -0.065098576 -0.1973016 0.2115059 0.057319075 0.033744868 -0.044225246 -0.09281883
-0.07872765 0.10004715 0.07839582 -0.07342874 -0.008689529 -0.07523065 -0.08701398 0.01126696

actor_mean.0.weight f4 [64, 43]
00000000: 1ec6 e4bc 3403 97be 8682 a8bd 30cc 99be
00000010: 51ae eb3d d6fb e5be 983c 56be c12f b2bd
00000020: 494e 8abd e5c6 ff3d 2d8e 13bd 1e20 1c3d
00000030: a18c fa3d 2a01 5a3e ee08 6dbe a2e2 b73d
00000040: d406 01bd 0a50 00be 614e 4bbe b412 33be
00000050: 8669 7fbe 480c bbbd a204 40be 523a 51bd
00000060: 5520 6c3d 971b 7ebe 8dcd 03bd 1530 71be
00000070: f5bb f23d ab94 ec3d 72e4 38be 9a61 473d
00000080: 0c0e 6dbd cc72 173e abfa c63b bcf3 e63e
00000090: 1d47 b1be d4a5 b2bd 21b1 85bc def4 8bbe
000000a0: 0be8 4c3d 5564 0dbd 29ad 65be 673b a2be
000000b0: 9876 39be 35ce 9a3e 224a 093e 8567 603e
000000c0: b831 0c3e 9445 c53c fee2 73be 9268 0fbe
000000d0: 77a0 ae3d b33d f03d 503c 943e d30a 8a3e
000000e0: 5efe 58bd 4dce 683d 8193 be3d b996 953e
000000f0: 2d8f bd3d 74c6 d7bd 266f 613d 9f29 993d
00000100: 69d7 9cbe 503e 9838 8c73 643d f622 163d
00000110: fb6a ea3e e356 73bc 1e05 4c3c 86c2 3fbe
00000120: 57c0 d7bd 590d 5dbd bcd4 903d ecce a3be
00000130: 1b3f 6d3e db73 b7bd 4059 3dbe b990 bc3b
00000140: 9589 133e 9b71 a13e 1fbb 653d c9b6 55be
00000150: a51a 90be da31 4c3e 787a f23d e310 22be
00000160: 2dca bebe 5588 c3be 504b de3d eec0 01bd
00000170: c988 693d 53c1 ea3e d420 1a3e 8784 103c
00000180: fb5b 8c3c 0600 2bbe 41e0 43be 31b9 1dbe
00000190: 2188 a83e e1d2 1bbd 8795 6cbd c800 963d
000001a0: cc04 3f3e a727 76bd 4304 ec3e 2be8 92bd
000001b0: 2b40 833d 009b a8be 93df 303e fcfe 6f3e
000001c0: ef75 73be a7a3 403e 9fa2 dcbd 0248 80bd
000001d0: 0b89 a43d aebe 8d3c 855a 313c fb9f 0c3e
000001e0: 0943 703e f0c2 cf3d 541e 0ebe d199 7d3d
000001f0: 188b 8fbe e2aa 213e ee01 a1bd 9edd 36be
00000200: d449 ac3d 4707 99bd 2745 e23c 8052 9b3c
00000210: 59f8 ca3e df8b 6ebe 9060 24be 8ad3 cbbc
00000220: 9bcb 12bd 49f0 0ebe 2e94 d7bc 2e0a a5bd
00000230: 0841 5bbe c973 a33c 8241 373c 5830 8b3e
00000240: 993a 01be ef4c 6e3c cd6b 63bc 9bb7 e4bd
00000250: d7f5 c4be 90ca 463e 0a42 a2be b78b debe
00000260: b163 f53d b935 763e dc10 c8bc ced2 60be
00000270: 8f04 d4bc 702f 71bc 9508 423d e366 463e
00000280: 8c01 8e3e 745c 253d ad2b 9fbe 44e6 bbbd
00000290: 874c f33d 7e1a a8be db32 393e abf6 89bd
000002a0: c12c 9b3e d217 9f3e 9015 eabd d2d5 033d
000002b0: 4ff9 323e 686e aa3c 5e40 9abb d078 a8be
000002c0: a9c5 c1bc 0dd5 c23e cbaf 253e 5788 963d
000002d0: 68df 48be ad42 e6bc ace7 f1bd d42b 173e
000002e0: 64ea 823e d507 b93d b396 b2bd f1df d33c
000002f0: 2e7b c4be af06 283e f054 43be 689a a3be
00000300: a0d5 73be f0ad 60bd 5c13 593d 2ca0 a8bd
00000310: f2f6 6f3e c3f3 33bd 36b5 9e3e fe32 a6bd
00000320: ca91 5abc 099e 28bc 3665 2e3e 9df7 073e
00000330: 5983 3ebd 2336 9dbd 1be2 ef3c 6a6f ca3d
00000340: c9dd ae3e 821b 7ebe 8e37 53be 6817 a93c
00000350: a15b 08bc 12d2 aabe da7b 69be 3796 c93d
00000360: 41a2 5f3d 6535 4bbe 9ab9 12be cabd 31be
00000370: 82dd 623d cbac b13d 5a45 c7bd 0d86 d7bd
00000380: 187e a63e a28e 8f3e 6839 2cbd 461f 25bc
00000390: df81 81bd e581 1c3e e90a 6fbe 7eea aebe
000003a0: 32fe 86be 3135 963d c439 563e e3c5 c23d
000003b0: 645a d73d 6381 be3d 3052 213e d411 cb3d
000003c0: b5f7 8ebe 6ac7 373e 0941 6f3d 0528 253e
000003d0: 6651 41be 1960 f8bd 18bb c6bc 6819 efbc
000003e0: b849 c83c 6401 29be 7b25 6c3e b2bf 35be
000003f0: 1299 73be 42d5 443e dff6 ce3e 447b 93be
-0.0279265 -0.2949463 -0.0822802 -0.30038595 0.115078576 -0.44918698 -0.20921552 -0.087005146
-0.06753213 0.12489108 -0.03602426 0.038116567 0.12233854 0.21289507 -0.23147938 0.08978774
-0.031500652 -0.12530532 -0.19854118 -0.17487603 -0.24942598 -0.09133202 -0.18751767 -0.05108101
0.05764802 -0.24815212 -0.03217845 -0.23553498 0.11852256 0.11551794 -0.18055895 0.048677064
-0.057874724 0.14789885 0.0060723624 0.4510783 -0.34624568 -0.087230355 -0.016319813 -0.27335256
0.05002598 -0.034519512 -0.22429337 -0.31685945 -0.18111646 0.30235448 0.13407186 0.2191449
0.13690841 0.024081029 -0.2381706 -0.14004734 0.085267 0.11730518 0.28952265 0.26961383
-0.05297696 0.05683737 0.09305478 0.29216555 0.09255824 -0.10535899 0.05503764 0.07478642
-0.30633095 7.2595314e-05 0.055774257 0.036654435 0.45784745 -0.014852258 0.012452392 -0.18726549
-0.10534733 -0.053967807 0.07071826 -0.31993806 0.23168604 -0.089576446 -0.18491077 0.005754557
0.14407952 0.31531987 0.056086656 -0.20870508 -0.28145328 0.19940892 0.11839765 -0.15826754
-0.37263623 -0.3818995 0.108542085 -0.031678133 0.057015214 0.4585062 0.15051585 0.0088206595
0.017133703 -0.16699228 -0.19128515 -0.15402676 0.32916358 -0.038042907 -0.057759788 0.07324368
0.18654174 -0.06009641 0.46097 -0.07173189 0.064087234 -0.32930756 0.17272787 0.23437113
-0.23775457 0.18812428 -0.10773205 -0.062637344 0.08033951 0.017302837 0.010824804 0.13732903
0.23463072 0.10144603 -0.13878757 0.06191427 -0.28035808 0.15787843 -0.07861696 -0.17857978
0.08412519 -0.07472091 0.027620865 0.018960238 0.396426 -0.23295544 -0.1605246 -0.024881143
-0.035838705 -0.13958849 -0.026315775 -0.08058582 -0.21411526 0.019952672 0.011185052 0.2718532
-0.1262001 0.01454471 -0.013880682 -0.111678325 -0.3846881 0.19413209 -0.3169101 -0.4346597
0.11981905 0.24043931 -0.024422102 -0.21955416 -0.02588108 -0.014720783 0.047371466 0.19375186
0.27735555 0.040371373 -0.3108801 -0.09174779 0.11879831 -0.32832712 0.18085806 -0.06736501
0.30307582 0.3107286 -0.11429894 0.032186337 0.17477916 0.020804599 -0.00470738 -0.32904673
-0.023653822 0.3805317 0.16180341 0.073502235 -0.19616473 -0.028107965 -0.11811766 0.14762813
0.2556945 0.09034697 -0.0872015 0.02586362 -0.3837523 0.164088 -0.1907537 -0.3195374
-0.2381196 -0.05485338 0.05299698 -0.08233675 0.23434046 -0.04393364 0.30997628 -0.08115195
-0.013340423 -0.010291585 0.17030796 0.1327805 -0.04651198 -0.076763414 0.02928262 0.09884532
0.34153584 -0.24815181 -0.20626661 0.020641044 -0.008322627 -0.33363396 -0.22801152 0.09843104
0.054598097 -0.19844587 -0.14328614 -0.17357555 0.055387028 0.08675536 -0.09730025 -0.10523615
0.32518077 0.28038508 -0.042046934 -0.010078257 -0.06323599 0.15283926 -0.23344006 -0.34163278
-0.2636581 0.07334364 0.20920473 0.095104 0.105152875 0.09302022 0.15754008 0.0991551
-0.2792336 0.17947164 0.05841163 0.16128547 -0.18878707 -0.12127704 -0.024259135 -0.02918692
0.024449214 -0.16504437 0.23061173 -0.17748907 -0.2378886 0.19221976 0.40422723 -0.28804982

actor_mean.0.bias f4 [64]
00000000: e42b 17be 5242 0c3e 5003 f1bd fc11 053e
00000010: 63c3 16be 9576 3abe 2101 353e 85c2 f9bd
00000020: 4232 143e ccc0 10be b906 113e fd43 04be
00000030: 7b58 00be 718e 0abe 347e 613e a8cb 1f3e
00000040: eca4 0e3e e54c ecbd 8a5f f9bd 5977 ddbd
00000050: dd0a 0f3e ab70 20be cc53 203e 7411 0b3e
00000060: 63c2 523e 7059 19be f0a4 1bbe cd7a fd3d
00000070: aae9 0f3e 3578 1f3e 96ad f53d af22 203e
00000080: f96a 73be eb85 053e f270 05be 140b 083e
00000090: 2d3b 4f3e 1e80 f73d 1359 e9bd 0dd9 3a3e
000000a0: 4638 f5bd 33b6 163e fd9b 343e 4538 f93d
000000b0: 3f93 2ebe d918 623e 1e29 113e b11c 1abe
000000c0: 62c2 163e 15b6 173e e88f 533e ff81 fcbd
000000d0: a73e 2d3e 88b3 06be 4e4d 653e 0f73 30be
000000e0: 767b 343e 572c 40be 4043 24be e8da 243e
000000f0: 8957 173e bbbf 193e 5d84 20be 1b23 1abe
-0.14762837 0.13697174 -0.1176821 0.12995142 -0.14722972 -0.18209298 0.17676212 -0.12195305
0.14472297 -0.14136046 0.1416272 -0.1291656 -0.12533753 -0.135309 0.22020799 0.15605032
0.139301 -0.11538104 -0.12176426 -0.108137794 0.13968988 -0.1566798 0.15656966 0.13580877
0.20581965 -0.14975524 -0.15199637 0.12376938 0.1405398 0.15573199 0.119959995 0.1563823
-0.23771276 0.13039367 -0.13031366 0.13285476 0.20237418 0.12084983 -0.11393943 0.18246861
-0.11973624 0.14717941 0.1763763 0.12168936 -0.17048357 0.22079791 0.14175841 -0.15050007
0.14722589 0.14815553 0.20660365 -0.12329482 0.16918431 -0.13154423 0.2239277 -0.17231391
0.17625222 -0.18766914 -0.16041279 0.16099131 0.14779486 0.15014546 -0.15675493 -0.15052454

actor_mean.2.weight f4 [64, 64]
00000000: 2931 b03e 6ff1 9bbd 128c 213c 58d2 873e
00000010: 596f 89bd 5052 183f 7913 94be 9f50 563e
00000020: 5bae 74bd 6f8c c4bd 68c5 65be 19c9 d93d
00000030: 4000 523e 6c2f 6c3e e7f1 ac3d d1d7 25be
00000040: cc97 f03d ac22 203e 5a10 adbc b223 b93e
00000050: a502 85be 2e0f 3dbd 8bf3 e33d 550f c73d
00000060: 3c44 8abe 44ba fb3c 9f22 753e f73b 8dbe
00000070: 7ac7 e0bd 9294 f6bd 599b 37be 52b7 92bd
00000080: 228e 273e 8aa3 d1be 9535 243e 4a2d 03bf
00000090: 562f e0be d45f 5cbd 5bd8 903e 37c1 cbbc
000000a0: 2d22 893e 9b71 02be ab79 bebb 3a8a aebe
000000b0: 8be1 94bc cb13 c4be 5326 e0be db51 a23b
000000c0: 3bd2 6ebe fe9a 60be aa40 23be 8d61 83be
000000d0: 9421 7d3e 9f49 193e 70e0 acbe 3226 2e3e
000000e0: 12b3 4fbd 175f 903d 3e1a d23d 8ccc 4fbe
000000f0: 0935 3ebe 4570 48be 14f2 113e 8d50 ac3c
00000100: 6e7d cebe 5bd2 2d3c 0b30 a0be ae30 0e3e
00000110: 2180 30be 258f 37be e551 f13e 3895 0a3e
00000120: 2618 3c3c e2dc 1bbe fe14 093f 5ba7 39bd
00000130: ba29 40be b7c3 95bd 590c 523e ec18 a2bc
00000140: 4ea2 aa3c 9bec c6be 87d4 9ebe 6ea9 473e
00000150: 54dc d5bd 1bb2 c6be 5feb 943e 7fdd fe3c
00000160: 1156 1d3e 43d0 d4bd 5993 31be 5ce9 95bd
00000170: 0ecf 6c3e 2ffc 4ebd ce12 c13e e434 94bd
00000180: 9d8e bc3d 260c bf3e 2938 813d e9e0 953d
00000190: 9a74 973e 6942 ae3e 5760 65be 6ec1 4f3e
000001a0: 5581 c63c 1d46 4cbd dc04 1e3e aaf8 40ba
000001b0: b8a0 53bd 9b80 163e 7732 53bd 89f0 15be
000001c0: 5a5e a33e 6fe1 4cbe 97b8 ce3e feb5 60bd
000001d0: 40bd 913d b717 a6be fb64 993e 50d5 a1be
000001e0: 06d9 843e f7e1 7dbe 8dec 93bd e84a c6bc
000001f0: 4262 023f 548e 5a3e 29af bbbd 9acb 0bbe
00000200: 509d edbd 4cdb 5ebe dc62 013f 3d22 9bbd
00000210: e2d3 2c3e 984a cd3c 17c9 d13d 9cec a83e
00000220: d429 bdbd 667c f7bd 941a fa3c f318 f43c
00000230: dce0 e43d 675f 3bbe b348 a4be 7e9d 2e3e
00000240: 22c6 c3be 6373 6d3e fb8f ab3d a626 9d3d
00000250: a0d7 2dbe 6369 fb3d fbbf febd 5a61 86be
00000260: ee10 a3be 84ff c33e 96fb 15be 850a 0ebe
00000270: 17da 41be fd26 86be 3519 cdbe 8877 f0bd
00000280: 30de b13e 9696 a7be 9690 963d d1f7 07be
00000290: 1a17 05bf 16c0 24be 9099 2b3e 5cca 42be
000002a0: bd26 cf3d 1c35 bbbe 6d4a 3f3d d3c2 4d3c
000002b0: b9fa 6cbe f0b8 4ebd ffdc fbbd 6161 4b3c
000002c0: ec2b c7bc b341 7ebe 3bb8 fdbd f3c9 87bd
000002d0: fa3a 9fbb 2686 313b fdc7 19be d45c 1c3f
000002e0: dd9b bebe 2faf ad3e 900b 6e3e 36b5 1ebe
000002f0: e59c 88bd 3687 5ebe cafd d2bd 6273 40bc
00000300: 7b7b 3cbe 41b0 863e ea3c 84be 2d8c ae3e
00000310: 7338 a2bd 89b6 dfbd bdb2 2b3e 4ab6 90be
00000320: fb7f d13e fe6e 39be 59e3 703e a3ac d5bc
00000330: 33a8 47bc 1d66 b2bc b9de 593e 51b5 933e
00000340: b140 673e 703e edbd b50e 1c3b e13b e03d
00000350: 1af6 febd d0a3 4fbe 5272 00bf b4cb bd3e
00000360: 7721 a33e dc94 d0bd 723e edbe 675f fbbc
00000370: fa4a 253e e944 2d3e 5249 d13d d931 80bd
00000380: 7f84 99be 5c5a eb3d e6dd 03bf f94b e43e
00000390: 33b7 83bd 1f92 7abd 460e 99bd 7184 f13d
000003a0: 02ff 78be 1f46 c03d 467b 03be 2f02 a63e
000003b0: 0c86 7ebe 1eb3 2b3c 7767 2abe 60d5 9cbc
000003c0: 7d5b 8a3e 1ea8 fc3c 76cb 103e 0f56 5a3d
000003d0: 70d7 793e 0509 5cbe 352b 383e 1843 e8bd
000003e0: 64e8 af3e 55cf b1be 8d2d e33c 5e34 663e
000003f0: 5895 003e 97dc d13e 4ce8 5fbe 8ed4 d2bc
0.34412506 -0.07614409 0.0098600555 0.26527667 -0.06710691 0.595006 -0.28921106 0.20929192
-0.05973659 -0.09597098 -0.22438586 0.106340595 0.20507908 0.23064965 0.08444577 -0.16195609
0.11747703 0.15638226 -0.021125961 0.36160046 -0.2597858 -0.046157055 0.111304365 0.09719721
-0.27005184 0.030728467 0.23938988 -0.27584812 -0.10975547 -0.12040056 -0.17930354 -0.07163872
0.16362813 -0.40945083 0.16036065 -0.5124098 -0.43786114 -0.053802326 0.28290066 -0.024872405
0.26783887 -0.1273865 -0.005812844 -0.34089833 -0.018173954 -0.3829635 -0.4377924 0.0049536056
-0.23322384 -0.21934125 -0.15942636 -0.25660363 0.2471984 0.1496949 -0.33764982 0.17006758
-0.050707884 0.07049387 0.102589116 -0.20292872 -0.18574919 -0.19574077 0.14252502 0.021034503
-0.4033007 0.010609235 -0.31286654 0.13885757 -0.17236377 -0.17925699 0.47132793 0.13533485
0.011480367 -0.15220979 0.53547657 -0.04532562 -0.18765917 -0.0731272 0.20512523 -0.019787274
0.020829346 -0.3885239 -0.3102152 0.19498226 -0.10442415 -0.3880776 0.29085824 0.031111477
0.15364863 -0.10391285 -0.17341365 -0.073199004 0.2312586 -0.05053347 0.3770966 -0.072366506
0.09206889 0.37313956 0.0630954 0.07318289 0.29581147 0.34035042 -0.22400032 0.20288631
0.024231592 -0.049871553 0.15431541 -0.00073612726 -0.051666945 0.14697497 -0.0515618 -0.14642538
0.31907922 -0.20007871 0.40375206 -0.05486106 0.07116175 -0.32439968 0.29959854 -0.31608057
0.25946826 -0.2479323 -0.07222853 -0.02420564 0.5093118 0.21343356 -0.091642685 -0.13651887
-0.116022706 -0.21763343 0.5054147 -0.0757489 0.16877702 0.025059983 0.10243433 0.3299302
-0.09236494 -0.12084274 0.030530252 0.029797053 0.11175701 -0.18298112 -0.32086715 0.17052266
-0.382371 0.23188548 0.083770715 0.07673387 -0.16976786 0.1227596 -0.12438961 -0.26246148
-0.31848854 0.3828088 -0.14646754 -0.138712 -0.18930851 -0.2620162 -0.40058294 -0.11741549
0.34739828 -0.32732075 0.07351796 -0.13278128 -0.51988375 -0.160889 0.16757798 -0.19022506
0.101148106 -0.36563957 0.046701837 0.012558657 -0.23142518 -0.05046934 -0.12298011 0.012413354
-0.024312936 -0.2482975 -0.12388655 -0.06630316 -0.0048593255 0.0027088015 -0.15017696 0.61079144
-0.3722829 0.33922717 0.23246598 -0.15498814 -0.0667055 -0.21731266 -0.10302313 -0.011746259
-0.18406479 0.26306346 -0.25827724 0.3409132 -0.07920923 -0.10923488 0.16767402 -0.28264076
0.40917954 -0.18108746 0.23524226 -0.026083296 -0.012186098 -0.021777207 0.21276368 0.2884927
0.22583272 -0.11584175 0.0023812477 0.10948921 -0.12449284 -0.20277333 -0.5017444 0.37069476
0.3186147 -0.10184643 -0.46336704 -0.03068514 0.16141883 0.16920818 0.10219063 -0.06259508
-0.299839 0.11491844 -0.51510465 0.44589213 -0.06431427 -0.06117451 -0.074734256 0.11792839
-0.24316028 0.093883745 -0.12839994 0.3242354 -0.24855822 0.010479717 -0.16641031 -0.019144714
0.27022925 0.030841883 0.14140114 0.053304728 0.24398589 -0.21487816 0.17985232 -0.11340922
0.34356987 -0.34728494 0.027731681 0.22480914 0.1255697 0.4098861 -0.21865958 -0.02573612

actor_mean.2.bias f4 [64]
00000000: 9730 c9bd 31b6 ab3d ffd6 cdbd 68a3 c23d
00000010: 7162 acbd dcc4 b2bd ff6f b2bd 4c43 b93d
00000020: 0ecd bf3d af39 b13d 5296 df3d 5766 b4bd
00000030: 15e7 bd3d f0ca d7bd bde9 b8bd 0d62 bc3d
00000040: 7758 e13d 266b bbbd 9372 bdbd bbf5 b93d
00000050: e95d bebd cc43 b1bd 44ac a63d b9e9 c63d
00000060: 51e0 debd c020 b5bd 5db4 e4bd 3f17 b7bd
00000070: 975a abbd e4b8 c33d a58e cd3d c3f4 bb3d
00000080: 616b d03d e7ee bc3d 207e bd3d 4c2d bf3d
00000090: 34ba aabd 212b d4bd f413 d23d cef0 afbd
000000a0: bbc1 b3bd 826e d1bd 51f3 a53d 8bb9 bebd
000000b0: e25e d53d 9ad6 b83d 2ed5 b2bd 0262 b4bd
000000c0: d615 c73d 9480 b13d f289 9f3d acd6 ce3d
000000d0: 8fb7 a5bd 9350 d23d f4c8 a53d 2d7e c9bd
000000e0: d823 b8bd 73eb ddbd cc42 c13d b397 d0bd
000000f0: 9f02 a63d 661a c43d e1e7 d1bd 4593 bcbd
-0.09823721 0.0838436 -0.10050773 0.095038235 -0.08417214 -0.08728954 -0.08712768 0.09046039
0.09365283 0.086535804 0.10917343 -0.08808582 0.09272591 -0.10536754 -0.09028957 0.09198389
0.110032015 -0.09151296 -0.09250369 0.090800725 -0.09295256 -0.08655509 0.08138326 0.09712548
-0.10882629 -0.08844137 -0.11167214 -0.08939981 -0.08366888 0.095567495 0.10036973 0.09177544
0.10176731 0.092252545 0.09252572 0.093348116 -0.08336297 -0.10359789 0.10257712 -0.08590852
-0.087771855 -0.10226156 0.081030495 -0.09312733 0.10418488 0.09025307 -0.08732067 -0.08807756
0.09720962 0.086671025 0.07789983 0.10099539 -0.08091652 0.102692746 0.080949694 -0.09838519
-0.08991212 -0.10835924 0.094365686 -0.10185184 0.08105969 0.095753476 -0.102493055 -0.09207777

actor_mean.4.weight f4 [12, 64]
00000000: d7ef 46bc d965 563c 90e5 58bc bc7c 503c
00000010: 40e6 6cbc 39f2 65bc bc63 26bc be0c 363c
00000020: b743 323c c7a4 343c 3880 7a3c 7ab3 3fbc
00000030: 7bef 123c 8df6 4ebc 7945 32bc b539 1e3c
00000040: bfdf 293c 1e68 43bc 8615 22bc adb9 6c3c
00000050: 7509 5fbc 2ee2 4ebc a40b 393c 3177 5d3c
00000060: a728 57bc 4d99 4abc 4bef 61bc 7d32 61bc
00000070: 6328 8bbc 0b52 863c 8458 303c f656 3d3c
00000080: 1fd4 553c b33d 573c c268 313c 3b2b 363c
00000090: d460 33bc 20f1 2bbc 6a56 6b3c d531 34bc
000000a0: a1ef 4bbc bfa2 4fbc 2370 2f3c 85c8 7dbc
000000b0: 21d9 1f3c 13d3 333c 2a44 26bc 227f 12bc
000000c0: 79e5 333c 00fa 343c 8379 363c d947 403c
000000d0: 7077 43bc 9f07 533c 2c9b 343c a32f 5ebc
000000e0: ad1d 5ebc eaea 1dbc 17df 233c 7e11 41bc
000000f0: b058 3a3c d7b7 783c 0f67 50bc 287e 0fbc
00000100: aca8 ef3c e3f6 d9bc 0785 0c3d 44a3 febc
00000110: 7b78 0f3d 7b0d 143d 8b2a d73c 0d02 fcbc
00000120: 8829 c9bc 5304 c4bc da73 16bd 38b8 003d
00000130: 5999 c6bc 8cf2 113d 9f51 c53c 1f09 d9bc
00000140: da39 00bd e3d5 ed3c 81ec d23c 6402 08bd
00000150: 8ebf 093d 05bc de3c 3888 debc ea51 f5bc
00000160: 1d3b 103d 7a8a fd3c 6657 0f3d 5e50 063d
00000170: c48e 073d 793a 14bd 8a1e edbc f216 febc
00000180: a6be f4bc fb58 c3bc 2b99 06bd 6908 07bd
00000190: d232 e23c 6663 ea3c 3e18 10bd bb3d fc3c
000001a0: fdde e43c 51c7 153d d1d2 ebbc ace4 083d
000001b0: 0928 e5bc 06f6 c7bc 35bc ba3c 6f78 ec3c
000001c0: dede f1bc 2f38 07bd edfb c3bc 8485 13bd
000001d0: 176e 003d 5658 15bd a4c0 d3bc a990 153d
000001e0: 697f f53c bc3d 053d 328c e3bc 5c3d dc3c
000001f0: 97fa c5bc 815b 1bbd 0279 093d 594e 083d
00000200: d074 103f 76d6 0ebf e774 143f b7f8 11bf
00000210: 53bc 133f 8b6a 143f b994 0c3f e721 11bf
00000220: e3fc 0cbf 2d43 0dbf 59f4 14bf 9e6d 123f
00000230: bea6 0cbf 9a2e 143f 5077 0c3f f1da 0dbf
00000240: 3783 12bf 5d1f 103f c810 0c3f 1d8b 13bf
00000250: 0fd7 123f d3ac 0e3f b067 0ebf 4b29 10bf
00000260: cc65 153f bf6e 113f 8434 163f 93c2 123f
00000270: 40ec 133f bdec 14bf 5e59 0fbf 532a 11bf
00000280: 7d4e 0fbf 1414 0cbf b7e0 11bf 67d5 11bf
00000290: ab5d 0c3f d379 113f cafb 15bf 501f 113f
000002a0: 1973 0f3f 9c4d 153f e9d6 0ebf 257f 133f
000002b0: 9736 0fbf c6bd 0cbf ec7e 0c3f 4176 123f
000002c0: ff4e 10bf 3654 11bf 01fb 0bbf f665 14bf
000002d0: 4c4c 103f d9f5 15bf 46d5 0ebf 9f2a 153f
000002e0: f8ad 103f ee87 133f c36c 0fbf b77b 0f3f
000002f0: 2002 0dbf 0522 15bf c29e 123f 152b 123f
00000300: 6d8d 2a3f 2e40 28bf 5016 2e3f 20f7 2bbf
00000310: f77f 2d3f 62aa 2d3f 1a99 263f 5a1a 2bbf
00000320: 337a 26bf e4a5 26bf 542e 2fbf 111b 2c3f
00000330: 7048 27bf 7d6e 2e3f 24db 253f 71c9 27bf
00000340: a27d 2cbf 0fb7 293f d37e 263f cfca 2cbf
00000350: 1e7e 2c3f 2c9e 283f a1c9 27bf aaae 2abf
00000360: 7ea8 2f3f 29a7 2a3f 1f18 303f 3954 2c3f
00000370: bd94 2d3f 03a0 2ebf 8a6b 2abf 6639 2bbf
00000380: 9458 29bf e6a1 26bf 6a1d 2bbf da2d 2cbf
00000390: 6667 263f 73ea 2a3f ce0d 30bf 8117 2c3f
000003a0: 4414 2a3f 5180 2f3f 8b59 28bf 48f3 2c3f
000003b0: 4813 29bf bc49 27bf 13ee 263f 0140 2b3f
000003c0: 8441 2abf d3d9 2abf 9c2a 26bf 5e47 2ebf
000003d0: 17a5 293f 06fa 2ebf aaf2 28bf 37dc 2e3f
000003e0: 1d15 2a3f 8de9 2d3f adec 28bf b314 2a3f
000003f0: b01b 27bf 78a0 2ebf 388c 2c3f 722c 2d3f
-0.012142143 0.013085806 -0.013238326 0.0127250515 -0.014459193 -0.014034801 -0.010155614 0.011111436
0.010880402 0.011025614 0.015289359 -0.011700505 0.008968229 -0.0126320245 -0.010880821 0.009657313
0.010368287 -0.011926679 -0.009892827 0.014448565 -0.013613095 -0.012627168 0.011294279 0.013517187
-0.013132251 -0.012365651 -0.013789962 -0.0137449475 -0.016987031 0.016396543 0.010763291 0.011556378
0.013051062 0.013137269 0.010828199 0.011118705 -0.010948379 -0.0104945 0.014363864 -0.010998209
-0.012447269 -0.012673079 0.010707888 -0.015489702 0.009756357 0.010975617 -0.0101480875 -0.008941444
0.0109800035 0.011045933 0.011137369 0.01173588 -0.011930332 0.012880235 0.011023324 -0.013561162
-0.01355688 -0.009638527 0.010001919 -0.011783956 0.011373684 0.01518055 -0.012719884 -0.008758105
0.029255234 -0.026606983 0.034306552 -0.03108371 0.03502701 0.03614567 0.026265403 -0.030762697
-0.024555936 -0.023927843 -0.03673158 0.031425685 -0.024243044 0.0356317 0.024086772 -0.026493607
-0.03130517 0.029032653 0.02574754 -0.033205405 0.033629946 0.027189264 -0.027164564 -0.029946286
0.035212625 0.03094982 0.03499546 0.032791488 0.033095136 -0.036188576 -0.028945226 -0.0310168
-0.029876065 -0.02384614 -0.032860916 -0.032967005 0.027612124 0.02861185 -0.03517937 0.030791154
0.02793836 0.036567036 -0.028787049 0.033421203 -0.027973192 -0.024409305 0.022794822 0.028866021
-0.029525217 -0.033012565 -0.023923839 -0.036016002 0.03135499 -0.036461197 -0.025848694 0.03651491
0.02996798 0.032529578 -0.027776811 0.026884727 -0.024167342 -0.03792906 0.033562668 0.033277843
0.5642824 -0.5579599 0.5799088 -0.57020134 0.57709235 0.5797507 0.5491443 -0.56692356
-0.55073375 -0.5518063 -0.58185345 0.5719851 -0.5494193 0.5788361 0.54869556 -0.55412203
-0.5723147 0.56297857 0.54713106 -0.57634145 0.57359403 0.5573246 -0.55626965 -0.5631301
0.58358455 0.5680961 0.5867388 0.57328147 0.57782364 -0.58173734 -0.5599574 -0.56705207
-0.5597914 -0.54718137 -0.5698351 -0.5696625 0.54830426 0.56826514 -0.58587325 0.56688404
0.56035 0.5832155 -0.55796677 0.5761588 -0.5594267 -0.5497707 0.5488117 0.5721169
-0.5637054 -0.5676912 -0.54679877 -0.5796808 0.5636642 -0.5857826 -0.5579418 0.5826816
0.56515455 0.5762929 -0.5602533 0.5604815 -0.5508137 -0.58255035 0.57273495 0.5709699
0.6662205 -0.6572293 0.68002796 -0.6717396 0.67773384 0.6783811 0.65077364 -0.66837084
-0.6503021 -0.6509688 -0.68430066 0.672288 -0.65344906 0.6813734 0.6478751 -0.6554175
-0.673792 0.6629495 0.6503727 -0.6749696 0.6737994 0.6586635 -0.65542036 -0.66672766
0.68616474 0.66661316 0.68786806 0.67316014 0.6780508 -0.6821291 -0.6657034 -0.6688446
-0.66150784 -0.6509079 -0.6684176 -0.67257464 0.65001523 0.6676399 -0.68771064 0.67223364
0.6643717 0.6855517 -0.6576163 0.6755872 -0.66045046 -0.65346885 0.6520702 0.6689454
-0.6650622 -0.66738623 -0.64908767 -0.6807765 0.6626753 -0.68350255 -0.65995276 0.6830477
0.66438466 0.67934495 -0.6598614 0.66437835 -0.6527662 -0.68213606 0.67401457 0.67645943

actor_mean.4.bias f4 [12]
00000000: 6233 203c 4eb7 abbc 63bb 07bf 2145 22bf
00000010: 8b4c 67bc e675 6bbc d658 a7bc e78e 04bf
00000020: ac03 20bf 31c1 12bc 62d1 2cbc b365 55bc
0.009777876 -0.02096143 -0.53020304 -0.6338673 -0.01411737 -0.014371371 -0.020428102 -0.5178055
-0.625056 -0.008957193 -0.010547968 -0.013024735
